HW5/original/cifar_net.pth (torch, 250887 bytes, 10 tensors)

conv1.weight f4 [6, 3, 5, 5]
0	0xbe631a9b	-0.22178118
1	0x3d12dc79	0.03585479
2	0x399b83a4	0.00029661984
3	0x3d4e12fb	0.05031107
4	0x3c7ff858	0.015623175
5	0xbebdb80d	-0.37054482
6	0x3b04daad	0.0020271942
7	0x3e872aaf	0.26399752
8	0x3d9c5218	0.07632846
9	0xbd85ccf7	-0.065332346
10	0xbe43dd21	-0.19127323
11	0x3cacda89	0.0211003
12	0x3ecffe84	0.40623868
13	0x3d243c8d	0.04009681
14	0xbeb5ffed	-0.35546818
15	0xbd9db5de	-0.07700704
16	0x3e79c405	0.24391182
17	0x3e9876e3	0.29778203
18	0xbe991b23	-0.29903516
19	0xbe945e45	-0.28978172
20	0xbd9643ea	-0.07337172
21	0xbd80d357	-0.0629031
22	0xbd8e6273	-0.069523714
23	0xbee4e3d9	-0.44705084
24	0x3d7a3fb7	0.06109592
25	0xbdc62fa4	-0.096770555
26	0x3d046456	0.03232225
27	0x3e62c7f2	0.22146586
28	0xbd23381a	-0.039848424
29	0x3d0fd610	0.035116255
30	0xbdc3b900	-0.0955677
31	0x3e2d805e	0.169435
32	0x3e98c557	0.29838058
33	0x3db48623	0.08814647
34	0xbcae7ca0	-0.02129966
35	0xbe44abc3	-0.19206147
36	0x3ddc1af1	0.10747326
37	0x3f0f52b5	0.55985576
38	0x3e2c792b	0.16843097
39	0xbe5d0d9d	-0.21587224
40	0x3e3eb32d	0.18623038
41	0x3ec2054e	0.37894672
42	0x3e8464e7	0.25858232
43	0xbd472819	-0.048622224
44	0xbe7d9c2f	-0.2476661
45	0x3e1423a7	0.14466725
46	0x3e36e293	0.17859869
47	0xbbe0849c	-0.006851746
48	0xbebffed3	-0.37499103
49	0x3e52881a	0.20559731
50	0xbe66283c	-0.22476286
51	0x3c2f248f	0.010689869
52	0x3c091bc3	0.008368435
53	0xbb35cdcf	-0.002774108
54	0xbd9fb7b5	-0.07798711
55	0xbe9435d2	-0.28947312
56	0x3cf6bf7d	0.030120606
57	0x3e2661cc	0.16248244
58	0xbd34e0e9	-0.044159804
59	0xbe1dba49	-0.15403093
60	0xbe2950ec	-0.16534775
61	0xbc305435	-0.010762264
62	0x3ea72ba4	0.32650483
63	0x3e3771cf	0.17914508
64	0xbe78e115	-0.24304612
65	0xbdd24124	-0.10266331
66	0x3e9ab17f	0.30213544
67	0x3dffa746	0.12483077
68	0xbdff3e05	-0.12463001
69	0xbe4644c5	-0.19362171
70	0xbdf51b65	-0.11968116
71	0xbd58f9af	-0.05297249
72	0xbd18f5e5	-0.03734388
73	0xbe5535ba	-0.20821276
74	0x3e11c6f0	0.14236045
75	0xbe8fa1c8	-0.28053117
76	0xbe362761	-0.1778846
77	0xbdc79f0b	-0.09747132
78	0xbddec610	-0.10877621
79	0xbd7a5698	-0.06111774
80	0x3e403b5c	0.18772644
81	0x3e02858c	0.12746257
82	0x3dcc3aff	0.0997219
83	0x3e4ea492	0.20179966
84	0xbd029f28	-0.031890064
85	0x3e828ded	0.25498906
86	0x3e6fa364	0.23402172
87	0x3e05c40f	0.13063072
88	0x3e25a795	0.16177209
89	0x3e220e1d	0.15825696
90	0x3e142329	0.14466538
91	0x3dadd20c	0.08487329
92	0x3cfca132	0.030838583
93	0x3dcb68d9	0.099321075
94	0x3da57cb3	0.08080425
95	0x3e29a655	0.16567357
96	0x3e0e5a9b	0.1390175
97	0x3e004099	0.12524642
98	0x3d8b2865	0.06794814
99	0x3e16824e	0.14698145
100	0xbd77212d	-0.060334373
101	0xbdbd59d1	-0.09245647
102	0x3c6271f3	0.013821113
103	0x3c8c09ee	0.017094579
104	0x3c08abbd	0.008341727
105	0xbda85d98	-0.082209766
106	0x3e0a84b1	0.1352718
107	0x3e15e803	0.14639287
108	0x3c133c10	0.008986488
109	0x3dc53643	0.0962949
110	0xbd0f65d3	-0.035009217
111	0x3ce90853	0.028446352
112	0x3d9cc51f	0.07654785
113	0xbd57fdcd	-0.052732278
114	0x3d0ca07e	0.034332745
115	0x3db3ba5a	0.08775778
116	0xbcdfc641	-0.027316215
117	0x3d14de87	0.03634503
118	0x3ce21c63	0.027601426
119	0xbd885f1d	-0.066587664
120	0xbdab6828	-0.083694756
121	0xbe1289a5	-0.1431032
122	0xbe22b9f3	-0.15891246
123	0xbdd86e8c	-0.1056796
124	0xbe2fb90f	-0.17160438
125	0xbcab59fe	-0.020916935
126	0x3d9aa74a	0.07551439
127	0x3d529449	0.051410947
128	0x3e1f07f6	0.1553038
129	0xbdb294b5	-0.0871977
130	0x3d9000cb	0.07031401
131	0x3e98269a	0.2971695
132	0x3e8b39b3	0.2719246
133	0x3d81b6f7	0.06333726
134	0x3c476334	0.012169648
135	0x3d7da6b5	0.061926562
136	0x3dda10ed	0.106477596
137	0x3e483024	0.19549614
138	0x3d304b8e	0.043040805
139	0xbe01e555	-0.1268514
140	0x3c356bed	0.011073095
141	0x3e15eb90	0.14640641
142	0x3d6d9dde	0.058011882
143	0xbd76f4c3	-0.060292017
144	0xbd762960	-0.060098052
145	0xbda9ccb5	-0.08290998
146	0xbc864125	-0.016388485
147	0xbbe520ea	-0.006992449
148	0x3d0aeedb	0.033919197
149	0xbd8b34ed	-0.06797204
150	0x3e7027eb	0.23452727
151	0x3ea3339d	0.31875315
152	0x3eaf1968	0.3419907
153	0x3e29a812	0.1656802
154	0x3e7aa5a0	0.24477243
155	0x3e68db43	0.22739892
156	0x3db5c30b	0.08875092
157	0xbbd434a9	-0.006476004
158	0xbde7eb21	-0.11324144
159	0x3e0763fb	0.13221733
160	0x3e0850db	0.13312094
161	0xbd369284	-0.044573322
162	0xbe9027fb	-0.28155503
163	0xbdc1340c	-0.09433755
164	0x3e81ea52	0.25374085
165	0xbe31d1f7	-0.17365251
166	0xbebd47a9	-0.36968735
167	0xbe8e7454	-0.27823126
168	0x3c9e405a	0.019317795
169	0x3cb24282	0.021760229
170	0xbec00e56	-0.37510937
171	0xbe9bafb6	-0.30407494
172	0xbdeb943f	-0.11502885
173	0x3bc7e88d	0.0061007203
174	0x3cfc1575	0.03077195
175	0xbe55449a	-0.2082695
176	0xbe0a6256	-0.13514075
177	0xbe909f8d	-0.28246728
178	0xbed8a157	-0.42310593
179	0xbe83cce5	-0.2574226
180	0x3d7ebc48	0.062191278
181	0xbe2469fa	-0.16056052
182	0xbe9fb248	-0.31190705
183	0xbea47ba0	-0.32125568
184	0x3dc17467	0.0944603
185	0xbb32643e	-0.0027220394
186	0xbe9ad7d7	-0.30242798
187	0xbe5d5a60	-0.21616507
188	0xbdeef35e	-0.11667512
189	0x3e661d44	0.22472101
190	0xbdb56363	-0.08856847
191	0xbe839699	-0.25700834
192	0xbe8d3953	-0.27582797
193	0x3e0656dc	0.13119072
194	0x3da642f4	0.08118239
195	0xbe508fac	-0.20367306
196	0x3d5c70e0	0.053818583
197	0x3d0d84b6	0.03455039
198	0x3e811115	0.25208345
199	0x3e2caf6c	0.16863793
200	0xbd9fefc4	-0.078094035
201	0x3d993a4f	0.074818246
202	0xbdf8b5a6	-0.12144022
203	0xbe73c71d	-0.23806424
204	0xba5deb9d	-0.000846559
205	0xbce47834	-0.027889349
206	0x3dd57b87	0.104239516
207	0xbe84ccef	-0.25937602
208	0xbe155d13	-0.14586286
209	0x3e54f8d8	0.20798051
210	0x3df3f48c	0.11911878
211	0x3cf13f8e	0.02944925
212	0xbe3a92d7	-0.18220077
213	0x3c7bc80e	0.015367521
214	0x3e90333b	0.28164086
215	0xbdc53542	-0.09629299
216	0xbdf48168	-0.11938745
217	0xbdcd9e6d	-0.10039983
218	0x3e1964e4	0.14979893
219	0x3e71dfe9	0.23620571
220	0x3db7e0eb	0.089784466
221	0x3c8283bf	0.015931962
222	0x3e9985ba	0.29984838
223	0x3e9c1e42	0.30491835
224	0x3e2a1a31	0.16611554
225	0x3e455cbb	0.19273655
226	0x3da10c4a	0.07863672
227	0x3d78d657	0.060751285
228	0x3da2afdb	0.07943698
229	0x3eb19ce7	0.3469002
230	0x3e1c8c58	0.15287912
231	0x3e66bd37	0.22533117
232	0xbcbee163	-0.023300832
233	0xbe9ae7ce	-0.30254978
234	0x3d81fb33	0.063467406
235	0x3d63c3bc	0.05560659
236	0x3e64091c	0.222691
237	0x3e70eb08	0.23527157
238	0xbe992a72	-0.29915196
239	0xbc7b2b77	-0.015330187
240	0x3c858036	0.016296487
241	0x3e7f40ec	0.2492711
242	0x3e49aef5	0.19695647
243	0xbe91a3ed	-0.28445378
244	0xbe50b4ec	-0.20381516
245	0xbcdf81ab	-0.02728351
246	0xbd415566	-0.047200583
247	0x3e825fdb	0.25463757
248	0xbe139867	-0.14413606
249	0xbc528466	-0.012848949
250	0xbd25a86c	-0.040443823
251	0x3cc532a9	0.024072008
252	0xbeaec4d3	-0.3413454
253	0xbeb72657	-0.35771438
254	0xbc5fa60b	-0.013650428
255	0x3bf98503	0.007614733

conv1.bias f4 [6]
0	0xbe029595	-0.12752374
1	0x3d2be2c2	0.0419643
2	0xbeb47e67	-0.35252687
3	0xbe54371d	-0.20724149
4	0x3ed1f5b5	0.41007772
5	0xbf05ea45	-0.5231059

conv2.weight f4 [16, 6, 5, 5]
0	0x3deaf78d	0.11472998
1	0xbd4d04a9	-0.050053272
2	0xbd514295	-0.05108889
3	0x3d761138	0.060075015
4	0x3d9ef21d	0.07761023
5	0xbcb45b74	-0.022016264
6	0x3d8b1346	0.067907855
7	0xbd81282c	-0.0630649
8	0xbcb0de15	-0.021590272
9	0xbbbb55e4	-0.005717026
10	0x3d2617b6	0.040549956
11	0x3da690cd	0.08133087
12	0xbd9716c0	-0.07377386
13	0xbe34d8a7	-0.17660771
14	0xbe19b0ce	-0.15008852
15	0x3d195543	0.037434828
16	0xbc433088	-0.011913426
17	0xbdafd0ce	-0.08584748
18	0xbd0e51a9	-0.034745846
19	0xbde3beaa	-0.11120351
20	0xbd0df31e	-0.034655683
21	0xbdb88d8c	-0.09011373
22	0x3b9f85e7	0.0048682573
23	0xbd51bab8	-0.05120346
24	0xbd380ac0	-0.044932127
25	0x3e137ead	0.14403792
26	0x3de37753	0.11106744
27	0x3dbbddfb	0.09173199
28	0xbe0e637d	-0.1390514
29	0xbd4d1212	-0.05006606
30	0x3e45cbe1	0.19316055
31	0x3da8a479	0.08234496
32	0xbcf27dc7	-0.029600991
33	0xbe0a2b06	-0.13492975
34	0xbe2ffc57	-0.17186104
35	0x3e00fe39	0.12596978
36	0x3e107cb0	0.14110065
37	0x3dd39948	0.103319705
38	0xbe2cf5ee	-0.1689069
39	0xbe10aae3	-0.14127688
40	0x3d847e0e	0.064693555
41	0x3d601793	0.054709982
42	0xbdf21457	-0.11820286
43	0xbdad96ba	-0.084760144
44	0xbe0c5724	-0.13705117
45	0xbd69a73a	-0.057044245
46	0xbd56d47e	-0.052448742
47	0xbddf8b8d	-0.10915289
48	0x3c00649d	0.007836488
49	0xbccd19d0	-0.025036722
50	0xbe0924f9	-0.1339301
51	0xbdcd3c2e	-0.10021244
52	0xbe18b2d6	-0.1491197
53	0xbdbf444f	-0.09339201
54	0xbd99aec7	-0.07504039
55	0xbdac5bb6	-0.0841593
56	0xbd46f08f	-0.04856926
57	0xbde9a3b0	-0.11408174
58	0xbd6da0eb	-0.05801479
59	0xbd8cae0a	-0.06869133
60	0x3c48889f	0.012239604
61	0xbdb5e5a2	-0.088816896
62	0xbe111edd	-0.1417193
63	0xbce81c86	-0.028333914
64	0xbdc343c2	-0.09534408
65	0xbca883ee	-0.020570721
66	0xbdcf8ff6	-0.1013488
67	0xbda1a902	-0.07893564
68	0x3b16d25b	0.0023013565
69	0x3b392f4c	0.002825695
70	0x3d19b58a	0.037526645
71	0x3c9b585b	0.01896303
72	0x3d8a7ae1	0.067617185
73	0x3d3d50fd	0.046219815
74	0xbc1fe85b	-0.009759988
75	0x3e961943	0.29316148
76	0x3e734758	0.23757684
77	0x3d6ecb7e	0.058299534
78	0x3d922191	0.071353085
79	0x3cae8636	0.021304231
80	0x3e3e8b4d	0.18607827
81	0x3e4ee9cb	0.20206372
82	0x3e1cae63	0.15300898
83	0x3d68ef60	0.05686891
84	0x3cccfc4e	0.025022652
85	0x3e346219	0.17615546
86	0x3d294a1f	0.041330453
87	0x3e34293c	0.17593855
88	0x3d99c6d4	0.075086266
89	0x3dd06bcf	0.10176813
90	0x3dabfa74	0.083973795
91	0xbc8319c9	-0.016003506
92	0x3cafa011	0.02143863
93	0x3d66370b	0.056204837
94	0x3d97abeb	0.074058376
95	0xbd830f93	-0.06399455
96	0xbd8c5725	-0.06852559
97	0xbd9e70dd	-0.07736371
98	0xbd6719fa	-0.056421258
99	0xbc4f9d52	-0.012671785
100	0x3e52f1f1	0.20600106
101	0x3d9635a1	0.07334448
102	0xbd9c4bdf	-0.07631659
103	0xbe09207c	-0.13391298
104	0xbc6459d7	-0.013937435
105	0x3e350301	0.17676927
106	0xbd43d207	-0.04780772
107	0xbdeb7ab6	-0.11498015
108	0xbd303ef4	-0.043028787
109	0xb8ce2cc1	-9.8311815e-05
110	0x3d93dc38	0.07219738
111	0x3d25df80	0.04049635
112	0x3d13e9e3	0.036111724
113	0xbdecbdc2	-0.11559631
114	0xbda5edea	-0.08102019
115	0x3dadbcba	0.08483262
116	0x3d9adf05	0.07562069
117	0x3cea1501	0.028574469
118	0xbd938778	-0.07203573
119	0xbde95c89	-0.11394603
120	0x3d943474	0.07236567
121	0x3d2176a8	0.0394198
122	0x3d8564f7	0.06513398
123	0x3d9db3de	0.077003226
124	0x3d1f6b4a	0.03892068
125	0x3e13aff2	0.14422587
126	0x3c305960	0.010763496
127	0xbe027192	-0.12738636
128	0xbe0225fb	-0.12709801
129	0xbd0d27e6	-0.03446188
130	0x3d50fecd	0.051024247
131	0x3d96e674	0.07368174
132	0xbd422756	-0.047400795
133	0xbdf6efaf	-0.12057435
134	0xbc32b1bd	-0.010906634
135	0x3ddd8fd6	0.1081845
136	0xbce21a83	-0.027600532
137	0x3d82443d	0.06360672
138	0xbdc10176	-0.09424107
139	0xbe0dba5f	-0.13840626
140	0xbc8c0fb1	-0.017097326
141	0xbd5dc587	-0.054143455
142	0x3c8c1842	0.01710141
143	0xbce6f4dc	-0.02819293
144	0xbd8b00a5	-0.06787232
145	0xbde76535	-0.112986006
146	0xbddbc31d	-0.10730574
147	0xbde04dc6	-0.10952334
148	0xbdc6e9f8	-0.09712595
149	0x3d6230d7	0.05522236
150	0x3dc09ce5	0.09404925
151	0x3e3df93b	0.18552105
152	0x3e6d48ad	0.23172255
153	0x3e09d159	0.13458766
154	0x3e180c1f	0.14848374
155	0x3e42252d	0.18959494
156	0x3da9f7cb	0.08299216
157	0x3e250284	0.16114241
158	0x3d4a3783	0.049369346
159	0x3d22d406	0.039752983
160	0x3d81b47a	0.06333251
161	0x3d8b9a08	0.068164885
162	0xbe04fdb7	-0.1298741
163	0x3da51755	0.08061091
164	0x3db9090e	0.0903493
165	0x3d2595bd	0.040426005
166	0x3d1b427b	0.037905198
167	0x3db91ef0	0.09039104
168	0x3ddef957	0.108874016
169	0x3ca909ae	0.020634498
170	0xbdc6a1a6	-0.09698801
171	0xbe1a736b	-0.15083091
172	0xbe2e25e5	-0.17006643
173	0xbe1c22e0	-0.15247679
174	0xbe0941db	-0.13404028
175	0xbd1de3e4	-0.03854741
176	0x3cd1f1b3	0.025627946
177	0xbe20f535	-0.15718539
178	0xbdc0072f	-0.0937637
179	0xbe1b8ce7	-0.15190469
180	0x3b1177c0	0.002219662
181	0xba0d6ac8	-0.0005394635
182	0xbdbf3ccf	-0.0933777
183	0xbd261398	-0.04054603
184	0xbe27a5e8	-0.16371882
185	0x3c9c7d96	0.019102853
186	0xbd2f240c	-0.042758986
187	0xbd0596b7	-0.032614436
188	0xbd4397c5	-0.04775216
189	0xbe1a4f47	-0.15069304
190	0xbd392da8	-0.045209557
191	0x3d2a26ed	0.04154103
192	0x3cf18dcc	0.02948656
193	0x3d1c2106	0.03811743
194	0x3bfab0c3	0.007650466
195	0x3e637451	0.2221234
196	0x3ddafb69	0.10692484
197	0x3e13cc0e	0.1443331
198	0x3d302d36	0.043011867
199	0x3c778f6d	0.015109879
200	0x3d556616	0.05209931
201	0x3cb941f1	0.022614451
202	0x3ba090f7	0.0049000937
203	0x3d927f07	0.07153135
204	0x3d95a664	0.07307127
205	0xbd1dad12	-0.03849513
206	0x3d9c6100	0.07635689
207	0x3d3cbe4f	0.04607993
208	0x3decc650	0.115612626
209	0x3d972249	0.07379586
210	0x3cdb53ab	0.026773294
211	0xbd7b9b45	-0.061427373
212	0x3cd261ab	0.025681337
213	0xbaa196be	-0.001232825
214	0xbd220699	-0.039557073
215	0x3d5583b8	0.05212757
216	0xbd9cce6a	-0.07656558
217	0xbe259bc3	-0.161727
218	0xbd3e8e93	-0.046522688
219	0xbd77d9dd	-0.060510505
220	0xbd85aa9a	-0.0652668
221	0xbdb6eb21	-0.08931566
222	0xbe4edbc5	-0.20201023
223	0xbdbc6ea3	-0.0920079
224	0xbe11692b	-0.14200275
225	0x3dc30530	0.09522474
226	0xbd0025cc	-0.031286046
227	0xbdadf72d	-0.08494411
228	0x3ccb8644	0.024844296
229	0x3d769412	0.060199805
230	0xbc88ddde	-0.016707357
231	0xbd47aab3	-0.048746776
232	0xbd43e409	-0.047824893
233	0xbd38e386	-0.04513886
234	0xbdaf0e21	-0.08547617
235	0xbcc5ebb9	-0.024160253
236	0xbe08607c	-0.13318056
237	0xbe6dac09	-0.23210157
238	0xbdaa54d9	-0.08316965
239	0xbe033491	-0.12813021
240	0xbe0377be	-0.12838647
241	0xbdf9d899	-0.12199516
242	0xbe78f57e	-0.24312398
243	0xbaba9bf6	-0.0014237154
244	0xbe32685b	-0.17422621
245	0xbdc69321	-0.09696031
246	0xbdcbc0af	-0.09948861
247	0xbe884102	-0.26612097
248	0xbe205ea1	-0.15661098
249	0xbe6a6279	-0.22889127
250	0x3d559d3c	0.052151904
251	0x3d5822cf	0.05276757
252	0x3c4ca602	0.012490751
253	0x3dd49f99	0.10382003
254	0x3cbe310f	0.023216752
255	0xbc9f9a29	-0.019482689

conv2.bias f4 [16]
0	0xbe87c964	-0.26520836
1	0xbe016b5d	-0.12638612
2	0xbed1a068	-0.40942693
3	0x3d1cf958	0.03832373
4	0xbe41968b	-0.18905084
5	0x3ef728e7	0.48273394
6	0xbd2f0ca6	-0.042736672
7	0xbef46cb0	-0.47739172
8	0xbe43b9a7	-0.1911379
9	0x3e95e927	0.29279444
10	0x3e89dc46	0.26925868
11	0xbefcc02c	-0.49365366
12	0x3f7b1866	0.98084104
13	0x3e7abbb6	0.24485669
14	0x3e99f7c2	0.30071837
15	0x3f38b38a	0.72148955

fc1.weight f4 [120, 400]
0	0x3d1fa620	0.03897679
1	0x3d14082a	0.0361406
2	0xbb81da5a	-0.003962797
3	0xbd3f0b01	-0.046641354
4	0xbd267543	-0.040639173
5	0xbc82af78	-0.01595281
6	0xbce622c0	-0.028092742
7	0xbb10713f	-0.0022040156
8	0xbd0b154c	-0.033955857
9	0xbd027caf	-0.03185719
10	0xbd03e339	-0.03219912
11	0xbd89b751	-0.06724418
12	0xbae217de	-0.0017249545
13	0xbba54c5f	-0.0050445045
14	0x3b731f0f	0.003709737
15	0x3d2bda2d	0.041956116
16	0x39e685b4	0.00043968635
17	0xbca7ad18	-0.02046828
18	0xbc8a7c29	-0.016904907
19	0xbd7250d3	-0.05915911
20	0x3cad4885	0.021152744
21	0x3c4cf953	0.012510615
22	0x3cf2351d	0.029566342
23	0x3cd944c0	0.02652204
24	0x3bdf244b	0.0068097464
25	0x3d9c69ff	0.07637405
26	0x3d0a13a7	0.03371015
27	0x3b30d4d6	0.002698233
28	0x3c8c548b	0.017130157
29	0x3ce98c74	0.028509356
30	0x3cf38ef1	0.029731246
31	0x3d6fe926	0.058571957
32	0x3cf558b3	0.029949522
33	0x3c12182b	0.008916895
34	0xbd34a7a0	-0.044105172
35	0x3cc10434	0.023561575
36	0x3d1698da	0.036766864
37	0xbcccd0ef	-0.025001971
38	0x3d042d6c	0.03226988
39	0x3b5ba3fe	0.0033514495
40	0xbd09b835	-0.03362294
41	0x3cb8efd7	0.022575302
42	0xbd00562a	-0.031332172
43	0xbcd8fafc	-0.026486866
44	0x3cd04dfa	0.025427807
45	0x3c0fdf88	0.008781321
46	0x3d7e4413	0.06207664
47	0x3d7e06ec	0.06201832
48	0x3d92cecc	0.071683496
49	0x3d98bd33	0.07457962
50	0xbd211d6e	-0.039334707
51	0x3cce6610	0.025195152
52	0x3d43869d	0.0477358
53	0x3caef6f0	0.021357983
54	0x3ce2da54	0.027691998
55	0xbd4f1926	-0.050561093
56	0x3b8116b3	0.0039394735
57	0xbd7c95bd	-0.06166624
58	0xbd97f699	-0.07420082
59	0x39e644c6	0.0004392026
60	0xbcb6f5c2	-0.022333983
61	0xbd8b137f	-0.06790828
62	0xbdd44c7c	-0.10366151
63	0xbd17e2f4	-0.037081674
64	0xbd3a24c8	-0.045445234
65	0xbc91a062	-0.017776672
66	0x3c9b07d1	0.018924626
67	0x3ccafd52	0.024778996
68	0xbd5b10b0	-0.05348271
69	0x3cd5532f	0.026040642
70	0x3c8b7cb2	0.017027233
71	0x3d198fee	0.037490778
72	0xbc13db92	-0.009024518
73	0x3d18c0a9	0.03729311
74	0x3cf09067	0.029365731
75	0x3cb61454	0.02222649
76	0xbcd02c03	-0.025411611
77	0xbd796876	-0.060890637
78	0x3c16bca2	0.009200247
79	0xbd3c8692	-0.046026774
80	0x3d340788	0.043952495
81	0x3c9e055a	0.019289661
82	0xbd4a809a	-0.04943905
83	0xbcc7083f	-0.024295924
84	0xbd6eafee	-0.05827325
85	0x3d19e959	0.037576053
86	0x3ceb7455	0.028741995
87	0xbd35cff4	-0.044387773
88	0xbd669fa8	-0.056304604
89	0x3a8accf1	0.0010589642
90	0x3d2ca632	0.042150684
91	0xbd3c11c4	-0.04591538
92	0x3c6d9646	0.01450116
93	0x3badad20	0.005300179
94	0xbc93a213	-0.018021619
95	0xbc8d284f	-0.017231135
96	0xbc9939b5	-0.018704275
97	0x3b6e02f5	0.003631768
98	0xbd282366	-0.041049384
99	0xbc54c7e2	-0.012987109
100	0xbd18582d	-0.037193466
101	0x3c5660e5	0.013084625
102	0x3c4bd0a9	0.012439885
103	0xbcdc3038	-0.026878461
104	0xbd666e0d	-0.056257296
105	0xbd5dd51b	-0.05415831
106	0xbdaef605	-0.08543018
107	0xbdb3d767	-0.08781319
108	0xbd8c7df1	-0.06859959
109	0x3be8cc85	0.0071044588
110	0xbd8d93d8	-0.069129646
111	0xbcbccc04	-0.023046501
112	0xbd817491	-0.063210614
113	0xbcca3353	-0.024682676
114	0xbd1e2b34	-0.03861542
115	0x3c58785c	0.01321229
116	0xbcd05be0	-0.025434434
117	0xbcba6f5e	-0.022758182
118	0xbcebe538	-0.028795823
119	0xbd5b93bc	-0.053607687
120	0xbc188259	-0.009308421
121	0xbc1c875f	-0.009553759
122	0xbc6128b4	-0.013742615
123	0xbd3045b3	-0.04303522
124	0x3ca8994d	0.020580912
125	0xbc619399	-0.0137681
126	0xbd4f5755	-0.050620396
127	0xbc333bf6	-0.010939589
128	0xbd06eb64	-0.03293933
129	0xbc62c9b9	-0.01384204
130	0x3d881b9c	0.06645891
131	0x3c8dd01c	0.017311148
132	0x3d2b7679	0.04186103
133	0x3cbbe610	0.02293685
134	0xbd0cc1ed	-0.03436463
135	0x3d073fe2	0.033019908
136	0x3d2a1ea9	0.041533146
137	0x3d63f0a1	0.055649403
138	0x3cc51ad5	0.024060646
139	0x3d008f86	0.031386875
140	0x39196504	0.00014628848
141	0xbd35e419	-0.044406984
142	0x3b3e6962	0.0029054512
143	0xbc990103	-0.01867724
144	0xbc203b33	-0.009779739
145	0xbd63a5ad	-0.055577923
146	0xbd873f8d	-0.06603918
147	0x394c549a	0.00019486473
148	0xbd1be030	-0.0380556
149	0x3c7e0d77	0.01550614
150	0x3c745d7f	0.014914869
151	0x3d05e6ea	0.03269092
152	0x3c790da3	0.015201005
153	0xbd19e3e7	-0.03757086
154	0x3bb34650	0.0054710284
155	0x3c7994e0	0.0152332485
156	0x3ce536bb	0.0279802
157	0x3cd640e1	0.026153984
158	0xbd263081	-0.0405736
159	0x39d1967c	0.00039975706
160	0xbd3ffd0c	-0.046872184
161	0xbd46e10e	-0.048554473
162	0x3cf5918c	0.029976629
163	0xbbf216ae	-0.0073879575
164	0x3cf692bb	0.030099263
165	0xbd5f31a3	-0.054490697
166	0x3d194b3f	0.037425276
167	0xbaa7447d	-0.00127615
168	0x3cc611cb	0.024178406
169	0xbd1b0dff	-0.037855145
170	0xbda2bec5	-0.07946543
171	0xbcec61eb	-0.028855285
172	0xbd0a8652	-0.033819504
173	0xbc2ec073	-0.010666001
174	0xbd7cddc4	-0.06173493
175	0xbc8cce3a	-0.01718818
176	0x3cec6959	0.028858827
177	0x3d8c14ac	0.0683988
178	0xbcbfc56a	-0.023409564
179	0xbc55d874	-0.013052095
180	0xbc91c71b	-0.017795136
181	0x3c9de476	0.019273978
182	0xbcafc82c	-0.021457754
183	0xbd8816a7	-0.066449456
184	0x3cbd6612	0.02311996
185	0x3a21a945	0.0006166886
186	0xbd1d570c	-0.038413092
187	0xbc06ce62	-0.008227916
188	0x3c414c98	0.0117980465
189	0xb72de283	-1.0364342e-05
190	0x3c8111fb	0.015755644
191	0xbcf5d6da	-0.030009676
192	0x3ad81c1a	0.0016487867
193	0x3cbe74e0	0.02324909
194	0x3d6c7826	0.05773177
195	0xbd22ba44	-0.039728418
196	0x3caf1a93	0.021374976
197	0x3c8ca9b8	0.017170772
198	0x3c13ea9d	0.009028104
199	0x3cc51242	0.024056558
200	0xbb9dc84e	-0.004815138
201	0xbc2e8ab1	-0.010653184
202	0x3c898245	0.01678575
203	0xbcd5aa9a	-0.026082326
204	0xbd4af085	-0.049545784
205	0xbc5ee66b	-0.013604741
206	0xbc601db0	-0.013678953
207	0x3d242e56	0.040083252
208	0xbb5ddcdc	-0.0033853566
209	0xbcd16c46	-0.025564324
210	0x3d6c4357	0.057681408
211	0x3cb5997a	0.02216791
212	0xbd56875a	-0.052375175
213	0xbd1f91ee	-0.03895753
214	0x3d210958	0.03931555
215	0x3d7d8bda	0.06190095
216	0x3cb8ba39	0.022549735
217	0xbc2e86b9	-0.010652238
218	0xbc4ec49d	-0.012620118
219	0x3d928bdd	0.07155583
220	0x3d8142ad	0.063115455
221	0xbd26891f	-0.040658113
222	0x3c66cc58	0.014086805
223	0xbc64ad74	-0.01395737
224	0x3d32864e	0.043585114
225	0x3dade61e	0.08491157
226	0x3cfb3cdd	0.03066867
227	0x3d277ccb	0.040890496
228	0x3c09b9e1	0.008406133
229	0x3cb1391c	0.021633677
230	0x3d8408d7	0.064469986
231	0x3d48b024	0.048996106
232	0xbcc9e868	-0.024646953
233	0x3c61d468	0.013783552
234	0x3ce52117	0.02796988
235	0x3d19a9dd	0.03751551
236	0xbc724b18	-0.014788412
237	0xbc377965	-0.011198376
238	0xbc581b03	-0.013190034
239	0xbaba2fcd	-0.001420492
240	0xbd308133	-0.043091964
241	0xbcf1cb44	-0.02951587
242	0x3d35eadc	0.044413432
243	0xbb0b83de	-0.0021288316
244	0x3cf62c50	0.030050427
245	0xbd71eb17	-0.05906209
246	0x3bcf8651	0.0063331504
247	0xbce063c0	-0.027391315
248	0xbcd77932	-0.026302908
249	0xbd0e7bf9	-0.0347862
250	0x3cd31bd9	0.025770115
251	0xbcd9bc28	-0.026578978
252	0xbd5c97f6	-0.05385586
253	0x3cd2ec7a	0.025747526
254	0x3d7e6b4a	0.062114038
255	0x3cd4ea56	0.025990646

fc1.bias f4 [120]
0	0x3d834539	0.064096875
1	0x3cbe470a	0.023227233
2	0x3dc5be66	0.09655456
3	0xbc4e03cf	-0.01257415
4	0xbc65d330	-0.014027402
5	0xb8ba4bee	-8.883314e-05
6	0xbb62192b	-0.0034499865
7	0xb916988d	-0.00014361944
8	0x39f14913	0.00046021547
9	0xbc5e469f	-0.013566642
10	0xbcbb2a7f	-0.022847412
11	0x3d3097f7	0.043113675
12	0xbd42f175	-0.047593553
13	0xbc8b7f84	-0.017028578
14	0x3db54c8d	0.088524915
15	0x3e440fa5	0.19146593
16	0xbc685fac	-0.014182966
17	0x3c97df77	0.018539174
18	0xba99a498	-0.0011722026
19	0x3af4bd28	0.0018672096
20	0xbc032f08	-0.008006819
21	0xbdf3e91a	-0.11909695
22	0x3bdbe3c3	0.006710501
23	0xbdbaa834	-0.091141135
24	0x3e0ed3af	0.13947938
25	0x3d27f253	0.041002583
26	0xbcd0fd4f	-0.025511412
27	0x3db2e91b	0.087358676
28	0xbc47e6f2	-0.012201058
29	0xbd682568	-0.0566763
30	0xbd7b7f76	-0.061400853
31	0xbdc70b4d	-0.09718952
32	0x3daa354f	0.08310949
33	0x3c76cf70	0.015064105
34	0x3e154e3c	0.14580625
35	0xbca80c3f	-0.020513652
36	0xba9d6fa8	-0.0012011426
37	0x3e2d4e02	0.16924289
38	0x3b0a0b2c	0.0021063788
39	0x3cf4bcb5	0.029875139
40	0xbd6cf23b	-0.057848196
41	0xbbca4ad9	-0.0061734733
42	0xbda30fab	-0.07961973
43	0xba4fcb57	-0.00079267233
44	0xbcb35124	-0.021889277
45	0x3d111179	0.035417054
46	0xbd2cb78a	-0.042167224
47	0x3d89fc34	0.06737557
48	0xbd166249	-0.036714826
49	0xbd82ab8c	-0.06380376
50	0x3e13a125	0.1441694
51	0xbd6caa93	-0.05777986
52	0xbdcc969c	-0.09989664
53	0x3d5fa494	0.054600313
54	0x3e6d64d9	0.23183002
55	0x3e2287f0	0.15872169
56	0xbcd24575	-0.025667885
57	0xbcd6734b	-0.026178023
58	0xbd3bbbee	-0.04583352
59	0xbcc55295	-0.02408723
60	0x3d3cbff6	0.046081506
61	0xb9a614b1	-0.00031677404
62	0xbb85008c	-0.004058903
63	0x3d946874	0.07246485
64	0xbd119efb	-0.035552006
65	0x3d587a25	0.05285086
66	0xbc36db80	-0.011160731
67	0xbd805b0e	-0.06267367
68	0x3d32657e	0.04355382
69	0xbd71a316	-0.05899342
70	0x3ce9f3cb	0.028558632
71	0xbc04c482	-0.008103492
72	0x3b8d8909	0.0043193144
73	0x3d2c3188	0.042039424
74	0x3d1c13c2	0.03810478
75	0x3d9b35a9	0.07578594
76	0x3b7e22b6	0.0038778014
77	0xbcba5d82	-0.022749666
78	0x3d4b2c22	0.049602635
79	0x3e591f4b	0.21203344
80	0x3c84ef4a	0.016227383
81	0x3e375577	0.17903696
82	0xbdafae98	-0.08578223
83	0xbcb15dfc	-0.02165126
84	0x3d183811	0.037162844
85	0x3d6bff1f	0.05761635
86	0x3d63b393	0.055591177
87	0xbc22a075	-0.009925951
88	0xbd46c84b	-0.048530858
89	0x3dbdc613	0.09266295
90	0x3e2ee5f6	0.1707991
91	0x3dae942f	0.085243575
92	0xbabb7238	-0.0014301008
93	0x3cf21914	0.029552974
94	0x3c32a34d	0.010903192
95	0xbb9b9950	-0.004748501
96	0xb86feb50	-5.7201192e-05
97	0xbd0ba917	-0.034096804
98	0x3e55b91f	0.208714
99	0x3c87b613	0.016566312
100	0xbb6aaf88	-0.0035810191
101	0x3d83c1d2	0.06433453
102	0x3e82bf37	0.2553651
103	0x3cc6c8d2	0.02426568
104	0x3d504b33	0.050852966
105	0x3dd0226f	0.10162818
106	0x3d0fd900	0.035119057
107	0xbdae108f	-0.08499252
108	0xbd0d361f	-0.034475442
109	0x3daa238a	0.0830756
110	0xbd3a7d27	-0.04552951
111	0x3e199dfb	0.15001671
112	0xbcf65b07	-0.030072702
113	0x3caa066f	0.02075502
114	0x3e99ed03	0.30063638
115	0x3da107b2	0.07862796
116	0xbdf2e9a6	-0.11860971
117	0x3cce473e	0.025180455
118	0x3c2b0f92	0.010440724
119	0xbd07741d	-0.03306972

fc2.weight f4 [84, 120]
0	0x3e0374f6	0.12837586
1	0x3d4381a7	0.047731068
2	0xbcfec7af	-0.031101076
3	0x3d3ebd6f	0.046567377
4	0xbdca5161	-0.09878803
5	0xbb975106	-0.004617813
6	0x3d64c433	0.055851173
7	0x3e00932c	0.12556142
8	0xbda4e748	-0.08051926
9	0xbc4fac13	-0.012675303
10	0xbd582c57	-0.05277666
11	0x3c618b6e	0.013766153
12	0xbd8d015b	-0.06885024
13	0xbd14ff43	-0.03637625
14	0xbdd4f61a	-0.10398503
15	0xbc8a791a	-0.016903449
16	0x3d929798	0.071578205
17	0xbdb2709a	-0.08712883
18	0x3dd9689e	0.10615657
19	0xbd8155bb	-0.0631518
20	0x3d3c00fe	0.045899384
21	0x3d9c7b6a	0.07640727
22	0x3dd90d3a	0.10598226
23	0x3d2dfe23	0.04247869
24	0xbc1268c6	-0.008936113
25	0xbda1d57b	-0.07902046
26	0xbca694b3	-0.020334577
27	0x3adba372	0.0016757085
28	0x3dbc5ce1	0.09197403
29	0xbdfdd09c	-0.12393305
30	0xbcfcfbe9	-0.030881839
31	0xbd350833	-0.044197273
32	0x3d89de76	0.06731884
33	0x3daa5a10	0.08317959
34	0xbc580e27	-0.013186968
35	0xbd865ac0	-0.06560278
36	0x3d28f8ca	0.04125289
37	0xbd107d74	-0.03527589
38	0xbd13627c	-0.035982594
39	0x3db308c0	0.08741903
40	0xbcab6c48	-0.020925656
41	0xbc476aa3	-0.01217142
42	0xbe103fda	-0.14086857
43	0x3cf6c6d5	0.030124107
44	0x3d32b285	0.04362728
45	0x3d4494fe	0.047993653
46	0xbc753e02	-0.014968397
47	0xbb8aa7d3	-0.004231432
48	0xbd867f1b	-0.06567212
49	0xbc9835c7	-0.01858033
50	0x3e2e7c52	0.17039612
51	0x3b4bec17	0.0031116062
52	0xbd61e2ea	-0.055148043
53	0x3d84fc35	0.06493417
54	0x3d6740f8	0.056458443
55	0x3d4eccef	0.05048841
56	0xbd586cf9	-0.0528383
57	0x3db3ab57	0.08772915
58	0x3d06f03e	0.032943957
59	0xbdd7e14c	-0.10541019
60	0xbbed8150	-0.0072480813
61	0x3b3ba746	0.0028633638
62	0x3d793b90	0.06084782
63	0xbbbdd436	-0.00579312
64	0xbd3ca3df	-0.046054717
65	0xbdb1ba53	-0.08678117
66	0x3d1f0442	0.03882242
67	0xbcd0b629	-0.025477486
68	0x3d81e926	0.06343298
69	0xbd6104d2	-0.054936238
70	0x3e0517a0	0.12997293
71	0x3cf2d458	0.029642269
72	0xbd083894	-0.033257082
73	0x3da33fd1	0.079711564
74	0x3df76fcf	0.12081873
75	0xbc32d66f	-0.010915383
76	0xbc40c1c7	-0.01176495
77	0xbb7ec477	-0.0038874426
78	0x3cc9f828	0.024654463
79	0x3c4b7c2f	0.012419744
80	0xbc58e936	-0.013239196
81	0x3db96397	0.090521984
82	0x3dacd9ad	0.08439956
83	0xbde8197b	-0.11332985
84	0xbd578d71	-0.052625123
85	0xbe1a2ad1	-0.15055396
86	0xbb70d082	-0.0036745374
87	0xbda7bc09	-0.08190162
88	0x3d373552	0.044728585
89	0xbd06f11c	-0.032944784
90	0xbdb3fa1b	-0.08787938
91	0xbda4c580	-0.08045483
92	0x3d877628	0.066143334
93	0x3da28960	0.079363585
94	0xbdaf055d	-0.08545945
95	0xbdc6730f	-0.096899144
96	0xbc4544f3	-0.012040365
97	0xbd398a17	-0.04529771
98	0x3d087aca	0.033320226
99	0xbbfd073e	-0.0077218106
100	0x3d62af88	0.05534318
101	0xbd7ff486	-0.062489055
102	0x3dda44cf	0.106576554
103	0xbd908c65	-0.07058028
104	0xbe018e14	-0.12651855
105	0x3d61b18e	0.05510097
106	0xbcd55c3e	-0.026044961
107	0xbd76aab2	-0.06022138
108	0xbd94f499	-0.07273216
109	0xbd59737c	-0.05308865
110	0x3d114b99	0.035472486
111	0xbd9d2d16	-0.07674615
112	0xbbda4261	-0.006660745
113	0x3c8a044a	0.016847748
114	0x3d941010	0.07229626
115	0x3d5a5630	0.05330485
116	0xbdf05ad1	-0.11736072
117	0xbd2ece24	-0.04267706
118	0x3d9468b1	0.07246531
119	0xbd2d7507	-0.042347934
120	0xbdae3122	-0.08505465
121	0x3dcf104d	0.10110531
122	0x3cf4f433	0.0299016
123	0x3c8a7364	0.016900726
124	0xbcc242de	-0.023713525
125	0x3d47cad5	0.04877742
126	0xbd6799b8	-0.056543082
127	0x3d95ae69	0.07308657
128	0x3df2d017	0.11856096
129	0x3cc8ca49	0.02451052
130	0x3d1e91f9	0.03871343
131	0xbc0a5aa5	-0.008444463
132	0x3d4b4bb6	0.04963275
133	0x3c0e06bc	0.008668598
134	0xbda8d91a	-0.08244534
135	0x3d7d0aec	0.061777994
136	0x3d122e4d	0.035688687
137	0xbabb1463	-0.0014273043
138	0x3d1ceb4a	0.038310327
139	0xbd80cfb9	-0.0628962
140	0xbcf547f2	-0.029941533
141	0xbd4065b5	-0.046971995
142	0x3cb5079d	0.022098357
143	0x3d103a24	0.035211697
144	0xbd6d3553	-0.057912182
145	0x3d870eb8	0.06594604
146	0xbd1eb655	-0.038748104
147	0x3c212f8a	0.009837994
148	0x3ce4463d	0.027865523
149	0x3d2921f3	0.041292142
150	0x3de23396	0.110449955
151	0xbd9255d8	-0.0714528
152	0xbd545e90	-0.051847994
153	0x3db95135	0.09048692
154	0xbd9b1d41	-0.07573939
155	0xbcb847d2	-0.022495184
156	0xbd0ce747	-0.03440025
157	0xbd73d59a	-0.05952988
158	0x3ddb7dca	0.10717352
159	0x3dbdd6cd	0.092694856
160	0xbc8474b7	-0.016168935
161	0xbd6611e0	-0.05616939
162	0x3dd29e90	0.1028415
163	0xbb9f586d	-0.004862836
164	0x3da70a64	0.08156279
165	0xbbe3c5bc	-0.006951062
166	0xbda4c4bf	-0.08045339
167	0xbc8fbcc1	-0.01754606
168	0xbd85a7d2	-0.0652615
169	0x3c90a28b	0.017655632
170	0x3caaf207	0.02086736
171	0x3d5e3915	0.054253656
172	0x3c869e01	0.016432764
173	0x3dd0a500	0.10187721
174	0x3b95b456	0.004568617
175	0xbdec5d14	-0.11541191
176	0x3c847f01	0.016173841
177	0xbce25bb9	-0.027631627
178	0xbcb01291	-0.021493228
179	0xbcf1d5f7	-0.029520972
180	0x3e101708	0.14071286
181	0x3c8b2c8f	0.01698902
182	0xbd773585	-0.060353775
183	0xbd78fde5	-0.060789008
184	0x3d45d179	0.04829547
185	0xbc51a517	-0.012795708
186	0x3db8b0ad	0.09018073
187	0x3dc5c2a8	0.09656268
188	0xbda672a4	-0.08127335
189	0xbda8ea9c	-0.08247873
190	0x3cdd7d73	0.027037358
191	0x3d035073	0.032059144
192	0xbd6cb130	-0.057786167
193	0xbd64dbcf	-0.05587369
194	0xbd743545	-0.059621114
195	0x3d27046b	0.040775698
196	0x3b7a75b0	0.003821712
197	0x3d604864	0.054756537
198	0x3ae130ae	0.0017180645
199	0x3a15f4aa	0.0005720357
200	0xbd3160d7	-0.043305244
201	0x3dddd5fe	0.108318314
202	0x3d78b459	0.060718868
203	0xbd41922e	-0.04725855
204	0x3de2f84f	0.11082517
205	0x3cd5e371	0.02610943
206	0x3d6fd8ff	0.058556553
207	0x3d203ce8	0.039120585
208	0x3d010544	0.031499162
209	0xbc37026f	-0.011170014
210	0x3bf8abed	0.0075888545
211	0xb9e380c3	-0.0004339275
212	0xbc11e870	-0.008905515
213	0xbd7bfd33	-0.061520766
214	0x3d3d6824	0.046241894
215	0xbbc3b11e	-0.0059720417
216	0x3db0a78d	0.08625708
217	0x3d6a3e04	0.05718805
218	0xbd1c9ddd	-0.038236488
219	0xbd62365d	-0.055227626
220	0x3d646dc2	0.055768736
221	0xbde7e0f2	-0.11322202
222	0x3be5a2e5	0.007007944
223	0xbd160a68	-0.036631018
224	0x3d3d7b9a	0.046260454
225	0x3d606c74	0.05479093
226	0x3d83c725	0.06434468
227	0x3cbbd329	0.022927837
228	0xbd9173ac	-0.07102141
229	0x3da05c56	0.07830112
230	0xbca824aa	-0.020525295
231	0xbcc7e572	-0.0244014
232	0x3db82b9d	0.089926936
233	0x3daae02c	0.08343539
234	0xbd809055	-0.06277529
235	0xbd7bf51b	-0.061513048
236	0xbdccddef	-0.10003268
237	0xbdafed3b	-0.0859017
238	0x3db2b792	0.087264195
239	0xbd08ddcd	-0.03341465
240	0xbd8f6617	-0.07001894
241	0xbb7c50f9	-0.0038500412
242	0xbcd1fa79	-0.02563213
243	0x3bfc7e72	0.007705503
244	0xbe4a2990	-0.19742417
245	0x3dad6b02	0.08467676
246	0x3d8cdd68	0.068781674
247	0x3d9aab51	0.07552207
248	0x3b1f3ac9	0.0024296513
249	0xbd133ace	-0.035944752
250	0x3e327206	0.17426309
251	0xbd6e7b8c	-0.058223292
252	0xbd4224d1	-0.047398392
253	0xbd2b1f06	-0.041777633
254	0xbd4b8eab	-0.049696606
255	0xbccab70d	-0.024745489

fc2.bias f4 [84]
0	0x3d8f4d1c	0.06997129
1	0xbca065a5	-0.019579718
2	0x3e41b80e	0.18917868
3	0xbd101d1d	-0.035184015
4	0x3d83acf1	0.0642947
5	0x3c298fe5	0.010349249
6	0x3d2e8e8b	0.04261641
7	0x3dfd00eb	0.12353691
8	0x3df5d7a8	0.12004024
9	0xbd1dda04	-0.038537994
10	0xbe2702f9	-0.16309728
11	0xbd267bd7	-0.040645447
12	0x3dd6d353	0.10489526
13	0xbc8858b1	-0.016643854
14	0xbcae3e54	-0.021269955
15	0x3c8022e0	0.01564163
16	0xbd6cad93	-0.05778272
17	0x3e1772cb	0.14789884
18	0xbd22694d	-0.039651204
19	0x3e451499	0.19246139
20	0x3ea15209	0.315079
21	0xbdc967fb	-0.09834286
22	0x3c636bbe	0.013880668
23	0xbd488351	-0.048953358
24	0x3ea8ac62	0.32944018
25	0xbd03a30a	-0.032137908
26	0x3d618de0	0.055066943
27	0x3e7c8924	0.2466169
28	0xbdc729a9	-0.09724743
29	0x3d9745e1	0.07386375
30	0xbd882b47	-0.066488795
31	0xbc8d4c75	-0.017248372
32	0xbb52d3a1	-0.0032169598
33	0xbd230841	-0.039802793
34	0x3cd4070b	0.025882265
35	0x3d534471	0.051578943
36	0x3ea984f3	0.33109245
37	0x3bafa34b	0.005360042
38	0x3ca5c2e2	0.020234529
39	0x3de6ab60	0.11263156
40	0x3e54dabe	0.20786569
41	0xbd94a912	-0.0725881
42	0xbdc427f4	-0.09577933
43	0xbd62f6f9	-0.055411313
44	0xbda2a30a	-0.079412535
45	0x3d4114b2	0.047138877
46	0x3eb0d0f8	0.3453443
47	0xbd8a2472	-0.06745233
48	0x3d18476d	0.037177492
49	0x3e8315d9	0.25602606
50	0x3d9f1dc5	0.0776935
51	0x3b332048	0.0027332474
52	0xbd268e30	-0.040662944
53	0xbd89ea7a	-0.06734176
54	0x3d731696	0.05934771
55	0xbd18ed3e	-0.037335627
56	0x3dba8c7b	0.09108826
57	0x3ed42c3c	0.41439998
58	0xbd267682	-0.04064036
59	0xbdb61a52	-0.08891739
60	0xbda27dc0	-0.07934141
61	0xbd070b33	-0.032969665
62	0x3d89b1c7	0.067233615
63	0x3d4eaabb	0.05045579
64	0xbccff5a7	-0.02538569
65	0xbd75478c	-0.059882686
66	0x3d86cdf8	0.06582254
67	0xbd5bdc86	-0.053677104
68	0xbc00f996	-0.007872006
69	0xbd8e3681	-0.069439895
70	0x3eb3b3a0	0.3509798
71	0xbde6df78	-0.11273092
72	0xbd078616	-0.03308686
73	0x3e863164	0.26209557
74	0xbcf17a5d	-0.029477293
75	0xbd886ec2	-0.066617504
76	0x3e27868e	0.16359922
77	0x3eb15aff	0.34639737
78	0x3ba57fd5	0.005050639
79	0xbd061b61	-0.032740954
80	0xbd191a58	-0.03737864
81	0x3e9321a7	0.28736612
82	0xbb85565a	-0.004069132
83	0x3d744bca	0.05964259

fc3.weight f4 [10, 84]
0	0x3dc21574	0.09476748
1	0xbd2afd50	-0.041745484
2	0xbe81eb0d	-0.25374642
3	0x3e8a515e	0.27015203
4	0x3d8800d8	0.06640786
5	0x3e28af88	0.1647321
6	0x3ca96aab	0.020680746
7	0x3e73e610	0.2381823
8	0xbe4d264c	-0.2003414
9	0x3e1845e7	0.14870416
10	0x3e1a10a0	0.15045404
11	0xbd1eabc5	-0.03873803
12	0xbd800254	-0.06250444
13	0xbdfc22ed	-0.12311349
14	0x3db84625	0.08997754
15	0x3d9c8116	0.07641809
16	0xbdd566f7	-0.104200296
17	0x3dea4d57	0.11440533
18	0x3dc8f5ab	0.098124824
19	0xbc7b4bff	-0.015337943
20	0xbe087675	-0.13326438
21	0x3dd1685d	0.10224984
22	0x3e100f6d	0.14068384
23	0xbe2e47cb	-0.17019574
24	0xbc7e9f0d	-0.01554085
25	0xbddc5f78	-0.10760397
26	0x3ea22f7e	0.3167686
27	0x3e770467	0.24122773
28	0xbc8c531c	-0.017129473
29	0xbd1ec646	-0.038763307
30	0xbcd481e0	-0.025940835
31	0xbdd5854d	-0.10425816
32	0xbd9c5416	-0.076332256
33	0xbbba0bcd	-0.0056776763
34	0xbaeec4e8	-0.0018216642
35	0xbdcdde55	-0.10052172
36	0xbddef14b	-0.10885867
37	0x3e22267c	0.15834993
38	0x3d83ee18	0.06441897
39	0x3e24dd6b	0.16100089
40	0xbe089e16	-0.13341555
41	0xbdda627b	-0.10663315
42	0xbca5e2aa	-0.020249683
43	0x3df8d47a	0.12149902
44	0xbd0d2c15	-0.034465868
45	0x3dc73a31	0.09727896
46	0xbe34a417	-0.1764072
47	0xbdccc124	-0.09997776
48	0xbbc0e8c5	-0.0058871233
49	0x3ea4f469	0.3221772
50	0xbdd15191	-0.10220636
51	0xbdc5dc48	-0.09661156
52	0x3c4222f9	0.011849158
53	0xbddc7512	-0.10764517
54	0x3de1175b	0.10990783
55	0x3c5ac8d7	0.013353548
56	0xbc2d16c3	-0.010564509
57	0xbe386c8f	-0.18010162
58	0x3d2ec141	0.04266477
59	0x3db752aa	0.08951314
60	0x3ccb7160	0.024834335
61	0xbd404305	-0.046938915
62	0x3d451fad	0.04812591
63	0x3dd0deab	0.101987205
64	0xbd252980	-0.04032278
65	0x3e1e5d4b	0.15465276
66	0xbdd45906	-0.103685424
67	0x3c349dd7	0.01102396
68	0x3db52994	0.08845821
69	0x3e6db280	0.23212624
70	0xbe1bd05a	-0.15216199
71	0xbdb0e5fc	-0.08637616
72	0x3e7c1f93	0.2462142
73	0x3e3e5804	0.18588263
74	0x3e4781f4	0.19483167
75	0x3d9f94cb	0.07792052
76	0x3e7739b9	0.24143113
77	0xbeab68a6	-0.33478278
78	0xbe7b26d3	-0.24526529
79	0x3d95cc8e	0.07314406
80	0xbcbc6b39	-0.023000346
81	0xbce0fe5c	-0.027465038
82	0xbd8c19c8	-0.06840855
83	0xbe105e6e	-0.14098522
84	0x3e2496b4	0.16073114
85	0xbc283ee6	-0.010268902
86	0xbe914955	-0.2837626
87	0xbd6a0e78	-0.057142705
88	0x3dfc737e	0.12326716
89	0xbcb146d1	-0.021640213
90	0xbd998caf	-0.074975364
91	0xbded1c5f	-0.11577677
92	0x3d83dad0	0.064382195
93	0xbe2b3f36	-0.16723332
94	0x3d30b571	0.043141786
95	0xbceaa247	-0.028641833
96	0xbe0fd4b5	-0.14045985
97	0xbd1e770e	-0.03868776
98	0xbd119b2d	-0.035548378
99	0xbbf78c34	-0.0075545553
100	0x3e64188d	0.2227499
101	0xbe553849	-0.20822252
102	0x3ead9e55	0.3390986
103	0x3d216a3f	0.039407965
104	0xbd52f837	-0.051506247
105	0x3d595613	0.053060602
106	0x3d136767	0.035987284
107	0x3e843a38	0.25825667
108	0xbe61855f	-0.22023533
109	0xbdf5cec8	-0.12002331
110	0x3d482e6e	0.048872404
111	0x3d23fe01	0.04003716
112	0x3cddacf3	0.027060008
113	0x3e13b39c	0.14423984
114	0xbe015ad2	-0.12632301
115	0x3d16e7d6	0.03684219
116	0x3d999563	0.074991964
117	0xbd54b1ff	-0.051927563
118	0xbd9c25c1	-0.076243885
119	0x3d2bdcc4	0.041958585
120	0xbb969038	-0.004594829
121	0xbd25e3e9	-0.040500555
122	0xbe258ad0	-0.16166234
123	0x3dab3fb4	0.0836176
124	0x3cd1cc5f	0.025610147
125	0xbc8e9f07	-0.017409815
126	0x3db4ebce	0.08834039
127	0x3db2bcb3	0.08727398
128	0x3de07717	0.109602146
129	0xbdc06517	-0.09394281
130	0xbe46b270	-0.19404006
131	0x3d290779	0.041266892
132	0x3c555f4e	0.013023211
133	0x3e5419bd	0.20712943
134	0xbe160e8d	-0.14653988
135	0xbdac9e90	-0.08428681
136	0x3d9cf983	0.07664778
137	0xbc67d232	-0.014149236
138	0xbd7a7a20	-0.061151624
139	0x3da06599	0.07831878
140	0xbdef77db	-0.116927825
141	0xbe2c53df	-0.1682887
142	0x3d1becb8	0.03806755
143	0xbd2657a4	-0.040610924
144	0xbce8e573	-0.028429722
145	0x3e4ef0a7	0.20208989
146	0xbd649283	-0.055803787
147	0x3e89a3e1	0.26882842
148	0x3dc2bf0c	0.095090955
149	0x3e0fed48	0.1405536
150	0xbce7bc35	-0.028287986
151	0x3de55eda	0.11199732
152	0x3d8231ee	0.063571796
153	0x3df84517	0.12122553
154	0x3c8ea38c	0.01741197
155	0x3e6b7734	0.22994691
156	0xbe224525	-0.15846689
157	0xbec54bd5	-0.38534418
158	0x3e909192	0.2823606
159	0xbd298cc0	-0.041393995
160	0xbdd0bac9	-0.101918764
161	0xbe030932	-0.12796476
162	0x3e380fce	0.17974779
163	0x3d8abd1d	0.06774352
164	0xbc780329	-0.015137472
165	0xbe856698	-0.26054835
166	0xbdfec450	-0.124397874
167	0xbde1837e	-0.11011408
168	0xbe335918	-0.17514455
169	0x3e3cfbba	0.18455401
170	0x3d768c5e	0.06019246
171	0x3cb90bc5	0.02258862
172	0x3c3cdc0d	0.011527074
173	0xbd2ece82	-0.04267741
174	0x3df76650	0.120800614
175	0x3c549e7e	0.012977241
176	0x3d637522	0.05553163
177	0x3e09d049	0.1345836
178	0xbe1d6a78	-0.15372646
179	0x3de692a5	0.11258439
180	0xbcd5a8bc	-0.026081435
181	0xbdc3e4fb	-0.09565159
182	0xbbafee54	-0.005368987
183	0xbc92ba7a	-0.017911185
184	0xbde4a626	-0.11164503
185	0x3e9ca152	0.30591828
186	0xbe0b63a4	-0.13612229
187	0xbdc57eea	-0.096433476
188	0x3e0ea077	0.139284
189	0x3d5922c3	0.053011667
190	0xbe11c6dc	-0.14236015
191	0xbdded0cd	-0.10879669
192	0x3e9a6ae3	0.30159673
193	0xbd4b4e29	-0.049635086
194	0xbcae472a	-0.021274168
195	0x3e28aa24	0.16471153
196	0x3db94ed4	0.090482384
197	0xbd200d11	-0.03907496
198	0x3dca63fc	0.09882352
199	0x3d6a339e	0.057178132
200	0xbc841150	-0.016121536
201	0xbd937c72	-0.072014704
202	0x3d3eb382	0.04655791
203	0xbdcb1009	-0.09915168
204	0x3dc5fe27	0.09667616
205	0xbd8d83ca	-0.069099024
206	0x3de0f1fe	0.10983656
207	0xbde5b9a3	-0.11217048
208	0xbe5441b4	-0.20728189
209	0x3d32dd5d	0.04366814
210	0x3e273e5d	0.16332383
211	0xbd824c5d	-0.063622214
212	0x3d41ced0	0.047316372
213	0x3e6c03d1	0.23048331
214	0x3e1a7f41	0.15087606
215	0x3de41866	0.11137466
216	0xbdb6816b	-0.08911403
217	0xbe0b5f6c	-0.1361062
218	0xbe08abf6	-0.13346848
219	0x3c833d85	0.016020546
220	0x3ca048f0	0.01956603
221	0xbceaefe6	-0.028678846
222	0x3e027342	0.1273928
223	0x3c3baa7d	0.011454222
224	0xbe58473f	-0.21120928
225	0x3e1b0f01	0.15142442
226	0x3dba80ee	0.09106623
227	0x3d229a63	0.039698016
228	0xbb2c0ffe	-0.002625465
229	0xbcaf02f5	-0.021363715
230	0x3de58815	0.11207596
231	0xbe955195	-0.29163805
232	0x3d19ae32	0.03751964
233	0xbd2ad124	-0.04170336
234	0x3cb93eb7	0.022612913
235	0x3c21da60	0.009878725
236	0x3c0ca7a3	0.00858489
237	0x3d891c19	0.06694812
238	0xbc7fd614	-0.015615005
239	0xbbb19c93	-0.0054202764
240	0x3e9a041b	0.30081257
241	0x3e88db6c	0.26729906
242	0x3df5a5df	0.11994528
243	0x3de0eb33	0.10982361
244	0x3e19ae61	0.15007927
245	0x3e6e3b8c	0.23264903
246	0x3d833cb7	0.06408065
247	0xbd9c076d	-0.07618604
248	0x3dbb0b80	0.09133053
249	0xbdaf881c	-0.08570883
250	0xbd8e9fae	-0.0696405
251	0xbdcfeadc	-0.10152218
252	0xbe6ba08e	-0.23010466
253	0x3d1d6c12	0.038433142
254	0x3e392438	0.18080223
255	0x3d223e94	0.03961046

fc3.bias f4 [10]
0	0xbe93ba0e	-0.28852886
1	0xbf165359	-0.5872093
2	0x3df41d8c	0.11919698
3	0x3ebb021e	0.36525053
4	0x3efea902	0.49738318
5	0xbdce7569	-0.10080988
6	0x3ebde5d9	0.37089422
7	0xbe753c88	-0.23948872
8	0x3e978307	0.29592153
9	0xbeb40b46	-0.3516485
