HW5/final/cifar_net.pth (torch, 368327 bytes, 10 tensors)

conv1.weight f4 [10, 3, 5, 5]
000000 94 30 80 3e 30 10 8c 3e 0a aa 83 3e 69 2f d6 bd
       0.25037062 0.273561 0.25715667 -0.104582615
000010 11 2c 4f bd 3c 85 25 3d 3b 79 23 3e 76 1f b9 3d
       -0.050579134 0.040410265 0.15964215 0.09039204
000020 f3 f4 d1 be 9e 15 08 be f0 47 12 bd 04 8f 85 bd
       -0.41007194 -0.13289496 -0.035713136 -0.06521419
000030 9b 91 54 be 01 83 0d bf 5d 50 94 be b0 55 4c be
       -0.20758669 -0.5527802 -0.28967562 -0.19954562
000040 04 39 40 be 2b de e7 be 66 bb 07 bf 60 90 28 be
       -0.1877175 -0.45286688 -0.5302032 -0.16461325
000050 f4 dc 20 3e e2 37 52 be b3 ef cf be 42 8f 93 be
       0.15709287 -0.2052913 -0.40612563 -0.28820235
000060 ed 05 4e 3d cb be c1 be 0e 32 03 be ab 84 74 be
       0.05029862 -0.37840876 -0.12812063 -0.23878734
000070 ca 18 99 be f9 6e a3 be 39 34 31 be b4 d2 2b 3d
       -0.29901725 -0.31920603 -0.17305078 0.04194899
000080 a6 8f 47 3d 33 63 b9 be fc cc 0a be 8b 27 37 be
       0.04872098 -0.36208495 -0.13554758 -0.17886178
000090 c6 c9 8d bc 3b 8e 32 be 5d 94 83 be ed e5 25 3b
       -0.017308127 -0.17437069 -0.2569913 0.0025314048
0000a0 c6 a1 ff bd e6 05 aa 3c 9e b2 e1 bd 28 98 7f be
       -0.12482028 0.020754766 -0.11020397 -0.24960387
0000b0 a3 0e 98 3d 38 1f ce 3d 11 fa 12 3d bc 46 c1 bd
       0.07424667 0.10064548 0.035883013 -0.0943732
0000c0 f5 d9 79 bd 20 d2 81 3e 47 7c bb bd 8a aa b1 bb
       -0.060998876 0.25355625 -0.091545634 -0.005421941
0000d0 ab 20 b2 bd 94 11 2b be b9 ee 7f 3d 77 57 0a 3d
       -0.08697637 -0.16705924 0.062483523 0.03377482
0000e0 a2 56 26 3e 0b af 83 3d 09 f4 84 bd 20 11 2c 3e
       0.16243985 0.06429871 -0.064918585 0.16803408
0000f0 55 87 6a bc 78 b8 8b 3e a7 36 da 3d 5a 90 86 be
       -0.014314492 0.27289176 0.10654955 -0.26282007
000100 80 1a 54 3e 27 30 48 3e b9 c8 96 3e c4 30 8d bd
       0.20713234 0.19549619 0.29450014 -0.06894067
000110 22 99 6c bc 5d 8b 42 3e 73 9f b4 3e d7 31 a5 3e
       -0.014440807 0.18998475 0.352779 0.32264587
000120 77 e1 43 3e 5b f8 07 3e 81 c8 cd 3e 97 61 32 3e
       0.19128977 0.13278334 0.40192035 0.1742004
000130 67 26 af 3e d3 ef 25 3f 3c 13 bd 3e a0 f3 1c be
       0.34208986 0.6481907 0.36928737 -0.1532731
000140 db ee 16 3e 9b 42 95 be 75 9e 0b 3e c2 8f 85 3f
       0.14739554 -0.29152378 0.13634665 1.0434496
000150 4c f4 8d 3e d8 fe a6 3e 7a c1 14 bb 34 b8 39 bf
       0.27725446 0.32616305 -0.0022698329 -0.72546697
000160 d5 80 a4 3e a5 2a 51 3f 8a 98 fd 3b 52 84 d0 3e
       0.3212954 0.81705695 0.0077391313 0.40725952
000170 4b 03 0c bf 67 bc 24 bf b0 c4 d8 3e c2 3d ef be
       -0.54692525 -0.6434998 0.4233756 -0.46726805
000180 8a f8 99 bd 7f 1a 2f be 9a f8 16 bf d4 c6 91 bc
       -0.07518108 -0.17099951 -0.58973086 -0.017795004
000190 0f 4f 23 bf 6c 7b 07 bf 69 90 27 be bd 55 62 bd
       -0.6379251 -0.529227 -0.16363682 -0.055257548
0001a0 a5 d0 16 be f6 9b 40 be cf 5f 6e bf a6 22 4a bf
       -0.14728029 -0.18809494 -0.9311494 -0.7895912
0001b0 1c ac ae 3e de 14 31 3e dd 14 b1 3e 03 b9 3a be
       0.34115684 0.17293116 0.3458623 -0.18234639
0001c0 8b e7 a7 bf f1 93 88 be f2 06 0c 3f d7 51 98 3e
       -1.3117536 -0.2667537 0.546981 0.2974994
0001d0 f4 4d 32 3f 6e ee 04 bf 70 be 41 bf 31 09 20 3e
       0.696502 -0.51926315 -0.7568121 0.15628506
0001e0 19 2d d7 3d 0f 4b 1d 3f bf 2b 8a 3e cf 09 e6 be
       0.105066486 0.61442655 0.269865 -0.44929358
0001f0 d3 a1 6e bd 7b 40 fb bd 0e a2 c1 bd 52 94 98 3e
       -0.058259796 -0.12268158 -0.094547376 0.2980066
000200 96 6b 6a 3e dc 79 9d bc a1 7b 4b bd 03 37 16 bf
       0.22892603 -0.019223146 -0.04967845 -0.5867769
000210 cf ea b3 be 14 e9 ad 3e 75 1b f7 3b ac 57 0c 3f
       -0.35140082 0.33966887 0.007541115 0.54821277
000220 35 32 42 be 67 13 84 bf 7b 4c 5f bd b1 a7 c3 3e
       -0.18964465 -1.0318421 -0.054516297 0.38213876
000230 0e 20 04 3f 9a 32 2c 3f 0e 4e e9 be a9 83 3c bf
       0.5161141 0.6726471 -0.45567364 -0.736384
000240 ba a0 34 3e 4c 83 e4 3d 00 93 45 3f 24 98 03 3f
       0.17639437 0.111578554 0.7717743 0.51404023
000250 9c 70 4b be b8 f5 05 3e f8 88 1d be 07 c9 2d be
       -0.19867176 0.13082016 -0.1538428 -0.16971217
000260 31 81 55 be 84 25 92 be 6d 94 9f be 35 f3 7f 3e
       -0.20850064 -0.28544247 -0.31167927 0.2499512
000270 57 55 99 3e 42 33 6f 3e eb 3a 58 3e f8 65 29 3e
       0.29947922 0.23359397 0.21116225 0.16542804
000280 b5 9b ca 3e 97 b0 a0 3e 64 99 e5 3e 94 bc ae 3e
       0.3957192 0.31384727 0.4484359 0.3412825
000290 a5 ae c1 3e 73 33 d4 3e 1d 64 c2 3e f9 cb 61 3e
       0.37828556 0.41445503 0.37967005 0.22050466
0002a0 5e 1c 9b 3e 39 f9 68 3e eb 7d 5c bd 88 29 12 3e
       0.3029508 0.22751321 -0.053831022 0.14273655
0002b0 7e 20 e6 3c 1a eb 20 be 57 ac 78 bd 22 89 3a 3e
       0.028091665 -0.15714684 -0.06071123 0.18216375
0002c0 0a 93 8d 3e db ee 43 3e a6 b2 cb 3b c9 81 49 be
       0.27651244 0.19134085 0.006216365 -0.19678415
0002d0 75 3d 09 3e a8 2b 12 3e b2 33 1e bc 8b e8 99 3d
       0.1340235 0.14274466 -0.00965588 0.07515057
0002e0 97 3e 61 be 8c 2a 11 be 8d c2 61 be c3 54 5e be
       -0.21996532 -0.14176387 -0.22046871 -0.21712022
0002f0 d6 29 bc bd 1a 19 e6 bd 71 d9 51 be 9f 67 2e be
       -0.09187667 -0.112352565 -0.20493104 -0.17031716
000300 b8 85 80 be d0 6a 78 be bf 54 f1 bc c5 74 d4 bd
       -0.2510202 -0.24259496 -0.029459355 -0.103738345
000310 e0 0f cc bd fe a2 48 be ab 51 64 be 33 8c 19 be
       -0.099639654 -0.19593427 -0.22296779 -0.14994888
000320 7f 57 bf 3e ac 5e c3 3e 6a ae c4 3e e3 4b 3d 3e
       0.37371442 0.38158166 0.38414317 0.1848598
000330 65 5e 8f bc ee b4 9f 3c 1f cb 78 3d 88 7a 46 3e
       -0.017501066 0.019495454 0.060740586 0.1938268
000340 48 dc db 3d 18 00 f9 bd f4 22 3d be 2e 45 80 be
       0.10735375 -0.12158221 -0.18470365 -0.2505278
000350 91 28 81 be df 45 91 be 0b 5e 11 be 41 a8 7d be
       -0.25226262 -0.2837362 -0.14196031 -0.24771215
000360 e9 ff d2 be ad ce 84 be 83 f1 1f be 56 3c 5d bd
       -0.4121087 -0.2593893 -0.15619473 -0.05401262
000370 85 69 c4 3c fc 3d 5a bd dc 3e ca bc 3e 03 0d 3d
       0.023976097 -0.05328177 -0.024688177 0.03442692
000380 a8 30 93 3e 51 ab 2a be d7 48 b2 be b1 e6 88 be
       0.2874806 -0.16666915 -0.34821197 -0.26738504
000390 e7 50 2b bd bb 7b 94 3e 38 70 41 be d0 05 d6 bd
       -0.0418252 0.2900065 -0.18890464 -0.104503274
0003a0 42 59 86 3e 75 a1 0a 3f 47 f2 a3 3e 01 e9 e6 3c
       0.26239973 0.54152614 0.3202078 0.028187277
0003b0 1d 05 85 3e cd e3 03 3f 88 ce 9c 3e 9c 9c f1 3d
       0.25980464 0.5151947 0.3062632 0.11797449
0003c0 7f ef 05 bd 65 55 88 3e f0 44 ee 3e 68 c9 51 3e
       -0.032699104 0.2662765 0.4653697 0.20486987
0003d0 9f 26 e2 bd 93 ff 03 bb 18 f8 61 3e a5 7e b5 3d
       -0.11042523 -0.0020141348 0.22067297 0.08862046
0003e0 40 83 2f be fc 5a 8f be f4 c9 95 bd 57 5f d7 be
       -0.17139912 -0.27999103 -0.0731391 -0.42064926
0003f0 ce a3 1e bf 65 0d 88 be 0b 6a b6 3d f0 e5 98 be
       -0.61968696 -0.2657272 0.08906945 -0.29862928

conv1.bias f4 [10]
000000 63 73 6b bf a1 be 53 bf bc 4c f2 be 94 b1 3e bf
       -0.9197294 -0.8271275 -0.4732417 -0.7448971
000010 d9 3d 32 bf 20 20 39 bf 73 b6 0c bf 16 4c 23 be
       -0.6962562 -0.72314644 -0.54965895 -0.15946993
000020 b0 ac 01 bf c1 27 5a 3e
       -0.50654125 0.21304227

conv2.weight f4 [24, 10, 5, 5]
000000 d8 24 c9 bb 5a 93 3c 3d a5 42 a6 3d 37 6e ec 3c
       -0.0061384253 0.046038963 0.0811818 0.028861148
000010 85 e9 88 bd 51 a3 0e be 68 e9 f0 3d 7c e4 71 bd
       -0.06685165 -0.13929488 0.11763269 -0.05905579
000020 14 1d 94 bd 9d dd e0 3c 9e 0d 09 be 83 6c 73 bd
       -0.07232109 0.027449423 -0.13384101 -0.059429657
000030 84 d8 20 bc 44 c9 a6 bc 58 57 44 3c 5e b7 86 bd
       -0.009817246 -0.020359643 0.011983715 -0.06577943
000040 03 08 a8 3c e2 99 a7 bd 9b d9 9f bd 57 d2 10 be
       0.020511633 -0.08183648 -0.07805177 -0.14142738
000050 6d 19 8d 3d b2 34 a0 bc 26 dc c6 bd f6 55 36 bd
       0.06889615 -0.019556377 -0.09709959 -0.044515572
000060 85 f4 66 3d cb 79 01 3e b9 24 f0 bd f5 83 11 be
       0.056385536 0.12644117 -0.11725754 -0.14210494
000070 f6 77 30 3e f9 25 41 3d 06 5e 6b 3e 74 31 b7 3d
       0.17233261 0.047155354 0.22985086 0.08944979
000080 d8 f4 33 be 9a f9 1a 3d b2 03 13 be 29 19 e2 3d
       -0.17573869 0.037835695 -0.14356878 0.11039955
000090 d1 18 17 3d fc 29 44 be 93 50 89 be cc 7f ef be
       0.0368889 -0.19156641 -0.26819286 -0.4677719
0000a0 ca 36 68 3e 00 c4 a4 bd aa d0 5d be ba 3a a0 be
       0.2267715 -0.080451965 -0.2166163 -0.31294805
0000b0 1d 56 a5 be 73 e3 90 3c 5e 9f a0 be 9a fc c9 be
       -0.32292262 0.017686581 -0.31371588 -0.39450532
0000c0 33 29 f7 be 42 64 b0 be af 0f ad bd 85 b3 15 be
       -0.4827362 -0.3445149 -0.08450257 -0.14619263
0000d0 0c b5 27 be 8c 00 99 bd 7b 97 d5 3d 96 10 2c be
       -0.16377658 -0.074708074 0.10429283 -0.16803202
0000e0 a2 82 03 be 1d e3 04 be 4f d7 0a bd 31 1e 61 39
       -0.12842801 -0.12977262 -0.03389674 0.0002146892
0000f0 3b 73 e3 bd 47 79 5b bd 57 3d 14 bd 63 a1 34 3e
       -0.11105963 -0.053582456 -0.03619131 0.17639689
000100 7b 00 1d 3e ce 0a 1b bd 37 18 37 bd 19 c6 95 3b
       0.15332215 -0.0378521 -0.044700827 0.004570734
000110 e8 f8 14 3e ee 7a 17 3e 07 76 ee bd 19 99 da bd
       0.14548075 0.14792988 -0.11643606 -0.10673732
000120 cd e0 b1 bd 24 5c 50 39 3e 6b 04 3e 36 c5 06 3e
       -0.086854555 0.00019870751 0.12931535 0.13161168
000130 9b 79 ad 3e 1b 72 ba bc a0 a5 5b be a5 c2 2c 3e
       0.3388184 -0.022759488 -0.214499 0.16871126
000140 e1 76 8c 3d 67 8b f4 3d f7 e8 75 bd ef 62 ad bd
       0.06858612 0.119406514 -0.060036626 -0.08466136
000150 c9 99 77 bb 24 40 78 3d 4b 66 13 3e 4e 56 0b 3e
       -0.0037780872 0.060608044 0.1439449 0.13607141
000160 73 3f 08 bb b3 00 21 be f6 e0 d1 bd e6 70 ce bd
       -0.0020789772 -0.15722923 -0.10247986 -0.100801274
000170 8c c2 01 be 39 19 4f be 0c 48 b9 be 44 53 18 bd
       -0.1267187 -0.20224465 -0.3618778 -0.037188783
000180 78 48 b0 3d 29 30 4e 3d 1a 4f cd bd 8c 2a 81 be
       0.08607572 0.050338898 -0.10024853 -0.25227773
000190 03 1c cd 3c e0 bd ba bc 37 0e a4 3e be ac 78 3e
       0.025037771 -0.022795618 0.32042095 0.24284646
0001a0 1c 64 a3 3e 2f e7 30 be 20 61 c9 bd 4f 77 3b 3e
       0.31912315 -0.1727569 -0.09832978 0.18307231
0001b0 5a 34 79 3e c2 09 f8 3d be 5f da 3d 77 e0 b2 3c
       0.24336377 0.12111236 0.106627926 0.021835549
0001c0 f0 7d 21 3d 91 a0 a5 3d b1 04 56 3d 16 72 f1 3c
       0.039426744 0.08087266 0.052250568 0.029473346
0001d0 9c 44 b7 3e 03 10 bb 3e 71 f8 c4 3e bb 84 d5 3e
       0.35794532 0.36535653 0.38470796 0.41702828
0001e0 cd 20 1d 3d c5 cc c2 3c 26 84 06 3e 66 99 0a 3e
       0.03836136 0.023779282 0.13136348 0.1353508
0001f0 5a 40 80 3d aa 0c 2b 3e 24 57 a9 bd 9e 61 13 bb
       0.06262274 0.1670405 -0.08268574 -0.0022488604
000200 2c 25 18 3e d7 78 36 3c 49 a2 39 bd 48 67 cd bd
       0.1485793 0.011137209 -0.045320783 -0.10029465
000210 cb d4 81 be 56 67 e4 3d f9 0c e8 3d 75 bf 77 be
       -0.2535766 0.11152522 0.11330599 -0.24194129
000220 a3 dc be be 55 84 7e be 52 a0 34 be a4 62 2e be
       -0.37277707 -0.24855168 -0.17639282 -0.17029816
000230 32 ee e7 3c 1a 12 28 3d b4 3e 05 3e 86 b0 2a 3e
       0.028311823 0.041032888 0.130122 0.16668901
000240 c3 44 a4 3b ed ae 95 bd d5 73 19 3e 9f 90 17 bd
       0.00501308 -0.07308755 0.14985593 -0.037003156
000250 09 ff 38 be cc b4 8a be 70 59 71 bd 85 e5 3a 3e
       -0.18066038 -0.27091062 -0.058923185 0.18251617
000260 c3 b2 5d 3e 04 9a d1 3d 61 84 b1 bb e2 f7 f0 bd
       0.21650223 0.10234454 -0.005417392 -0.1176603
000270 75 e9 14 3e c1 fd 34 3e d6 2c 04 3e af 70 c7 bb
       0.14542182 0.17674924 0.12907729 -0.006086431
000280 ad d8 ba be 65 13 83 be 90 e2 32 bd 2c fb 9a bd
       -0.36493436 -0.25600734 -0.043673098 -0.075674385
000290 ff 15 d2 bd 89 b0 37 bc 6c 22 9c 3e c6 8a 81 3e
       -0.10258102 -0.011211523 0.30495012 0.25301188
0002a0 0e 12 2d 3e ec 91 a8 bd f5 29 96 3d 86 50 2d 3e
       0.16901419 -0.082309574 0.073322214 0.16925249
0002b0 a7 8f 32 3e e8 2c 82 3e 04 6b 48 3e 1d 30 a8 3d
       0.17437612 0.25424886 0.19572073 0.08212302
0002c0 33 11 02 3c 1a da 90 bd 63 5b 6b 3c 02 e6 2b be
       0.007938671 -0.070728496 0.01436505 -0.1678696
0002d0 38 08 01 be 1f 2e 87 be 9b 0f 24 be 89 d5 14 be
       -0.12600791 -0.26402375 -0.16021578 -0.14534582
0002e0 aa 4f 42 be ac 67 24 be 03 e8 22 be ce e6 6f be
       -0.18975702 -0.16055173 -0.15908818 -0.23427889
0002f0 77 12 8e bd 8c ed 60 be b7 d9 c1 bd b4 96 0f bd
       -0.06937116 -0.21965617 -0.09465354 -0.03505583
000300 7d 87 ea bd 24 6f e3 bd aa 23 07 be df 5b 9f 3b
       -0.114516236 -0.11105183 -0.13197199 0.004863247
000310 c8 fb b1 3d 96 77 61 3d 93 b7 60 3d 73 e4 03 3d
       0.086906016 0.055045687 0.05486257 0.032200288
000320 9a 91 d9 3e 39 dd e4 3d 9d 47 99 3e a2 e3 44 3d
       0.42493898 0.111750074 0.2993745 0.04806865
000330 cb fa ba 3e 5e 2b 33 3e 5d 46 32 3e 61 7f 92 3d
       0.36519465 0.17497012 0.17409654 0.07153202
000340 d5 06 02 3d 04 49 e7 bd d6 79 a6 3e 21 d8 96 3e
       0.031744797 -0.112932235 0.32514828 0.29461768
000350 bc d1 84 be dd 21 57 be 9e d9 de be 6a 20 3e bc
       -0.25941265 -0.21009012 -0.43525404 -0.011604408
000360 b4 f0 79 bd d9 92 d8 be 43 76 06 bf 28 48 1e bf
       -0.061020568 -0.42299536 -0.52524203 -0.6182885
000370 7a a7 aa be ab 65 d5 be 33 32 20 bf 03 32 51 bf
       -0.333309 -0.4167913 -0.625766 -0.81716937
000380 38 3a 5f bf 1c 5a 26 bd 03 89 14 bd b5 2e 0f 3d
       -0.8719821 -0.04061328 -0.036263477 0.034956653
000390 83 2a c7 bc 97 ae d5 3d 06 19 4a bd 0c c5 07 be
       -0.024312263 0.10433691 -0.04934027 -0.13258761
0003a0 2f f9 bb 3d 48 e4 65 bc 71 92 49 bb c3 83 93 bd
       0.091783874 -0.014031477 -0.0030757452 -0.07202866
0003b0 20 c3 c7 bc 8e aa 8d 3b 0e a7 a7 3d e8 40 1e be
       -0.024385035 0.00432331 0.0818616 -0.15454447
0003c0 64 68 ef bd c1 60 d7 3d f8 57 82 3d 30 ae 7e bd
       -0.11689833 0.10516501 0.06364435 -0.062177837
0003d0 ec a2 0d bd d0 e0 9b 3d 52 5e 7c 3c 97 a6 ac 3d
       -0.034579203 0.07611239 0.015403347 0.08430212
0003e0 fe 36 d5 3b 5a 92 d3 bd 06 82 23 be 52 89 c4 bd
       0.0065067997 -0.10330649 -0.15967569 -0.09596504
0003f0 53 bf 8c bd ad 49 c7 bc 1a 8a ac bd 86 d9 1a be
       -0.0687243 -0.024327124 -0.08424778 -0.15122041

conv2.bias f4 [24]
000000 18 9b 80 3f da ed 84 3e d6 54 7a be 69 ca 08 3e
       1.0047331 0.25962716 -0.24446425 0.13358463
000010 9a 0b b3 3e ad 09 d5 be 03 ef e0 3e 90 cd e7 3f
       0.3496979 -0.41608945 0.4393235 1.8109608
000020 96 cb 1d 3f d2 f2 20 3e da cd e5 be d6 91 6d bf
       0.6163877 0.15717629 -0.44883615 -0.92800653
000030 8b 9e d9 3d 96 00 3c bf 7b ba f3 be 48 aa fe bd
       0.10625943 -0.73438394 -0.4760321 -0.12434822
000040 df 4e 8e be 9e 9b 88 3f 5b 40 db bf a8 43 2e 3e
       -0.2779455 1.0672491 -1.7129015 0.17017996
000050 f6 3f b7 be 5c d3 67 be 51 e1 b7 3e b9 90 95 3f
       -0.35790986 -0.22639221 0.3591409 1.1684791

fc1.weight f4 [120, 600]
000000 10 d2 88 bd 12 5a 15 bd 03 b8 1e bd 15 d2 21 bd
       -0.06680691 -0.03646285 -0.038749706 -0.03950699
000010 65 aa 99 3c 9c 27 91 bd 07 13 86 3b 92 43 f4 3c
       0.018758008 -0.07087633 0.0040916237 0.029817376
000020 96 85 df bb 65 c8 53 bd 3c c2 61 bd 41 31 4a 3c
       -0.0068213446 -0.051704783 -0.055116877 0.012340845
000030 93 3c 70 bc 7f d3 4a 3d 05 d8 c6 3b 4b cb fd bc
       -0.0146628795 0.049518105 0.006068232 -0.030980727
000040 41 f9 90 bd 40 e0 c5 bd 31 0b 53 bc be db 2a bd
       -0.070787914 -0.09661913 -0.012881086 -0.04171347
000050 b9 ee e8 bc 61 fd da bd fd b6 eb 3c 7a 91 49 3d
       -0.028434144 -0.106928594 0.028773779 0.049211003
000060 85 8b 5c 3b 6c 97 69 bd fc 41 23 3d 71 08 ae 3c
       0.0033652496 -0.057029173 0.03985785 0.02124426
000070 95 7a df 3c e2 2a 09 bd 71 ac 9a 3c 49 48 1f 3c
       0.027280131 -0.03348816 0.018881055 0.009721824
000080 bb e1 c2 3b 4d c7 04 3b 98 41 e7 bc bb d8 c1 bd
       0.0059473193 0.0020260394 -0.02822952 -0.09465166
000090 df 46 3c bd dc 5d 5d 3d e0 7c 27 3c 22 85 d9 bd
       -0.045966025 0.05404459 0.010222644 -0.10621096
0000a0 6c 50 92 bd 23 4d b6 3c df 3e 84 3d 5b c5 3f bd
       -0.071442455 0.022253579 0.06457304 -0.046819072
0000b0 c1 08 d1 bc c7 33 4f 3d 1d e2 59 bd a3 18 bf bc
       -0.02551687 0.050586488 -0.053194154 -0.023327177
0000c0 2e d3 a8 3b 82 c3 23 bb 69 ea 72 bd 6d 15 4f 3d
       0.0051521277 -0.0024988358 -0.059305582 0.050557543
0000d0 ef 2d 39 3d 44 88 15 3d a9 cb 01 3e 8d 10 60 bd
       0.04520982 0.036506906 0.12675346 -0.054703284
0000e0 65 df c0 bc 50 25 29 bd fc 1b e2 bc 60 dc 72 3d
       -0.023544023 -0.04129535 -0.027601235 0.059292197
0000f0 ad 0b 5f bd 6f 29 78 3d 23 03 fb 3c 31 65 c7 bd
       -0.054454494 0.06058639 0.030641144 -0.097360976
000100 2c c9 11 bd 3d 13 ce bd 12 b6 fb bd 6f 3d 93 bd
       -0.035592243 -0.10062263 -0.122905865 -0.07189452
000110 3b 17 c9 bd 60 6b f7 bb 7a 45 0d 3d d1 08 1d 3c
       -0.09818884 -0.007550642 0.034490086 0.0095846215
000120 bf 6a 1e bd ff 24 2d bd b6 db 98 bc d3 7c 90 bd
       -0.03867602 -0.04227161 -0.018659454 -0.07055058
000130 0a f3 6e bd c7 0b 0c bd 15 18 66 bd ce a3 98 bd
       -0.05833725 -0.03419092 -0.05617531 -0.07453118
000140 e0 24 5a bc 99 2b a6 bd c6 91 85 3c c4 e3 6b bc
       -0.013314456 -0.08113784 0.016304862 -0.014397565
000150 57 47 89 bd d4 f8 de bc 2d 50 7a bd 89 18 b4 bd
       -0.0670306 -0.02721826 -0.061111618 -0.08793742
000160 5a b4 2d 3b be c2 00 3d 42 30 48 bc 0a 38 2e 3d
       0.0026505203 0.03143572 -0.012218537 0.04253391
000170 c8 d4 12 bd fd f1 54 bd 04 9e 42 bd 2e 0d 07 3d
       -0.035847455 -0.05198859 -0.047513977 0.032971554
000180 64 f4 84 3c bf ad c4 bd 10 c6 18 bd 81 a3 f3 3d
       0.016229816 -0.09603452 -0.037298262 0.1189642
000190 89 9e 89 bc 49 05 78 bd d7 72 54 bd 5b 30 09 bd
       -0.016799228 -0.060551915 -0.051867332 -0.03349338
0001a0 23 c7 06 be a3 b1 9f b9 77 04 d6 3c df f9 dd 3d
       -0.13161902 -0.00030459193 0.026125176 0.10838675
0001b0 03 80 b9 3c 3d 1f e9 bb ed ee f9 3c 37 34 64 bb
       0.022644049 -0.0071143196 0.030509437 -0.0034821162
0001c0 33 51 2c 3c 8a c6 b5 bc ac 21 36 bd c5 a0 76 bd
       0.010517406 -0.022189397 -0.044465706 -0.060211916
0001d0 03 d2 ee 3c e3 ba 14 3c 48 fc 50 bb b9 d2 05 bd
       0.029152876 0.00907776 -0.0031888653 -0.032671664
0001e0 67 f2 fe bc 69 63 bb 3c bc bc 38 3d ca cb bc bc
       -0.031121446 0.02287455 0.045101866 -0.023046393
0001f0 e9 42 48 bc 09 34 9e bd 7f 73 c9 bd 90 a0 99 bc
       -0.012222984 -0.07724769 -0.09836482 -0.01875332
000200 b8 32 50 3d 16 69 3f 3d 28 94 28 bd 91 71 f9 bc
       0.05082962 0.046731077 -0.041156918 -0.03044966
000210 0b 1f 5b bd 8b 92 14 bd d1 41 01 3c 3f 4c 88 3d
       -0.0534964 -0.036272567 0.007889227 0.06655168
000220 d9 e2 e9 bc de 5c d3 3c 2d c2 80 3c 4f 30 8e bc
       -0.028550552 0.025801118 0.01571759 -0.01735702
000230 37 6d 10 bd a2 ea 92 bd be d4 10 bd 6a 81 98 3a
       -0.035260405 -0.07173659 -0.035359137 0.0011635248
000240 45 a3 4b bc 00 36 ae bc 5b e3 af bd a5 70 89 bc
       -0.012429063 -0.021265984 -0.085882865 -0.016777346
000250 ce 16 86 ba d0 23 07 3c 16 d6 37 bd 9e 65 0b 3b
       -0.0010230185 0.008248284 -0.044881903 0.0021270285
000260 51 ad 50 3d c8 fe 8f bd 58 54 04 be 8b ed ad bd
       0.050946537 -0.070310175 -0.129228 -0.08492573
000270 cc 2a 41 3c 30 91 86 3d 7f 3b b1 bc 76 f2 ae bd
       0.011789989 0.06570661 -0.021634815 -0.085423395
000280 72 f3 8f bd 40 b7 c5 bc a7 4f 7f 3c 70 43 f6 bb
       -0.070288554 -0.024135232 0.015582955 -0.0075153634
000290 2a da 50 3c 04 ef cd bc d6 9b 37 bd 55 83 5f bd
       0.012747327 -0.025138386 -0.04482635 -0.054568607
0002a0 99 df 62 3c d4 69 1b 3d 93 2f 56 3d ea 11 b7 bd
       0.013847255 0.037942722 0.052291464 -0.08938964
0002b0 fe 97 ce 3c 8d 12 17 3d 22 47 4c 3d 71 a7 9e bd
       0.02521896 0.036882926 0.049872525 -0.07746781
0002c0 46 50 41 bc c3 87 da bc ee 13 7d bd 37 44 1e 3d
       -0.011798924 -0.026676064 -0.061786585 0.038639273
0002d0 e5 70 01 bd c5 7d 8b bc be a5 9c 3c a6 96 8a bd
       -0.031601805 -0.017027745 0.019122 -0.06767015
0002e0 93 88 c1 3c 92 32 3b bd f6 c0 9e bd 3b b1 66 3c
       0.023624694 -0.045702524 -0.07751648 0.014080341
0002f0 c4 50 1b 3c 32 36 cf bc 41 43 f8 bc 47 a9 97 bd
       0.009479705 -0.025294397 -0.030305507 -0.07405334
000300 ac 9f 36 bd c9 d2 60 bc 3b 30 9c bc c6 a5 21 3c
       -0.04458587 -0.01372213 -0.019065967 0.009866184
000310 19 9e 3f bd 2b ef 30 bd 5a f6 eb bc 5c 99 ce bd
       -0.046781633 -0.04319684 -0.028803993 -0.10087845
000320 f0 7a 3c bd bf 9e 74 3d 62 77 0d 3d df 24 12 bd
       -0.04601568 0.059721705 0.03453768 -0.035679694
000330 89 f3 a3 3c 43 11 82 bc 9d ee e0 bd b6 32 05 bd
       0.020013588 -0.015877372 -0.10983012 -0.032519065
000340 88 94 9a bd 95 12 8d bc ba 68 12 3c 10 a3 c9 bd
       -0.07547861 -0.017220775 0.008936102 -0.09845555
000350 bc 43 72 bd c6 64 95 bc 6b 02 80 3c 35 f1 0b 3e
       -0.059146628 -0.01823653 0.015626153 0.13666232
000360 4e ee 1a 3d 0d 86 59 bd 9f 07 a8 3c db e6 c1 3d
       0.03782492 -0.053106356 0.020511447 0.0946786
000370 26 69 68 39 ee a6 ac 3d 4d a9 f0 bc 6a 22 cd 3c
       0.00022164415 0.08430277 -0.029377604 0.025040824
000380 8a 27 49 3d 6d 4a 3d bd 66 3a 81 bc f3 21 75 bc
       0.049109973 -0.046213556 -0.015774917 -0.014961707
000390 21 ed f3 b9 d1 df 12 3c bb bc e6 bc 80 8e 38 bd
       -0.00046525247 0.008964495 -0.028166166 -0.045057774
0003a0 0b 6a 44 bd c3 d3 1d bd 14 ec 0a bd ee f1 01 bd
       -0.047952693 -0.03853203 -0.033916548 -0.031724863
0003b0 b4 40 ac bd 45 09 99 bd 8d f6 b8 bc 0d 69 3d bd
       -0.08410779 -0.07472471 -0.022578502 -0.046242762
0003c0 47 d9 82 bd 59 c5 7d bd 1c 67 98 bd e9 ed 7a 3c
       -0.063890986 -0.061955784 -0.074415416 0.015315511
0003d0 e0 d4 0a bc ea fe 9a bd d0 aa 6d bd 13 17 9c 3c
       -0.008473605 -0.07568152 -0.058024228 0.019053971
0003e0 d9 31 42 bc f2 64 33 bb 1c 0a f6 bb c0 44 ff bd
       -0.011852705 -0.00273734 -0.0075085294 -0.12464285
0003f0 44 9f 23 bd df 86 05 3d 07 c3 83 3d f0 5d 79 bb
       -0.03994681 0.032599326 0.06433683 -0.0038050376

fc1.bias f4 [120]
000000 77 2b 0a bd 19 32 eb bd 3b f3 3c bc 0b 5b 84 3e
       -0.033732858 -0.11484165 -0.0115326 0.2585071
000010 00 48 e3 bd 0f b6 9f bd 44 42 82 3e ec c4 14 3e
       -0.11097717 -0.07798397 0.25441182 0.14528245
000020 39 83 90 bb 9f dd d6 3e e6 44 2f be b5 1c 2b 3e
       -0.004410174 0.41965958 -0.17116126 0.1671017
000030 86 5c 36 be a8 37 eb 3d e5 11 68 3e 2c 74 15 bd
       -0.17808732 0.11485225 0.22663076 -0.036487743
000040 6a 8e 44 3e 4a 01 c5 bb 00 24 0d be b1 c8 3d 3e
       0.19194952 -0.0060121166 -0.13783264 0.18533589
000050 e4 80 95 ba 92 ad 17 3e 85 36 46 be a5 ef 19 3e
       -0.001140621 0.14812306 -0.19356735 0.15032823
000060 9d 02 53 be d3 15 99 bd 95 c0 92 3d 38 42 98 bd
       -0.20606466 -0.07474866 0.07165638 -0.07434505
000070 a7 48 6c be 8f da 49 bd fe 66 54 3e f0 36 45 3d
       -0.2307459 -0.0492807 0.20742413 0.048148096
000080 cd d7 64 3c bd 49 35 3e 7e ba a8 bd f8 d0 fb bd
       0.013967467 0.1770391 -0.082386956 -0.12295717
000090 a7 7b 5b 3e 9b 56 0b 3e 67 c6 62 be 7c 98 6c 3d
       0.21433888 0.13607256 -0.22145997 0.057762608
0000a0 68 05 21 be f4 30 67 3d 37 b9 e9 3e 3c ef 7b 3e
       -0.15724719 0.05644317 0.4564912 0.2460298
0000b0 6a f6 f1 3d 91 de 56 3d a3 a5 20 bd 4e be 02 3d
       0.11814578 0.05245835 -0.039220463 0.03191977
0000c0 19 32 97 be e7 a5 1e bd 67 ca a8 3e 4b 9f 14 3c
       -0.2953041 -0.038732436 0.3296692 0.0090711815
0000d0 0f 36 b4 bc 9e 8d db 3e cf 75 51 3e 0e 94 bb bd
       -0.021998433 0.42881483 0.20455097 -0.091590986
0000e0 72 ea c0 3e e2 d4 c6 be eb 4b c5 3e 29 62 6d 3e
       0.37678868 -0.38834292 0.38534483 0.23181976
0000f0 c7 23 df 3d 0b 38 8e 3e 87 dc 24 be 9a 98 b3 bd
       0.10895496 0.27777132 -0.1609975 -0.08769341
000100 96 1f 46 bb cc 7d 95 bd ed 87 10 3d 66 c7 8d 3e
       -0.003023123 -0.072993845 0.03528588 0.2769119
000110 fa ad 0f bd 49 24 2e 3d ad f7 80 bb 93 b2 0d be
       -0.035078026 0.042515073 -0.0039357753 -0.13837652
000120 56 d4 31 bc 8f f7 b2 3d 1b 28 08 be ca a6 bd 3e
       -0.0108538475 0.08738624 -0.13296549 0.37041312
000130 70 26 09 bd 91 60 88 bd 79 8f c9 3c a4 0c 23 be
       -0.033483922 -0.066590436 0.024604546 -0.15922791
000140 e5 0d 91 bd 36 61 95 3e e4 47 79 3d 1d e6 16 bd
       -0.07082728 0.2917573 0.060859576 -0.036840547
000150 5c 90 c1 3d 35 45 36 be a3 cd 02 3f 30 91 9d bb
       0.094513625 -0.17799838 0.51095027 -0.0048085675
000160 98 35 db 3d 29 9c 65 be b5 0d 49 3e 5c 20 35 3e
       0.107035816 -0.22422852 0.19634135 0.17688125
000170 dd 77 f7 3d e2 4c bc 3c db c4 dd bd 35 2f 93 3d
       0.12083409 0.02298588 -0.10828563 0.071867384
000180 3b f7 f6 be 4a 08 83 3d 93 1c 9e 3e f7 6b da bc
       -0.48235497 0.063980654 0.30881175 -0.02666281
000190 37 30 2f 3e bd fa 90 3d 9a 83 34 bd a6 d1 55 3a
       0.17108236 0.070790745 -0.044070818 0.0008156545
0001a0 33 be 3e be 6f c5 b6 3d 98 a0 66 3c 81 b0 27 3e
       -0.18627243 0.08924376 0.0140763745 0.16375925
0001b0 36 91 bd 3d 84 d2 8d bd 1c 04 a6 bd 5c 8b 9c bb
       0.092562124 -0.06924918 -0.081062526 -0.004777355
0001c0 f5 b5 a4 bd f6 d0 25 3e c4 bb 88 bd 5a 1d 0d be
       -0.08042518 0.16192994 -0.066764385 -0.13780728
0001d0 0f 40 d2 3d f3 3e d7 3d 90 59 b8 be c9 99 4e 3e
       0.102661245 0.105100535 -0.3600583 0.20175852

fc2.weight f4 [95, 120]
000000 e3 60 de bd e5 7e 3d be 01 57 2f 3d 97 a4 f2 bc
       -0.108583234 -0.18505438 0.042807583 -0.029619498
000010 12 f1 28 be 51 37 23 3d ca f5 a5 3d 03 89 d8 bc
       -0.16498211 0.039847676 0.08103521 -0.02643252
000020 27 c2 37 3d 3e c3 b3 bd 57 bd ac 3d 29 9c 39 be
       0.044862892 -0.08777474 0.08434551 -0.18125977
000030 46 a6 b5 3d 17 bb bd bd 33 45 95 bd c1 7a 7f bd
       0.08869605 -0.092642 -0.07288589 -0.062372927
000040 0f d6 bb bc 69 5a 97 3d 7c 5b 47 be 35 e4 e3 3c
       -0.02292922 0.07390291 -0.19468492 0.027818779
000050 5b af 0f bd 27 47 0e be ba bc 34 3c e4 e9 b4 bd
       -0.03507934 -0.1389433 0.011031324 -0.088336736
000060 31 7e 77 3e b5 4e 96 bd f8 3f 97 bd ea 66 af 3d
       0.24169232 -0.07339231 -0.07385248 0.08564551
000070 2e 14 05 be a8 c5 30 3e 67 c9 81 bd c5 fb 2c be
       -0.12995979 0.172629 -0.063372426 -0.16892917
000080 2f 89 22 be 41 67 da 3d 10 ac ea 3c 8f 62 dc bc
       -0.15872644 0.10664225 0.028646499 -0.026902465
000090 9b 72 e1 bd 9f 2e a2 bd ec 29 05 be 41 ad 1b be
       -0.110081874 -0.079190485 -0.13004273 -0.1520281
0000a0 60 b5 e5 bd b4 31 df 3d 6a d3 a4 3d 82 a5 c6 3c
       -0.11216235 0.10898152 0.080481365 0.024248842
0000b0 42 f2 dd 3d 7d f6 67 bd 8f 42 c2 bc 27 4b d2 bc
       0.10837223 -0.056631554 -0.023713378 -0.025670601
0000c0 a0 22 03 be bc 22 02 bd da 64 41 3e e3 a8 c2 bc
       -0.12806177 -0.031771407 0.18886128 -0.023762172
0000d0 05 a4 eb bd 95 ee 23 3d 52 e4 9a bd 4e d4 63 be
       -0.115058936 0.04002245 -0.0756308 -0.22248957
0000e0 6a 85 b2 bd 7c 82 c4 bc 8b 7d 5e 3d e4 cb af 3d
       -0.08716853 -0.023988001 0.054318946 0.08583811
0000f0 4a e7 69 bd 4f 5a 92 bd ef 55 5e 3c 4d 1b f3 bd
       -0.05710534 -0.07146131 0.013570293 -0.118704416
000100 8d 7c 9f bd 02 ba 39 3c 5d e3 bd bd 78 04 c8 3d
       -0.07787428 0.011335852 -0.09271882 0.09766477
000110 d2 04 f9 bd 07 2d d1 3d 04 9d 83 bd 33 c6 ac bd
       -0.121591225 0.102136664 -0.06426433 -0.08436241
000120 70 74 25 bc 4d 97 07 3e 36 7b c5 bd db df 95 bd
       -0.010098562 0.1324131 -0.09642641 -0.07318088
000130 97 80 6f bd 63 6a 62 be c7 b4 e8 bd 28 e8 80 be
       -0.058472242 -0.22110896 -0.113626055 -0.2517712
000140 b2 a9 b7 bd bf 8d 84 3e 76 08 2b be 4e a6 24 3c
       -0.08967914 0.25889394 -0.16702446 0.010049416
000150 c7 1a 0d 3b 5d e0 94 3c 63 21 6a 3d 6f 77 92 bc
       0.0021530853 0.018173391 0.057160746 -0.017879216
000160 33 cf b1 3d 6a 0b a0 bd 47 b6 53 bd 30 a3 cf 3d
       0.08682098 -0.07814677 -0.051687505 0.101385474
000170 c3 6d a2 bd 87 88 f5 bd a7 60 13 3d f3 38 9f 3d
       -0.07931092 -0.11988931 0.035980847 0.07774534
000180 c2 22 34 bb 5f 27 cb 3c e4 e3 50 3e 69 02 56 bd
       -0.0027486538 0.024799047 0.20399433 -0.052248392
000190 30 04 1d 3d 47 94 cf bd 04 b8 d5 bc e1 c2 1a 3d
       0.03833407 -0.101357035 -0.026088722 0.037783507
0001a0 60 d8 fb bd 7d fe 15 be fa a4 33 3c 3a 56 0d 3d
       -0.1229713 -0.14647861 0.010964626 0.03450606
0001b0 69 78 7f 3c 37 d9 69 be 88 bc 2b 3d 32 db c1 bd
       0.015592673 -0.22836767 0.041927844 -0.09465636
0001c0 02 8d 1f be 6b 18 04 3d 87 1a 88 3c 82 e4 e5 3d
       -0.15581134 0.03224985 0.016614212 0.11225225
0001d0 e0 d3 b1 bd 00 fc c7 bc 44 f6 fe bd c4 d5 60 bc
       -0.0868299 -0.024412155 -0.12449315 -0.013722841
0001e0 17 9c 30 bd 80 31 b0 bd 54 c5 26 3d dc f7 58 be
       -0.04311761 -0.086031914 0.04071553 -0.21188301
0001f0 29 71 da bd c5 ca 1e 3d a3 22 c6 3b 0e 75 00 3e
       -0.10666115 0.038767595 0.0060466095 0.12544653
000200 7a 08 c2 bd bd 82 77 ba 4a 31 cb 3a 9b a5 a7 bc
       -0.09474273 -0.0009441784 0.001550236 -0.020464709
000210 f9 5d 57 3d c5 17 ff bd 82 77 a0 bd 69 86 48 3d
       0.052579854 -0.124557056 -0.07835294 0.04895631
000220 fd b6 ce bd 62 3a 79 bc d7 5b 77 3d 28 fb 3e 3b
       -0.10093496 -0.015211673 0.06039032 0.00291414
000230 90 e7 ea bd 2f d2 20 3d 03 91 fc bd 73 a8 70 bd
       -0.11469948 0.039262947 -0.12332346 -0.058754396
000240 65 98 2c 3d e9 81 3d 3d 94 a5 23 3e 44 f9 62 3d
       0.042137522 0.04626647 0.15981132 0.0554135
000250 99 b5 91 3d 98 37 ff 3d 5e d4 c1 3d 71 08 96 bd
       0.07114715 0.124617755 0.09464334 -0.07325829
000260 f0 ed f1 bc 14 8c 68 be 6b 15 61 3d 25 70 aa 3d
       -0.029532403 -0.22709686 0.054952066 0.08322171
000270 0b ae a2 3c 0e d1 81 bd a6 03 de 3c 28 ef ba 3d
       0.01985838 -0.06338702 0.02710135 0.09127647
000280 66 2f d6 3d 9f ee 43 3d 76 dc 02 3e 36 91 12 be
       0.10458259 0.04783499 0.12779412 -0.14313206
000290 78 59 9f 3c 01 16 9f bd 75 e8 83 bd ac f9 47 3e
       0.019451842 -0.07767869 -0.06440822 0.19528836
0002a0 9b e9 72 bb 9b a6 28 3d 03 16 20 bd 19 21 62 bd
       -0.003706551 0.041174512 -0.039083492 -0.055207346
0002b0 1c 0f c4 bb b3 24 42 be 3a de 6b be a5 69 6c bd
       -0.0059832465 -0.18959312 -0.23033991 -0.057717938
0002c0 b9 ea 0f be de 78 3f be 9f 97 40 3e d8 6d 21 bc
       -0.14054383 -0.18698451 0.18807839 -0.009852849
0002d0 b3 ed 50 bd 67 47 ce bc 5b 39 26 be 51 30 9a 3b
       -0.051007938 -0.025180532 -0.16232817 0.004705467
0002e0 b1 12 e7 3d 56 a1 04 be 56 3f 71 bd 30 c2 e8 3d
       0.11282862 -0.1295217 -0.058898292 0.11365163
0002f0 a2 37 d9 3d eb 00 92 bd 28 b2 1a be fc 49 e3 3d
       0.10606314 -0.07129081 -0.15107024 0.11098096
000300 f7 11 cd 3d 32 cb b4 3d 44 ef 5a be 3d b5 90 3a
       0.10013192 0.08827819 -0.21380335 0.0011040341
000310 1d 03 6e 3c a5 ac 37 3d ab 8f 3f be 8f f5 1d ba
       0.014527109 0.04484238 -0.18707149 -0.0006025666
000320 c6 a5 2e 3d 4e 98 ba bd ae b6 98 bb 63 23 08 3e
       0.042638563 -0.09111081 -0.004660449 0.13294749
000330 f8 65 0f 3d 9e 5e cc bd c8 52 3b bc 2b 9b 16 bd
       0.035009354 -0.09978984 -0.011433311 -0.036769073
000340 b6 32 e5 3d 49 32 be bc e9 0c 6e 3d 91 eb 9b bd
       0.11191313 -0.023217337 0.05811778 -0.0761329
000350 34 50 81 be e3 90 c2 bb ed 0d a1 3b 6b 70 20 3e
       -0.25256503 -0.005937682 0.00491499 0.15667884
000360 d3 4b 7d bc 38 06 4a be 4f 61 2b 3e b4 0f 2c 3c
       -0.015459972 -0.19728935 0.16736339 0.010501791
000370 e9 4c bd 3c 06 10 5a bb ae 4a 48 3e 67 d6 41 3d
       0.023107963 -0.003327371 0.19559738 0.04732361
000380 be 8d 38 be 44 cc 21 bc 77 44 be 3d 1e 79 87 bc
       -0.1802282 -0.009875361 0.092904024 -0.016537245
000390 6b 6a d1 3c e7 a6 de bd cc 58 6e be 99 df 38 3e
       0.02556344 -0.10871678 -0.23276061 0.18054046
0003a0 ea ff ec 3c fb 6f fa bd 95 db b4 bd bb ad e6 3c
       0.028930623 -0.1222839 -0.088309444 0.028159013
0003b0 a1 ac f5 3d f1 57 c6 3d 5b 08 02 be 37 2f a1 3d
       0.11995817 0.09684742 -0.126985 0.07870334
0003c0 05 ab 7a 3d 41 c2 df 3d 89 1c 2b bd 9a e2 27 3d
       0.061198253 0.10925723 -0.04177526 0.04098759
0003d0 9e 06 b0 bd 81 56 de bc 25 ae 3a bd 83 de 9e bb
       -0.08595012 -0.027140858 -0.045576233 -0.004848303
0003e0 0a 42 a0 bd ae f2 3d bd 09 d9 41 be b5 3a 02 be
       -0.07825096 -0.046374016 -0.18930449 -0.12717707
0003f0 8d df e2 bd f5 1a 49 3d 3e b1 98 bd 0e 50 82 bd
       -0.11077795 0.049097974 -0.07455681 -0.063629255

fc2.bias f4 [95]
000000 b6 b6 04 3f 45 a7 c8 3e 3f be 2c be dd 5f c3 bd
       0.51841295 0.39190117 -0.16869448 -0.09539769
000010 36 e2 0c bd 81 9d f6 bb 42 24 fe bc 59 c8 b3 3e
       -0.03439542 -0.0075261 -0.031023148 0.3511379
000020 46 f3 bf bd af 3c 82 bd ea 64 b0 3e 61 9e c7 3e
       -0.093725726 -0.06359231 0.3445199 0.3898802
000030 c9 4c 30 be 0a ea d1 3d 89 42 50 3e ae 3d d0 3a
       -0.17216791 0.102497175 0.20337881 0.0015887523
000040 37 26 eb 3d 07 97 9e 3e c5 2a 02 3f 32 3a 2d bd
       0.11481898 0.309746 0.5084651 -0.042291827
000050 25 74 1e 3d 2d 99 d7 bd 55 96 b5 3d 4d 67 08 bd
       0.038684983 -0.10527263 0.08866564 -0.03330164
000060 72 7b ed 3e 32 63 9d bd c5 19 21 3e 63 34 7a 3e
       0.46383244 -0.07684936 0.15732487 0.24434046
000070 95 17 03 3d 93 c8 ab bd 68 79 e3 3e f2 29 83 3d
       0.03200491 -0.08387866 0.44428563 0.06404485
000080 36 c4 e2 bb 02 ff d2 3d f5 f2 84 3e 15 e4 66 3e
       -0.006920363 0.10302545 0.25966612 0.22547944
000090 a8 bd e4 ba 66 b8 3c 3f af ce a1 3e 43 8e 0b 3f
       -0.0017451541 0.7371887 0.31603 0.5451395
0000a0 12 25 fc 3c 49 5c 17 3e 14 37 55 3e be b3 22 3f
       0.030779395 0.14781298 0.20821792 0.63555515
0000b0 c7 ff e3 3d fe 63 1a 3e ed 42 0d 3e 30 5e 6f bb
       0.1113277 0.15077206 0.13795061 -0.0036524646
0000c0 5d c8 82 3e 02 b5 3a 3e b6 bf 35 3e d7 73 31 3e
       0.2554349 0.18233112 0.17748913 0.17329346
0000d0 79 3a 56 3e 6f e1 2c 3f e0 f6 e0 3d 61 38 ac 3e
       0.20920743 0.67531484 0.10984588 0.33636764
0000e0 d8 1c 15 3e 9c c7 25 3e ab 75 d7 bd 37 97 55 3d
       0.14561784 0.16189426 -0.1052049 0.052146163
0000f0 1e 8e d6 3a 0d 3c d7 3d 9d 85 10 bd e0 14 6c 3f
       0.0016369259 0.10509501 -0.035283674 0.9221935
000100 df 66 97 bd b1 50 d2 3e 75 26 36 3c b2 0f fa bd
       -0.07392668 0.41077188 0.011117567 -0.12210025
000110 38 a2 87 bd 36 9f 35 be 28 1f e4 bd 64 5a aa 3d
       -0.06622738 -0.17736515 -0.11138755 0.08318022
000120 79 b4 86 3c 51 e4 fb 3b 1f 76 28 3d 64 3d 45 3f
       0.016443478 0.0076871295 0.041128274 0.770468
000130 63 66 91 bd f8 05 23 3e 14 fd 80 bc ad 89 2b 3f
       -0.07099607 0.15920246 -0.015745677 0.6700695
000140 9e 4c af 3e 0e 30 bc 3e ae 78 6d 3e 57 53 43 3e
       0.34238142 0.36755413 0.23190567 0.1907476
000150 79 a1 f0 3e 32 d2 4a 3d ca 11 1d 3e 2d 35 35 3f
       0.46998194 0.049516864 0.15338817 0.70784265
000160 ed a7 d3 3e a3 df 51 3e 32 3e 2c 3f 6a 0f 82 3c
       0.41339055 0.20495467 0.672824 0.01587649
000170 98 d1 ff 3d f9 10 fe bd d8 ea 1a 3f
       0.12491149 -0.12405581 0.60514593

fc3.weight f4 [10, 95]
000000 dd d3 c6 3d 18 c1 75 be b8 0b 08 3e 13 85 b6 3c
       0.097083785 -0.2399944 0.1328572 0.022280252
000010 6d 01 a6 bc 3d 20 3f be 5a 4c f2 bc 80 3d 57 be
       -0.020264352 -0.18664642 -0.029577423 -0.21019554
000020 4a d9 b8 bd ae 29 04 3e 86 10 a8 bd fb 0e 08 3e
       -0.090258196 0.12906525 -0.082062766 0.13286965
000030 68 f8 66 bd ee f1 4d bd fa 42 87 be 16 24 6d 3e
       -0.056389242 -0.05027955 -0.26418287 0.23158297
000040 7e bb b5 bc 62 cb 6c 3e ec 08 5e 3d 2c 3b 82 be
       -0.02218413 0.2312446 0.054207727 -0.2543577
000050 dc cc b1 bc 2b cb a2 bd 5a 6c 92 3d 36 ec a8 3d
       -0.02170413 -0.079489075 0.07149573 0.08248179
000060 65 1e 80 3d 6f 29 15 3e 6a 16 e0 3d 64 7e bc 3d
       0.06255797 0.14566587 0.10941775 0.092037946
000070 61 b9 e6 3d 10 61 72 3e 26 4d 1b 3d fb bf 04 be
       0.11265827 0.23669839 0.03791537 -0.1296386
000080 52 7d e8 3d 73 8e d8 3d 51 73 1d 3e 50 92 30 bc
       0.11352028 0.10574045 0.15376021 -0.010777071
000090 4e 85 de bd e5 15 7a be 87 99 33 3e 63 65 6a 3d
       -0.108652696 -0.24422415 0.17539035 0.057225596
0000a0 bc c8 0f be 6f df 62 be 6e 93 47 3e 8e 72 e5 3d
       -0.14041418 -0.22155546 0.19489834 0.1120349
0000b0 8b aa 01 3e b7 81 03 3a bf 83 45 be 22 70 69 3e
       0.12662713 0.00050165824 -0.19288538 0.22796682
0000c0 36 cd 6e 3e 33 67 8e 3d 93 88 34 3e 32 d5 07 be
       0.2332047 0.069532774 0.17630224 -0.13264921
0000d0 59 df 04 be 9d 6c 97 be 32 30 4e 3e b5 6f ad 3d
       -0.12975825 -0.29575053 0.20135573 0.08468572
0000e0 ae fb cb 3d e1 31 f5 bd f6 02 3a 3e 17 c4 2c 3e
       0.099601135 -0.11972404 0.18165192 0.16871677
0000f0 ac 43 04 3e 59 c7 2e be 20 bb 76 be 26 8b a4 be
       0.1291644 -0.17068233 -0.2409482 -0.32137412
000100 9e b0 4e 3d c3 29 f2 bc e0 db ba bd 55 28 2a 3e
       0.050461404 -0.02956093 -0.09123969 0.16616948
000110 33 fe ea bd df 42 da 3d df c1 12 3e 1d 61 7e 3e
       -0.11474266 0.10657286 0.14331768 0.24841733
000120 55 48 69 3e 62 f4 49 be 8f 00 31 3e 9a 69 d5 be
       0.22781499 -0.19722131 0.1728537 -0.4168213
000130 cc 07 75 bd 89 d6 05 3e b6 b4 ee 3d 7a 3d 3c be
       -0.05982189 0.1307012 0.116555616 -0.18382826
000140 34 0e 8e 3e 26 52 98 bd 36 b4 d4 bd 48 46 3b 3e
       0.2774521 -0.074375436 -0.10385935 0.18288529
000150 e7 55 d8 3d f2 76 2b 3e 7a df 2f 3e 7c 4f 88 be
       0.105632596 0.16744593 0.17175093 -0.26623142
000160 6f 4a b4 bd 74 d2 87 be b8 f1 19 be 8e ca 39 bc
       -0.088032596 -0.2652775 -0.15033615 -0.011339797
000170 6e 79 57 3d cb f2 81 3d 69 2d 05 bd bf 0f 88 be
       0.05260604 0.06345137 -0.03251401 -0.26574513
000180 24 28 53 bd 05 6b 09 3e 65 53 ed bd 56 14 c5 bb
       -0.051551953 0.13419731 -0.11588172 -0.006014387
000190 ad 31 34 3e 7c b8 44 be 08 af 72 be 19 2b 96 bc
       0.17597075 -0.19211 -0.23699582 -0.018331097
0001a0 ac 40 25 3c 20 d6 a3 bd 7b 35 3e 3c d3 2e 7d 3e
       0.01008622 -0.079998255 0.01160943 0.24724893
0001b0 63 a3 10 bc f1 11 bd bd e6 84 0e be 73 a7 f4 3d
       -0.008828017 -0.09231938 -0.13917884 0.11946001
0001c0 cd 7f 96 bd 38 67 98 be 44 60 8b bc ba 25 04 3e
       -0.07348595 -0.2976625 -0.017013676 0.12905017
0001d0 68 d2 83 3d f5 e2 06 bc ef 15 aa 3d 75 80 aa 3c
       0.06436616 -0.008232822 0.08304965 0.020813206
0001e0 f4 99 e7 bc 4f d0 90 bd 44 59 5f bc 5e ad 00 bd
       -0.028271653 -0.07070982 -0.013632122 -0.031415336
0001f0 4c c2 09 be 1b 84 eb bd ad 46 e6 bc fa f0 fa 3d
       -0.13453025 -0.114998065 -0.028109873 0.12252994
000200 a5 cc ca bb a8 d6 fc bc 62 14 df 3d 13 b7 04 3e
       -0.0061889463 -0.030864075 0.108925596 0.12960462
000210 40 74 b8 be 6f df 44 3e d7 95 0c be ec 4d 01 3e
       -0.36026192 0.19225858 -0.13729034 0.12627381
000220 c1 fd 92 be d1 bd e2 bd 52 c2 94 be a0 6b b1 bd
       -0.28709224 -0.11071361 -0.29054505 -0.08663106
000230 f6 f4 46 3e f9 86 6f bb af e0 78 bd c7 aa 8a be
       0.19429383 -0.0036548956 -0.06076115 -0.27083418
000240 52 98 04 3e a9 d7 e7 bc b8 b3 3b 3d 9e f6 32 3d
       0.1294873 -0.028301077 0.04582569 0.043692224
000250 e7 07 92 be d7 4c 7b 3e 11 cd 8e be 05 49 40 bd
       -0.28521654 0.24541031 -0.27890828 -0.046944637
000260 fb 89 fd 3d ea 15 9f bd 46 24 c6 3d dc c7 4e 3e
       0.12379833 -0.07767852 0.09674887 0.20193428
000270 2f 0d 86 3e 93 74 65 3e 5c 4c ab be b6 f1 f2 3c
       0.26181933 0.22407751 -0.33456695 0.029656272
000280 db 33 09 be 0a 67 0f bb eb a1 93 3e 9a b4 1c bc
       -0.13398688 -0.0021881484 0.2883447 -0.009564543
000290 82 f1 0d 3e a0 48 c7 3d 2f 0e 7c 3e 81 b3 2e bd
       0.13861659 0.09730649 0.24614786 -0.042651657
0002a0 e0 95 97 3e 3d 23 7d be 54 e1 0f be 71 c9 b1 bd
       0.29606533 -0.24720474 -0.140508 -0.08681
0002b0 29 7c 63 3e 91 fb 10 3e dc 2b 8d 3d 76 bc b1 3e
       0.22215332 0.14158465 0.06893131 0.34714097
0002c0 63 01 a2 3d a7 ca 18 bd 54 c1 fd bd 79 a2 c3 3d
       0.07910421 -0.03730264 -0.1239039 0.095524736
0002d0 01 ef f7 3d ed 7b 12 3d ec ee 5b bc be a9 7f be
       0.12106133 0.035762716 -0.013423663 -0.24967095
0002e0 42 9e 89 3e 44 97 1d be 16 8d c4 bc 49 37 13 3c
       0.26878554 -0.15389735 -0.023993056 0.008985349
0002f0 11 17 c5 3e c5 71 87 be fc 14 30 3e e0 c5 b1 bd
       0.3849416 -0.26453987 0.17195505 -0.0868032
000300 0d 02 a1 3b b1 8b f4 3d 45 81 b8 bc f7 b7 e8 bc
       0.0049135746 0.119407065 -0.022522578 -0.028408034
000310 1c 9e 86 3e 8b ac e7 3c d1 97 1e be a0 b9 d5 bd
       0.26292503 0.028280517 -0.15487601 -0.10435796
000320 80 04 b8 3d 43 08 c3 3c 28 f2 06 3c f0 bc c2 3d
       0.08985233 0.02380765 0.0082364455 0.09508693
000330 46 f4 6f 3e 75 43 8d 3e c3 24 27 3e 72 9f f7 3d
       0.23433027 0.27590528 0.16322617 0.12090959
000340 a1 78 5c 3e 83 92 bf 3d 42 85 2e 3e 70 5e d7 3d
       0.21530391 0.09354117 0.17043021 0.105160594
000350 d6 23 a6 bd e4 ef bf bb 45 86 cb 3d 64 a8 71 be
       -0.08112304 -0.0058574546 0.09937719 -0.23599392
000360 62 50 1b be ff 34 0b bd 0c 7a af bc 7d bb 2a 3e
       -0.15167382 -0.033986088 -0.021420501 0.16673084
000370 32 18 bd bd 9a 2b 7d 3d e5 69 88 bd a9 96 58 3e
       -0.092331305 0.06180916 -0.06660823 0.21151222
000380 72 4f 84 bd a1 8b e3 bd 7c 6b 33 3e 6a a1 d3 3d
       -0.064604655 -0.111106165 0.17521471 0.10333522
000390 26 19 f3 bd 8d 4e 8e 3d 7c cb 66 3d ab 6a 27 3e
       -0.11870031 0.06948576 0.0563464 0.16349284
0003a0 e0 da 1c 3e 00 64 69 3e b1 fd 0c 3e d9 5a 45 be
       0.15317869 0.22792053 0.1376865 -0.19272937
0003b0 ef d0 a0 3e 3e 29 13 be b0 81 66 3e 73 92 95 3d
       0.31409404 -0.14371201 0.2251041 0.073033236
0003c0 ec 36 b7 3d 3f 73 a9 bd 43 07 62 3d 85 c6 f6 3d
       0.089460224 -0.082739346 0.055182707 0.12049583
0003d0 1d 2a a5 bd 57 6c 66 be de 7a c8 bd 7b c3 22 be
       -0.08064673 -0.22502266 -0.0978906 -0.15894882
0003e0 4c 5e 67 3d ec 09 ec bd b2 3f 9a 3d ca 4a e2 bc
       0.056486413 -0.1152533 0.0753168 -0.027623553
0003f0 ff e7 58 3e 33 c8 5a 3e e0 3f 88 bd 55 ab 9b bd
       0.2118225 0.21365432 -0.06652808 -0.07601038

fc3.bias f4 [10]
000000 ab 06 74 be 6e 2e 69 bf ad 1b c1 be 95 35 25 3f
       -0.23830669 -0.9108647 -0.37716427 0.64534885
000010 7c 3d 3b 3f b7 eb 1c 3e 5a 69 7d 3e 07 b7 95 be
       0.7314069 0.15324293 0.2474722 -0.292412
000020 da 89 80 3e ae 33 14 be
       0.25105172 -0.14472839
