HW5/more filters/cifar_net.pth (torch, 362503 bytes, 10 tensors)

conv1.weight f4 [10, 3, 5, 5]
00000000: fae0 5e3e 3479 5cbe 1886 de3b 8d0c 163e
00000010: 3cfa 623d ce5f b23e 9051 31bd b7fe a23e
00000020: 2655 b33e dc0d 7a3d bc68 3c3e 5efd 43be
00000030: f665 d1bc a724 273e e3b1 c4bd 35fc 183c
00000040: e08c c0be 25a3 68be c8c1 43be 1057 9ebe
00000050: f71f abbd 4759 bfbd e2ed 023d de60 3cbc
00000060: b302 b9bd e376 983c 0856 3ebe b2db 0bbe
00000070: c5f8 f73d e710 30bd 926f 193e 874f 15bd
00000080: 09fe 3d3e 92ef 813e adb4 41bd 4dc3 8a3d
00000090: 00bb ddbc 1d3c 0fbc 30e6 0a3e 2c45 fcbd
000000a0: 8191 23bd dfeb bbbe 01f3 8cbe f43b 69bd
000000b0: 5800 89be 44ca 803d a341 603c ad85 c33c
000000c0: fbb7 643e e3f7 e9bd a7ec 8b3b 0911 a6be
000000d0: 9469 eabc 0937 a6bc 0619 3fbe e1b2 903d
000000e0: 3d08 843b 764d c93c 8e46 2c3e 3214 4bbd
000000f0: 3e5e 103e 66a7 0dbd a154 733d 210b 3a3e
00000100: 5a65 84bd f1dc a73d 9706 48be 8b0c e83c
00000110: 9492 193e e8f1 dfbd 6aae a23d 73b6 87bc
00000120: 7da0 523e 37a0 a23e d2af 943d 284b 37bc
00000130: d2f0 c4bd b1a9 28be b737 0ebe 7c21 03be
00000140: cbf8 5ebe d86c b7be e009 98be f64f b8be
00000150: 42bd 55be 99ee 66bd a586 a6be 05f2 c2be
00000160: b876 20be 8202 23be 5a2c f43b d2b3 8d3e
00000170: 9c60 ba3e 3d43 a13e 21f3 453e 157d 303e
00000180: 8dab 703e 3449 a03e 5007 8f3e 9bd2 693e
00000190: 5089 093e f172 603d 125d 603d b9f7 af3d
000001a0: 6b5a fe3d 2ad3 98bb 022d 39be 46f0 b3be
000001b0: cb01 82be 0c6c 01be c112 62be ee2b 08be
000001c0: c72e 47be e1ae 5abe 7b7b 90bd 2b5e 26bd
000001d0: e1c4 553e 6b79 a53e c5a2 883e df9d 993d
000001e0: 5216 0b3e 872f 4f3e 56ea 813d 9cf5 1a3e
000001f0: 05e4 643d 5d9b 343e cd46 903e 4d04 d4bb
00000200: 3041 433e 7810 623d ff4c 4abd 30d3 0abe
00000210: ba62 e7bd 3176 72bd a4ed 1abd b416 c6bd
00000220: 5995 34be 7ffe 40be 09d3 00be 641e 0a3e
00000230: 836a b1bc 3b5a fb3d daed 983e 51d2 1d3e
00000240: de99 87ba d237 1a3d 670e a03d a756 583d
00000250: 104f 81bd caf4 cfbd 7f4f 233d 761e c73d
00000260: cfc9 29bd 39e1 f8bd 849d 923e c260 38be
00000270: da16 d3bd f84c 9e3e 9e1b 74bc 01db 25bd
00000280: 8390 e1be 6976 63bd c776 2f3f 45d5 41be
00000290: b118 07be e3b6 a1be fdf3 7c3e 5b8a aa3e
000002a0: 8f14 e0be 9416 083e 70f5 2bbd 529e bd3c
000002b0: 673f 0abd 2e9c 64be 6f57 8b3e c965 693c
000002c0: 2e2f b8bb 0be3 1abe 93d5 8fbd 3ebf 493d
000002d0: 94ba 0abe 51a0 18be 99ce 7b3e 23a9 6cbe
000002e0: 725c fe39 2015 bdbe f095 2c3e 9615 2a3f
000002f0: 78d1 91be 127e 5bbe a3c2 77be 6b1f 533e
00000300: 2e70 e43e fecc d2be e5fa 11bd 12f1 56bd
00000310: cf51 473e 8c73 9e3d 16e5 90be bb4a 8a3e
00000320: f565 fcbd 9387 c6bd 899a e7bd 6ebf 47be
00000330: 1c8b aa3d 5a0c 063d 7d2f 83bc 1d83 6f3e
00000340: 2ba3 a6bd 4245 e33d d269 aebe 168f 753c
00000350: 25df ec3e dbd7 9ebe 1b43 b8bd 4145 1fbe
00000360: fbfb 843c a3ce d33e 24c8 b2be 1320 063e
00000370: 9938 3fbd 5132 133e 504d 283d a98b bbbe
00000380: 1b88 723e 0941 2ebc 3e2d e53c 9fc6 11be
00000390: 58e4 cdbd 7e75 babd a45c 17be e3a2 6fbe
000003a0: 165b 48bc bb6e 803e d208 eebd 9500 063b
000003b0: c74d a7bb 8fb7 46be c70c 90be 70bb 3abe
000003c0: 2fc1 2e3e d7f6 4fbd fe0d 54bd ee22 73bd
000003d0: c364 20be 7a96 ffbd a5ab 4fbe 674d 08be
000003e0: d665 f43c 05d6 25bd 6b9e b13d 7f2e 0a3e
000003f0: e1b5 bc3c a5f9 0b3e 2b4c 7dbd 3833 853a
0.21765509 -0.2153061 0.0067908876 0.14653225 0.055414423 0.34838718 -0.043290675 0.31834957
0.350259 0.061048374 0.18399328 -0.1913962 -0.025561314 0.16322576 -0.09604242 0.009337475
-0.3760748 -0.22718485 -0.1911689 -0.30925798 -0.08355706 -0.093432 0.031965144 -0.011497704
-0.09033718 0.018611377 -0.18587506 -0.13658026 0.12107996 -0.04298487 0.14983967 -0.036452796
0.18553938 0.2537809 -0.047291446 0.06775532 -0.027066708 -0.0087423595 0.13564372 -0.12317881
-0.039933685 -0.36703393 -0.27529147 -0.05694194 -0.26758075 0.06288579 0.013687524 0.023867453
0.22335808 -0.11424234 0.0042701545 -0.32434872 -0.028614797 -0.020289915 -0.1866189 0.070653684
0.0040293024 0.024573069 0.1682379 -0.049579807 0.1409845 -0.03458347 0.05940688 0.18168308
-0.06464644 0.08196438 -0.19533764 0.028326293 0.14997321 -0.10934812 0.07943423 -0.01656649
0.20569034 0.3176286 0.072600976 -0.011187352 -0.09616245 -0.16470982 -0.13888441 -0.12805742
-0.21774594 -0.3582523 -0.29695034 -0.35998505 -0.20872977 -0.05637989 -0.325246 -0.3807527
-0.15670288 -0.15918925 0.007451576 0.27676255 0.36401832 0.3149661 0.19331028 0.17235215
0.23502941 0.3130585 0.27935266 0.22834246 0.13431287 0.054797117 0.05477626 0.08592171
0.124195896 -0.0046638446 -0.18083575 -0.35144252 -0.25391993 -0.12638873 -0.22077467 -0.13298008
-0.19451438 -0.21355774 -0.07054802 -0.04061715 0.20875885 0.32319197 0.26686683 0.07500815
0.13582733 0.20232974 0.06343524 0.15132755 0.05588152 0.17637391 0.28179017 -0.0064702393
0.19067836 0.055191487 -0.049389835 -0.13557124 -0.112981275 -0.059194747 -0.037824288 -0.09672299
-0.17635097 -0.18847083 -0.12580504 0.13488156 -0.021657234 0.122730695 0.29868966 0.1541226
-0.0010345539 0.03765089 0.07815247 0.052817013 -0.06313908 -0.10154112 0.039870735 0.09722607
-0.041452225 -0.12152333 0.286358 -0.1800566 -0.10307093 0.30918097 -0.014899163 -0.04049206
-0.44055566 -0.055532847 0.68540615 -0.18929012 -0.13193013 -0.31584844 0.24702449 0.33308682
-0.43765685 0.13289863 -0.041982114 0.023146782 -0.03375187 -0.22325203 0.27215144 0.014245459
-0.0056208586 -0.15125673 -0.07023158 0.04925465 -0.13547736 -0.14904906 0.2459053 -0.23111396
0.00048515532 -0.3693018 0.16854072 0.6643919 -0.28480124 -0.21434811 -0.24195342 0.20617454
0.44616836 -0.41172022 -0.035639662 -0.052475996 0.19464801 0.077368826 -0.2829978 0.2701014
-0.12324134 -0.096938275 -0.11308772 -0.19506618 0.08327314 0.032726623 -0.016013855 0.2338986
-0.081365906 0.11097194 -0.3406511 0.014987728 0.46263996 -0.3102406 -0.08997174 -0.15553762
0.016233435 0.4136859 -0.3491832 0.13098173 -0.046684835 0.14374663 0.041089356 -0.3662999
0.23684733 -0.010635623 0.027975675 -0.14235924 -0.10053319 -0.09104441 -0.14781433 -0.2340198
-0.012228748 0.2508448 -0.11622776 0.0020447124 -0.0051057073 -0.1940596 -0.28134748 -0.18235564
0.17065881 -0.050772514 -0.051771156 -0.059359483 -0.15663438 -0.12479873 -0.20280321 -0.13310777
0.029833715 -0.040487308 0.08672794 0.134943 0.023035945 0.1366945 -0.061840218 0.0010162359

conv1.bias f4 [10]
00000000: bae8 5ebe 8e44 b1be 6762 7dbe db9b e5bd
00000010: 68df 54be f51d 863e ed5f fcbe 88d9 39bf
00000020: f7d1 0abe ab9c f6be
-0.21768466 -0.34622616 -0.24744569 -0.11211368 -0.20788348 0.2619473 -0.49291936 -0.7259755
-0.13556658 -0.48166403

conv2.weight f4 [24, 10, 5, 5]
00000000: b22c 99bd d3a2 3fbd de7c 053c b3a9 e2bc
00000010: 02bd 23bd d286 cbbb 1d1c 9bbc 2b94 c8bc
00000020: 15c5 7fbc a769 01bd dd21 d3bd 00db 7ebd
00000030: 7d7a 3ebc c18f 103c 4db6 cd3c 7652 50bd
00000040: 0cdb 3ebc eee4 843d 13c7 24bd ac81 89bc
00000050: 4678 bc3c 99e3 bc3b 5812 21bc 08fd 97bd
00000060: b65a b43c a2f6 a23d 2bba 043c bdb0 a2bd
00000070: 364a 573c 3bd6 623c 249f a43d f9d8 be3c
00000080: b8cb 99bd 4701 e4bc b2bd 99bc 27f4 e43c
00000090: 9141 dd3c 7e84 91bd b91c 42bd 8792 91bd
000000a0: 840b f23d bbf6 8e3c fa92 f63a dfa6 c23a
000000b0: 4383 94bd dc17 33bc f5c6 2abd 17e7 3cbd
000000c0: 9096 cdbc 2881 31bd e14e a2bd 34bd 0abd
000000d0: 7cf8 4f3d 91e5 b9bd 8b70 bcbd 0e9b 4bbd
000000e0: bc4a 82bd 553d 80bd df81 c9bd 39e8 80bd
000000f0: 6b99 b3bd b034 bfbd 3eb1 f5bd 5998 b3bd
00000100: 44bb 04be faf2 d9bd 08f9 34be b5e6 18be
00000110: 7dc0 18be 8497 0cbe d3bb 0fbe 1527 51be
00000120: 36ee 09be fa95 0abe f181 9dbd ff37 e6bd
00000130: 15af 53bd 7ec4 f1bc 5915 a8bd 0bde ff3c
00000140: 1944 51bd 9c64 e4bc 55d1 46bd 7b18 6dbd
00000150: 50e0 3fbb 1f8e 97bd cf39 c1ba 39eb c6bb
00000160: 37c1 f5bc bb35 3abc 6ba6 03bd a582 6dbd
00000170: 66bf a9bc 5737 08bd 7ff9 0cbd 67a6 67bd
00000180: 72a0 d8ba b961 46bd 14e5 2d3d 38c6 553d
00000190: bce0 c83d 6b1a b83d ba73 463d bf6e 063e
000001a0: 139a e63d db84 f93d 0ff9 e7bb 8e45 a73d
000001b0: 8e21 e53d 5f39 fc3d 62d7 5c3d 667d bd3c
000001c0: 16d4 f43d 08aa 523d 53aa 223e 3977 81bd
000001d0: 362d b63d 1891 c03d 278e cd3d 6eed 5b3e
000001e0: bd54 19bc 5a42 3b3e a38c 3d3e e4e1 c83d
000001f0: 1f3f d03d 42b6 14be f7f1 bcbd 094d 7fbc
00000200: eabe 71bd b531 1c3e 26ee febd 8422 15be
00000210: 35ea f2bd d402 193d 11ae dd3d c9f2 86bc
00000220: b97f c0bd f5ec 7bbc 695f 72bd 4c83 d33d
00000230: 63b7 323d 4a63 4cbd e887 ce3b 9a4b 6abd
00000240: a251 fd3c 62bf d63c 87a1 bc3c ff58 83bd
00000250: dbdd 233d 6ffc 013e bc77 bdbd 577b 82bc
00000260: 6e30 bbbd 7c8b 5fbd 97d7 6a3d 47c5 cdbd
00000270: 06e3 39bd bbfc 34bd b959 b0bd ed01 4fbc
00000280: ec88 f5bd 0c18 1fbe d4cc 9ebd cf5d 4ebd
00000290: a0bc 143d b15f 00be 275c 26be 2b9f e2bd
000002a0: bcff c2bd c63b 373c 8353 3abe c93d 94bd
000002b0: 804c d5bd c260 023c 9d18 6a3d e559 753d
000002c0: cd77 303d dd4c c5bd da3a 9dbd 6ba1 e93c
000002d0: 71d3 86bd 3955 3fbd 6b8c 7b3c 8f2d 89bd
000002e0: 8af5 82bc 7bd0 7ebb e599 8c3b dbbc c83b
000002f0: ddfd 10bd 3819 2d3c c1ee 1bbd 472e f3bc
00000300: 534d 52bd a0d1 fbba 739b c6bd bc29 d4ba
00000310: 00aa 06bd bca5 a938 8c8c 79bb a4a3 ec3b
00000320: e460 f33d 65e5 f9bc 3c50 963d 96b3 a83d
00000330: a612 ed3d dcca c6b9 f3b0 9ebb 4ad8 be3d
00000340: 75c9 813d 529d bc3b eaeb 883d 7d09 9b3d
00000350: b1a2 133d b7d8 6b3b c4be d23d a288 743d
00000360: b39f 9a3d 3c67 433d b492 acbd b54d 0a3d
00000370: 7e52 1c3d 397d 2ebd 3534 4d3b 1262 48bd
00000380: f49a b7b9 c3d5 c8bc 2149 5f3c f2ec d8bd
00000390: 7458 0d3d b779 bb3d a748 3ebd 4cfd ccbd
000003a0: aad5 82bd 0f08 34bd c912 14bd 14a5 8d3b
000003b0: ce1c 8dbc 05e2 31bc 30d5 9c3d 7531 ef3c
000003c0: d9a0 d03d 6622 4a3c 53fe 383d 6064 bd3c
000003d0: 5453 9b3d c7c8 cb3d cec6 e73d 9d18 33bd
000003e0: 1ac8 64bd 7962 da3a 4282 bbbd b834 77bc
000003f0: 61ee 94bd db1e 0dbc 9013 2cbd 56ac 613c
-0.07479228 -0.04678614 0.008147446 -0.02766881 -0.039975174 -0.00621114 -0.018934304 -0.024484714
-0.015610953 -0.0315949 -0.10309193 -0.062220573 -0.011625883 0.008823336 0.025111342 -0.05085989
-0.0116489045 0.064889774 -0.040228914 -0.016785465 0.02300657 0.0057644364 -0.009831034 -0.07421309
0.02201591 0.07957198 0.0081010265 -0.079438664 0.013140252 0.013845022 0.08038166 0.02329682
-0.075095594 -0.02783264 -0.018767212 0.027948452 0.027008804 -0.07105349 -0.047390673 -0.07108026
0.11818603 0.017451635 0.0018812113 0.0014850757 -0.07251599 -0.0109309815 -0.041693646 -0.046118822
-0.025096208 -0.043336064 -0.07925201 -0.033871844 0.050774083 -0.090769894 -0.09201153 -0.04970842
-0.06361911 -0.06261698 -0.09839224 -0.06294293 -0.087694965 -0.09336221 -0.11996697 -0.087692924
-0.12962061 -0.10642047 -0.17673123 -0.14931758 -0.14917178 -0.13729674 -0.14036493 -0.20425065
-0.13469777 -0.13533774 -0.076908 -0.11241149 -0.051680643 -0.02951264 -0.08207197 0.031233808
-0.051090334 -0.027880006 -0.04853948 -0.057884675 -0.0029277988 -0.07400154 -0.001474196 -0.006070521
-0.029999359 -0.011365349 -0.03214113 -0.05798592 -0.020721149 -0.0332559 -0.034417626 -0.056555178
-0.0016527309 -0.04843304 0.042454794 0.05219099 0.0980849 0.08989414 0.04845021 0.13128184
0.11259856 0.12183543 -0.0070792506 0.081675634 0.11188041 0.1231563 0.053916343 0.023131084
0.11954515 0.051431686 0.15885286 -0.06321568 0.08895342 0.094026744 0.10036879 0.21477291
-0.009358582 0.1828703 0.1851068 0.0980871 0.101682894 -0.14522651 -0.09225839 -0.015582331
-0.05901996 0.15253337 -0.12447767 -0.14563948 -0.11861078 0.037356213 0.10824216 -0.01647319
-0.09399361 -0.015376319 -0.05917302 0.10327777 0.043631922 -0.049899377 0.0063028224 -0.057201006
0.030922715 0.026214305 0.023026241 -0.06413459 0.0400065 0.12693952 -0.09251353 -0.015927954
-0.091400966 -0.054576382 0.05733451 -0.10047393 -0.045382522 -0.044186335 -0.08610863 -0.0126347365
-0.119890064 -0.15536517 -0.077539116 -0.05038243 0.0363127 -0.12536503 -0.16246091 -0.11065515
-0.09521434 0.011183685 -0.1819592 -0.07238347 -0.10414982 0.007957639 0.05715238 0.059900183
0.043083 -0.09633801 -0.07677241 0.028519353 -0.06583298 -0.046712134 0.0153533025 -0.06698143
-0.015986223 -0.0038881588 0.0042908066 0.006126029 -0.035398353 0.010565095 -0.03806949 -0.029685153
-0.051343273 -0.0019212253 -0.09697618 -0.0016186754 -0.03287697 8.0894184e-05 -0.0038078157 0.007221656
0.11883715 -0.030504892 0.07339522 0.08237378 0.115758225 -0.00037916645 -0.0048428713 0.093185976
0.06337253 0.0057560587 0.06685622 0.07570169 0.036043826 0.0035987326 0.10290292 0.059700616
0.075499915 0.047705874 -0.08426419 0.033765513 0.03816461 -0.04259989 0.0031311635 -0.048921652
-0.0003501993 -0.024515992 0.013628275 -0.10592069 0.034508184 0.09154075 -0.046456005 -0.1000925
-0.063884094 -0.043952998 -0.036150727 0.0043226574 -0.01722565 -0.01085711 0.0765785 0.029198388
0.10186929 0.012337303 0.045164417 0.023119152 0.07584253 0.099504046 0.11317216 -0.043724645
-0.055854894 0.0016661427 -0.09155704 -0.015088253 -0.0727203 -0.008613314 -0.042010844 0.013773998

conv2.bias f4 [24]
00000000: b318 0cbd ba15 093f 28a5 95be 928d 81be
00000010: 3d06 833e 0c27 ad3d 9057 8dbd 93cd 7ebe
00000020: e9d8 66bd 08f1 643e 321d 163f c5d1 3cbd
00000030: e702 da3d 7c19 fa3e a7cb 513e 7445 0d3f
00000040: d9ba 673e 1e1d 46be 15c2 043d d2a2 ab3e
00000050: 2205 f1be 5822 0f3e 4a6b c9be 92c6 66be
-0.034203243 0.5354878 -0.29227567 -0.25303322 0.25590697 0.08454713 -0.06901467 -0.24883108
-0.056359205 0.22357571 0.586383 -0.04609849 0.10645085 0.48847568 0.20487843 0.551841
0.2262987 -0.19347045 0.032411654 0.3352266 -0.4707423 0.13977945 -0.39339668 -0.22536686

fc1.weight f4 [120, 600]
00000000: b0af c93d 39a0 233d 9ea0 943d c293 363d
00000010: 1e9e f73c bfaf 183d 214b ec3a 35c9 a7bc
00000020: b12c 833c 6963 873b cfe7 55bd f4b4 ba3c
00000030: dfa3 a53b 9178 82bd 8d29 2dbc bc71 a4ba
00000040: 28a2 463d 5253 3ebc 4980 5bbd d745 59bc
00000050: d417 2dba 12b5 a0bc d9dc bf3c 81be 5a3d
00000060: 1499 78bc 4567 0bbd 5a65 2dbc 5233 b43b
00000070: 0fcd b6bd 9327 123d ab88 ef3c 6a1e e13c
00000080: f9aa d83c bc1f abbd d7bc b03c b265 7e3c
00000090: 6665 a03d 3379 193d 6577 9f3c e2d2 d9bb
000000a0: ca48 123c 255c 913d 77e2 b63c 743f ae3c
000000b0: 2861 823d 1866 313c 4658 253d 6e7e eb3c
000000c0: c308 bc3c 66f9 ce3c 222f f73d 6002 a13d
000000d0: 9c00 033d 112f d8b9 d1b5 d1bc f817 793d
000000e0: 545e 853c 79c0 afbd cc83 60bd ccba 2b3d
000000f0: 6b29 993d af7b 9fbc 47bc 23bc 6461 0dbd
00000100: dc4a b83d c13a 4b3b 3948 b0bb 95e9 4ebd
00000110: a390 6ebd 6fc7 1a3d 5a7e cf3a d7fc 80bd
00000120: 87c8 233b 5f71 debb 45f4 693d 415b 8839
00000130: 1caa c23d 51cc d03d 4b01 3bbb 9c3f 4dbd
00000140: c59f ac3c a5a1 863c 8eeb 633d 67c3 ac3d
00000150: 790f 4fbc 54c1 633d 09b7 7d3c c59a 153d
00000160: 29c7 273d eef9 a9bc b7ab 283a 08ae 0cbb
00000170: bcc1 0b3d 7411 123d 226d e4bb bdaf 9f3d
00000180: 7ccc 5b3d 6bbd ee3c 99c4 4e3d 5565 d73d
00000190: 75f6 373d 2339 88bb ebae 1a3d f310 763b
000001a0: c282 143d 652f 80bd be27 84bd 6aa6 12bd
000001b0: b80d 9abc e3d6 8c3c bc39 d4bb 7367 b2bd
000001c0: ec6b 9bbd dec2 8b3c 9f65 22bd e1ef e43c
000001d0: db6f 75bc 666b bf3c e5e0 6c3d 1016 7c3d
000001e0: ff38 8b3c e342 1f3b 1ec7 8f3d b3ad 493d
000001f0: 2fad 9a3d afc0 0cbe b637 b1bd db1d e03c
00000200: 8ca9 85bd 0abe 1dbe 26b6 7dbd ac24 a93c
00000210: ffc1 df3d cce0 583d 8b2d 6ebd 187f 99bd
00000220: ec1e 3d3d 640c 613d e9d9 df3b 9d1d bbbd
00000230: 9d43 1abd 47c5 99bc 2c41 203c 2ce2 623d
00000240: b3df efbc 67b6 f5bc 3658 703d 4cc0 073d
00000250: 2411 573d 44fd a33c 8f3e 8f3b 30ac 88bc
00000260: 688b ccbd 208e 6bbd fa5c 3bbd c2b4 54bd
00000270: 6a94 5ebd cee5 fdbc dc9e 98bd d26b e1bb
00000280: b90b d7b9 a84f 1abd 4b65 36bd bc8a 76bd
00000290: 9bae f5bc e738 c8ba 7ce9 143d ae60 153c
000002a0: 301f 27bc 9627 1e3d 3e85 53bd 7ef1 86bb
000002b0: 984b ee3c 9277 b83d f3d7 9a3d 439d 123d
000002c0: 7d2f 293d df52 d83c 19cd 7a3d 2e6c 193d
000002d0: 2385 853c 85e4 16bd 7f94 a43c eaa2 263d
000002e0: 9b36 40bb 8dd0 4c3d dc59 46bc d1b0 873c
000002f0: f971 cabb 2f0a 6abd 1f29 d1bb 429e 13bc
00000300: a0d7 2cbb a115 6dbd be10 54bd ca94 25bc
00000310: 22b0 72bc 00bd 8ebd 8f99 9bbd c54d 3bbd
00000320: 96ef 19bd 8881 053d bfcd 723d bef1 cc3d
00000330: 2736 e43c 13a2 3bbd 73ee 40bd aae1 953c
00000340: 28f8 ed3c 9ef1 3cbd b972 f9bc 604a 5b3c
00000350: 4103 413d 2b92 16bd d6f1 403c 2abd 69bd
00000360: 12cd 023c 7a02 3c3d 461b 69bc 42ac 05bd
00000370: f075 d13d 88df 433c e666 0e3d 8b79 51bc
00000380: d53a 4eba 5ca3 753d 3f78 5d3d 7c97 513d
00000390: af43 a93d eccd 9b3d 89d6 823b 0638 abbc
000003a0: 54eb 25bb ac10 54bc a650 793d f054 943c
000003b0: aea6 88bc d8fd 103c 91eb 1b3c 1c65 cb3c
000003c0: 617e a33c 4269 ab3c 6baf 2bbd f9f9 57bd
000003d0: 8b40 e33c 0d71 943a 4263 3abd ffd8 283c
000003e0: 6e10 6fbd dee2 af3d 251a f3bc 5024 efbc
000003f0: e4a8 56bd 8506 28bd e54a 01bd 5829 86bc
0.09847963 0.039947722 0.07257198 0.044574507 0.030226763 0.03727698 0.0018027761 -0.020481685
0.016012521 0.0041317237 -0.052223023 0.022791363 0.0050549353 -0.063706525 -0.0105689885 -0.0012546103
0.048494488 -0.011616545 -0.05358914 -0.01326128 -0.0006602977 -0.019617591 0.023420738 0.053404335
-0.015173215 -0.034034032 -0.010583246 0.005499282 -0.089258306 0.035682272 0.029239973 0.027480323
0.026448714 -0.08355662 0.02157442 0.015527176 0.0783184 0.0374691 0.019466111 -0.0066474536
0.008928487 0.07097653 0.022324784 0.021270491 0.06366187 0.010827564 0.040367387 0.02874681
0.022953397 0.025265407 0.12069537 0.07861781 0.031983003 -0.00041233798 -0.025599392 0.060813874
0.01628033 -0.08581633 -0.05481319 0.04192619 0.07478603 -0.019468157 -0.009993619 -0.034516707
0.08998653 0.0031010362 -0.0053797034 -0.05051573 -0.058243405 0.03778785 0.0015830502 -0.062982254
0.002499135 -0.006788417 0.05711772 0.0002600793 0.09505102 0.1019522 -0.0028534706 -0.05010949
0.021072278 0.0164345 0.055644564 0.084357075 -0.012637966 0.055604294 0.0154855335 0.036524553
0.04096142 -0.020749059 0.0006434279 -0.0021466035 0.034120306 0.035661176 -0.0069710175 0.07797191
0.05366181 0.029143056 0.05048046 0.105173744 0.044912774 -0.004157202 0.03776447 0.0037546724
0.036257513 -0.0625904 -0.06452893 -0.035803236 -0.01880537 0.01719231 -0.006476609 -0.087111376
-0.07588944 0.017060693 -0.039647695 0.027946414 -0.014980282 0.023366641 0.057831664 0.061544478
0.016994951 0.0024301342 0.070204005 0.049237918 0.075525634 -0.13745378 -0.08653204 0.027357986
-0.06526479 -0.15404525 -0.06194129 0.02064737 0.10925674 0.052948758 -0.058148902 -0.07494944
0.046172068 0.054943457 0.006831397 -0.09136508 -0.037662137 -0.018770827 0.009781163 0.055391476
-0.029281473 -0.029994203 0.058677875 0.033142373 0.05250658 0.020018227 0.0043714712 -0.016683668
-0.09987527 -0.057508588 -0.045742966 -0.051930197 -0.054340757 -0.030993368 -0.07452175 -0.0068793083
-0.0004101673 -0.037673622 -0.044530194 -0.0601909 -0.029990485 -0.0015275747 0.03635548 0.0091172885
-0.010200307 0.03861197 -0.05164074 -0.0041181436 0.02908878 0.09007181 0.0756072 0.035794508
0.041305054 0.026406704 0.061230753 0.037456684 0.016298836 -0.036839027 0.02009034 0.04068271
-0.0029329422 0.050003577 -0.012106385 0.016563805 -0.0061781374 -0.057138618 -0.006383076 -0.0090099
-0.002637364 -0.057881955 -0.05177378 -0.010106275 -0.014812501 -0.06969643 -0.07597648 -0.045728464
-0.037582003 0.032594234 0.059278246 0.10007046 0.027857853 -0.045808863 -0.047102403 0.018296082
0.029048994 -0.04612886 -0.030450212 0.013384432 0.047122244 -0.03676049 0.011776408 -0.057065167
0.007983463 0.0459008 -0.014227694 -0.03263498 0.10227573 0.0119551495 0.0347661 -0.012785326
-0.0007867043 0.059970245 0.054069754 0.051169857 0.08264863 0.07607636 0.0039928597 -0.020900737
-0.0025317268 -0.012943428 0.060867928 0.018106908 -0.016681042 0.008849584 0.009516613 0.024828486
0.019957723 0.020924214 -0.04191534 -0.052728627 0.027740737 0.0011325196 -0.045504816 0.010305642
-0.058365278 0.08588193 -0.029675553 -0.02919212 -0.05240716 -0.041021843 -0.031565566 -0.016377136

fc1.bias f4 [120]
00000000: 2790 e5bd dfcd 5c3d 909f 253d 25ee 163d
00000010: 307e 923d 27fd a3bc 2e57 af3d f0c7 d7bc
00000020: d3b1 4cbd 2c6e 303d a58d a33d 9309 84bd
00000030: 5c56 093d 2bd6 2d3d 18d9 8bb9 5cf0 08bd
00000040: 2c85 e13c 4e48 e53c f2a8 dc3b 1ea5 1cbd
00000050: 6bc0 9e3c aaae 8abc 0dac 6c3d d3ee 09bc
00000060: 597e c7bc e922 11bd ceaf c43d 66cf 19bd
00000070: 6a05 f13c 3d09 a53d 6d9f 4bbd 20fa f23b
00000080: 4418 d73d 56d7 633d 9f28 d339 adea 81bd
00000090: 9dd1 b53d c815 fc3d bbc8 e1b9 df04 f33b
000000a0: 667d a2bc 4a59 ee3b 5fed a23d 75a8 493d
000000b0: 013d 26bc 33d7 b93d 40b6 183d e223 40bd
000000c0: a8ef 333c e3a9 7d3d d184 68bd d5b1 2e3d
000000d0: 60af 243d 2061 e43d 9bd3 763d 011f 173d
000000e0: 655f eaba 5cd9 033e 50a4 913c f8c4 e8bc
000000f0: afc4 a33d bd10 1b3e 2369 923c 0a2b 17bd
00000100: fefe 6cbc 4e22 be3d 69df 9e3d 3c94 593d
00000110: 4e21 283d 4f0f 053d 6656 05bd c307 dfbc
00000120: db92 163e 7c2d 8b3d 7319 55bc 8c50 3abc
00000130: f01b fcbc 396d 153e 8bf1 8ebb 0542 c93a
00000140: 05d8 9fbd 400f 27bd 0f5a b5bd 15db 6d39
00000150: 3beb 81bd 50ac ee3d 55a4 29bc 198d 203d
00000160: 3648 563c 360a de3d 0d11 e53d 6d76 c13d
00000170: 46fb a53d 420b 0e3c f9a9 983c 9ac3 82bd
00000180: d4ab 9a3a dce2 61bd b8b1 693e 21ca 173d
00000190: ee6b 333b 4061 153e 9a82 673d baea 293e
000001a0: 30af 1cbe cdef 90bd 3dec f8bc d79e 4bbd
000001b0: 13d0 2b3d 46e8 bd3d ca0d c6bc 6798 84bd
000001c0: de97 993d 5355 383c 8bf9 893d 9fc1 97bd
000001d0: b36d f53d 3bee 83bb 0572 e2bc 8665 23be
-0.112091355 0.05390727 0.040435374 0.036848206 0.071529746 -0.020018173 0.0856155 -0.026340455
-0.049974274 0.043073818 0.07986001 -0.06447139 0.033529624 0.042440575 -0.00026673893 -0.03343235
0.027529322 0.02798858 0.006734007 -0.038243406 0.019378861 -0.01692899 0.057781268 -0.008418757
-0.02435224 -0.035433684 0.096038446 -0.037551306 0.029421527 0.08058403 -0.049712587 0.007415071
0.10502675 0.055625282 0.0004027532 -0.06343589 0.08877871 0.12308842 -0.000430649 0.007416352
-0.019835185 0.0072738277 0.07955431 0.04923292 -0.01014638 0.09074249 0.037283182 -0.04690922
0.0109824315 0.061929595 -0.05676729 0.042650063 0.040206313 0.111513376 0.060260396 0.036894802
-0.0017881213 0.12875885 0.017778546 -0.028414235 0.07996499 0.15143104 0.017872399 -0.03690628
-0.014465092 0.09283887 0.07757456 0.053119883 0.041047387 0.032485303 -0.0325531 -0.02722538
0.14704458 0.06795785 -0.013006556 -0.011371743 -0.03077504 0.14592446 -0.0043622903 0.0015354758
-0.07804874 -0.040786028 -0.08855068 0.00022683696 -0.06343695 0.1165396 -0.010354121 0.03919706
0.01307874 0.10841791 0.11184893 0.09446416 0.08104567 0.008669676 0.018635737 -0.06384964
0.0011800476 -0.05514799 0.228217 0.037058 0.0027377564 0.14587879 0.056521036 0.16593447
-0.15301204 -0.07076988 -0.030386085 -0.04971203 0.041946482 0.09272818 -0.024176497 -0.06474381
0.074996695 0.011250812 0.0673705 -0.07409977 0.11983814 -0.004026202 -0.02764226 -0.15956697

fc2.weight f4 [84, 120]
00000000: 21dd b43d e6b7 0a3d 780c 8f3c 2d2a 253d
00000010: 3f22 04bc 224d aa3d 8823 95bd 5483 82bd
00000020: 6af7 c53c 80d6 bb3d 6df6 fa3c 0d49 3e3d
00000030: 149d adbd 4b3f 5d3d c307 74bc 4fe2 64bd
00000040: 2178 71bd 7359 5fbd 225d 78bd 9741 55bd
00000050: d959 9ebd c5ee 47bd da1f 3dbd e332 a0bd
00000060: 44a3 98bd 9c46 93bd b59c 59bd 89ae f93b
00000070: 3084 9bbd 3bdc 4dbd 18e8 93bd 8670 013d
00000080: 7862 993d 4b3b 0cbd d3c9 b33a 1ccf be3c
00000090: bf61 94bd 9853 3bbd 53f7 3a3d 1949 69bc
000000a0: 3e8a 4bbd 2453 ca3c a3c9 9c3d 25af 7f3c
000000b0: 6903 1abd c5f9 253c 175c 8f3c 409a edbc
000000c0: 8220 db38 3102 803d c160 6cbd f3d2 3ebd
000000d0: 22a3 c83d b138 733d 63d1 383c fc13 d4bc
000000e0: 54ba 1ebd c8c6 913d 620d 2bbd 4e11 7c3d
000000f0: c369 e93c b405 8e3d 8770 16bd 6c78 ed3a
00000100: c37f 793d e686 1d3d d32d 81bc 8b43 913d
00000110: fc01 5dbd a0b4 3e3d b8a5 a13c 2560 aa3c
00000120: 3e23 a33d 035c 95bd bf5f 5ebd 5966 4e3d
00000130: ae2b 85bd 4dfe b53d d373 143d 1b9d cf3d
00000140: 4dfa ddbb 5ba9 6cbd 1251 9e3b fe7e adbd
00000150: d6b1 eabc 6796 f4bc d976 e53d 929b a83c
00000160: 01b8 d4bc d9bb 7ebd 7fec 9fbc 88d4 61bd
00000170: ecaf 8cbc df6a 42bd 5770 9abd 31c4 59bd
00000180: 8589 b33d 8d76 08bd 91cd 69bd 8f02 97bd
00000190: 6056 843d e9f1 063d e312 13bd 44b4 a9bd
000001a0: c5de 51bc 04ca 013b 312a 0abd c0d7 80bd
000001b0: 700f 7c3d b93f 58bc e981 68bb e121 673d
000001c0: 3ab8 b5bd 08df 33bc 2acf afbd 99e3 44bd
000001d0: 85c1 6abd acb3 0bbd 5c33 273d 3893 7fbc
000001e0: 9d4f 98bd 4839 61bd c91b 94bd d342 65bd
000001f0: 4277 b43d 85a2 823d 5010 3dbd 6a90 b4bd
00000200: bb44 713c d44c 2c3d 4b52 51bd 7e4f eb3b
00000210: 82f0 96bc e5f0 71bd 2317 0d3d 7f4f b9bc
00000220: ab25 9abd 850a 863d 3756 8cbd 1f50 99bd
00000230: f4df 253d 27a1 3d3c a937 babd 34d2 033b
00000240: d642 70bd 3f5f 85bd f0d6 d63c ec8f afbd
00000250: 93c0 463d 545c 153d 946b 803d d081 8dbd
00000260: 77c4 ae3d 5ee9 463d 1806 313d f7e2 80bd
00000270: 4d78 95bc de2d 7dba ea43 0b3d a242 f63b
00000280: f39f ac3d 4b0b 7f3d 5a59 a53d 8a93 ab3c
00000290: d6b4 913d 5383 8e3d f81d 703d bed5 fbbc
000002a0: baf6 0b3d 36cd 9d3d 1a06 dfbc 2cf6 04bd
000002b0: 2cc4 c6bb 28b0 17bd 1ed2 6f3c 21bf 5b3d
000002c0: 772d 6bbd cad5 9a3d fa9d 613d 3a9b fbbc
000002d0: 0157 8c3d e9f4 313d a152 4ebd 842a fcbc
000002e0: 161e 7dbd 7fda 6cbd 0388 363c f878 93bd
000002f0: 4076 6d3d a594 6d3d 10f5 7c3d 2fd1 2fbd
00000300: 58bd 02bd 09fc be3c 6459 423d e62e 1cbd
00000310: b3b2 99bd 4ba6 1dbd f5a7 4c3d a27e 8e3d
00000320: 0a72 c13c b56e 5f3d 1fb6 a5bd 358e 48bd
00000330: 91d4 a8bd 5f3b d9bd 1419 66bd b8d9 9e3d
00000340: 9b12 b7bd d5a5 57bd 9566 b93c ed7f fcbc
00000350: 03f8 00bd 85ce 75bd 41eb 8e39 0fac b13c
00000360: 8dd7 dbbc 2134 913d 0172 16bc 912f 1a3d
00000370: cd86 b0bd 56be b1bd 157b 87bd 43a7 893d
00000380: 1cc3 283d ca3a fbbc e5d1 8abd 05d6 813c
00000390: 3595 a23d c25f fc3c aeb3 1bbc 19e7 7dbd
000003a0: 5354 213d f1a2 86bd 3cd4 2f3d 232b 7dbc
000003b0: 5da6 b6bd 072b 41bd 3275 90bd 50c1 c8bd
000003c0: 7b35 a6bd dabe 6a3c 2f00 75bd 3e58 8cbd
000003d0: 3dd5 763d 4597 b4bc ab46 693d 7037 a73c
000003e0: 67bc a4bd d1c3 3d3b 7ebb 36bd b157 a53d
000003f0: 2b70 8b3d 83ef 79bd 9426 a0bd 0b7b 843d
0.088312395 0.033866785 0.017462 0.040323425 -0.0080648055 0.08315493 -0.07282168 -0.06372705
0.024165828 0.09171772 0.030635083 0.046456385 -0.08477226 0.05401544 -0.014894429 -0.055879887
-0.058952454 -0.054528665 -0.060635693 -0.052064504 -0.07731981 -0.048811693 -0.046172954 -0.07822206
-0.074530154 -0.07191202 -0.053127963 0.007619683 -0.07593572 -0.050258856 -0.07222003 0.03160145
0.074894845 -0.034236234 0.0013716765 0.023292117 -0.07245206 -0.045734018 0.045646023 -0.014238619
-0.049692385 0.024697848 0.07655647 0.015605723 -0.03760091 0.0101303505 0.017499967 -0.029004216
0.00010448789 0.06250418 -0.05770946 -0.046587896 0.0979674 0.059380237 0.01128039 -0.025888436
-0.038751915 0.07117993 -0.04176081 0.06153994 0.028492814 0.069346815 -0.03672841 0.0018117554
0.06091286 0.038458727 -0.015768921 0.07092961 -0.05395697 0.046558976 0.019732341 0.020797798
0.07965706 -0.072929405 -0.05429053 0.050390575 -0.06502472 0.08886395 0.03624327 0.10137387
-0.006774223 -0.057778697 0.0048314417 -0.084714875 -0.028649252 -0.029856874 0.11204309 0.020581994
-0.025966646 -0.062190864 -0.01952195 -0.055134326 -0.01717373 -0.0474652 -0.075409584 -0.05316562
0.08766464 -0.033316184 -0.05708081 -0.07373535 0.06461787 0.032945547 -0.035906684 -0.08286336
-0.01280946 0.0019804249 -0.033731643 -0.06291151 0.06153816 -0.013198786 -0.0035477823 0.056428794
-0.08873029 -0.010978468 -0.08584435 -0.048068617 -0.05731346 -0.034106895 0.040820464 -0.0155990645
-0.0743706 -0.05498627 -0.07231862 -0.05597193 0.08811809 0.063786544 -0.046158135 -0.08816607
0.014725859 0.042065457 -0.05110387 0.007181107 -0.01842523 -0.059067626 0.034445893 -0.022620915
-0.07526716 0.06544975 -0.06852382 -0.07485985 0.04049678 0.011574066 -0.090926476 0.0020114304
-0.05865749 -0.065123074 0.026225537 -0.08572373 0.048523497 0.036465004 0.06270519 -0.069095254
0.085335664 0.0485624 0.043218702 -0.0629329 -0.01824584 -0.0009658019 0.034000315 0.0075152675
0.084289454 0.06226663 0.08073683 0.020944376 0.0711457 0.06958642 0.05862233 -0.030741569
0.034170844 0.077051565 -0.02722459 -0.03246133 -0.006065866 -0.03703323 0.014637498 0.05364907
-0.057416406 0.07560308 0.0550823 -0.030713666 0.06852532 0.043446455 -0.05037177 -0.030781992
-0.06179627 -0.05782556 0.011140826 -0.07200807 0.0579741 0.058003087 0.061757147 -0.042924102
-0.031918854 0.02331354 0.04744853 -0.038130663 -0.07504787 -0.038488667 0.049964864 0.06957747
0.023613948 0.054548938 -0.080913775 -0.048963744 -0.08243669 -0.10607027 -0.05617626 0.0775637
-0.089390956 -0.052648384 0.022631923 -0.030822719 -0.031486522 -0.060011405 0.00027259628 0.02168849
-0.026836181 0.07090021 -0.009182454 0.03764302 -0.08619461 -0.08678882 -0.06615273 0.06721356
0.041201696 -0.030667681 -0.067783155 0.015849123 0.07938615 0.03080738 -0.009503288 -0.06198797
0.03938706 -0.06574047 0.04292701 -0.015452179 -0.0891845 -0.047160175 -0.07053603 -0.098024964
-0.08115669 0.014327729 -0.05981463 -0.06852768 0.060261954 -0.022044787 0.05695216 0.020412177
-0.080437474 0.0028955827 -0.0446124 0.080733664 0.06808504 -0.06101943 -0.07819858 0.06468781

fc2.bias f4 [84]
00000000: 34a1 453b c623 b2bd cade 8dbc c003 84bd
00000010: 2556 db3d 9c63 5bbd 661c 693e 430f fa3b
00000020: 499f 903d 398c 143e 989b 533a 016d fd3c
00000030: 7f56 923d 88b7 9dbd b530 5abc f791 623e
00000040: 9303 73bd 350a 183e 61ec 81bc 0675 3c3e
00000050: 969b 0d3e 1328 d4bc 9a93 b43d bdc6 dbbc
00000060: 47a3 e13c 9864 073e 222a e63e 27f4 07bd
00000070: d84f 72bd 768f 673d 09a4 abbd 9b83 1a3d
00000080: cfd7 d93d 0030 073e e949 5fbd d6bd b2bd
00000090: 2130 69bd ecc6 7f3e 5e06 733b 1847 403e
000000a0: 9477 a13e 68a5 04bc b80c 923d 27ee 943e
000000b0: 5678 6c3d ccd7 e53d 9190 443d 5598 cfbd
000000c0: f2b4 573e 06e5 fdbc 1b23 6d3d 290e 92bd
000000d0: c748 2a3e 5790 2fbe 7844 b6bd 2d5f cfbd
000000e0: cf1a c7bb 5297 2c3d c667 c33d a7ba 973d
000000f0: 02cd 593e 5d6c 3a3e 0f07 4d3d 2850 253e
00000100: 955d ab3d 85da 063b 44c9 0cbb 1478 543e
00000110: 2ecf 213e 1cf2 b7bd ed4f 35bd cb72 813d
00000120: 9bac 213c e533 a7bd dc18 243d 7fbf aebd
00000130: f2e4 773d 15ad b13e 774c 583e 418d 9fbd
00000140: a098 1fbe 5bb3 11bc 6820 6bbd ea98 7b3e
0.00301559 -0.086982295 -0.017318148 -0.06446028 0.1070979 -0.05356179 0.2276474 0.007631214
0.07061631 0.14506616 0.00080721965 0.030935766 0.07145404 -0.077010214 -0.013317277 0.22125994
-0.05932958 0.14847644 -0.015859785 0.18404016 0.13828883 -0.025898015 0.08817215 -0.026828164
0.027543677 0.13221967 0.4495402 -0.033191826 -0.059158176 0.0565333 -0.083808966 0.037723165
0.10636865 0.13201904 -0.054513846 -0.087276146 -0.056930665 0.24978226 0.0037082653 0.1877712
0.31536543 -0.008096077 0.07131332 0.29087946 0.05773195 0.112228006 0.04798943 -0.10136477
0.21065119 -0.030992996 0.057894807 -0.07131607 0.16629325 -0.17144905 -0.08899778 -0.10125575
-0.006076194 0.042136498 0.095412776 0.07408648 0.2126961 0.182054 0.05005556 0.16143858
0.08367459 0.0020577025 -0.0021482268 0.20748931 0.15801689 -0.089817256 -0.044265676 0.06320723
0.0098678125 -0.08164195 0.04006277 -0.08532619 0.060521074 0.34702364 0.21122919 -0.07790614
-0.15585566 -0.008892859 -0.057403952 0.24570051

fc3.weight f4 [10, 84]
00000000: 88ea abbd 1bd9 ce3c 7a2d 07be 13ad 933c
00000010: 83a4 a1bd 636a 0bbc 1ed0 0cbe 23ad d1bc
00000020: 219d da3d f642 f13d 2b11 21be 1375 5dbd
00000030: 6874 e4bd 50c0 4b3d 6204 4f3d 69e1 7a3e
00000040: 2dfe 663d b8ae ac3e c18a 353c 96f7 343e
00000050: a317 eabd d9db d73d ac66 21be 30e3 02be
00000060: 48bb 11bc 3ea7 f6bd b763 76be ef95 9d3d
00000070: c254 b33d 7924 0bbd 8478 a03d cba4 05bd
00000080: e3d6 58bd 1b38 87be d685 683e 5e00 ee3b
00000090: bdbd f63d b7e8 46bd d263 de3d 9195 1c3d
000000a0: 7d70 40be fed8 953d a118 bcbd dd9a 013e
000000b0: 829a 72bd b047 c1bd bad1 e8ba f655 c63c
000000c0: 7f44 873d 7789 153e ddf8 0a3e 2628 9abd
000000d0: 5ed5 4b3e 2d7e 293e 821b d73d d63b f83d
000000e0: 156c 36be c848 d4bb 217d 64bd cfdc eb3d
000000f0: 775a a03c 2a48 2bbe 915f 83bc 51d8 dabd
00000100: a775 243e 838e f7bd 33a7 3dbe b86f 79be
00000110: 302c 223e d04b c8bd d908 383e 43c0 15bd
00000120: 1b03 293e 7d20 7d3d 82ff 233e 1681 793e
00000130: 7c3a 2ebd 9520 8f3d d191 2d3e 999b 74bd
00000140: d1b5 053e 113d 44bd 40a8 edbd ec2c 763e
00000150: 1bdd 253d 34d0 943d 6f0c 943b 179e 42be
00000160: 005a 063e 6218 c8bd a244 2f3d 5bde 823d
00000170: 6af2 96bd e167 8ebe 977b c6bd 7188 d2bd
00000180: 34ae 593d 45d6 e6bc 419a 893e 2640 b03e
00000190: f6bc c53d 7e26 f13d 4946 e6bd 7195 673d
000001a0: 80bc edbd fc0f 033e 280e 12be ea43 ab3e
000001b0: aba3 a3bd 6305 31be a230 4cbe 1d03 2cbe
000001c0: 1c19 0ebd 12d9 bd3e 2b2e a5bc 5df1 3dbe
000001d0: 6477 dfbd 7007 2cbd e07f 24be da8f e0bd
000001e0: 87ce 16be f798 8d3e 0cc2 893d 56ac 4ebe
000001f0: 35df bf3b 1213 5fbc 10e6 38bd ca91 84be
00000200: ae04 c7bd ac54 9fbd 0011 b23d 62a4 0ebd
00000210: 39d0 703d 14b8 dfbd cf10 973d 8428 843c
00000220: 499f 613d 75e5 923e 8455 4dbd 1404 d8bd
00000230: 6576 74bd 9bbf 0e3e bbb5 013e a2e4 693d
00000240: edf9 963d 8ced b1bd e97c 2bbd dd38 a1be
00000250: 4ee7 dc3d 4726 9b3d b9f6 883e 7550 05bf
00000260: eae8 733c 4223 c33c 20fc 543d cf6e 31bd
00000270: 4081 d33c 5d78 a23c 7bec 1cbd 9c32 5bbd
00000280: b021 4f3d 4128 d0bd b5b4 2bbe 2a5c 90bd
00000290: 35fe 413e c391 6c3d 500a 843c 9126 4cbe
000002a0: 4a8d 053e 7cf9 443d 8b76 90bd 879e 24be
000002b0: a999 683b 5802 12bd 162c 5cbe 1896 c03d
000002c0: a832 2d3d 532b 543e a862 3c3b d48e dbbd
000002d0: d55f 08be a152 98bd f8d0 3abe ab49 5a3d
000002e0: ef2c 3cbd ff8b 0b3e b838 3cbd b2c8 7abe
000002f0: fa92 883d dc9e dbbd 810a 21be 42b8 703d
00000300: 060d 223e 749e 9a3e 6033 583e 7291 563e
00000310: 76c0 a5bd a4f2 1bbd 32d2 e0bc beda 08be
00000320: 69e9 803c 456d 4a3d 01e1 2e3e 373d c6bc
00000330: f787 c93c 6682 59be 992d bdbd 0620 86bc
00000340: 3ea6 283e 7ec9 cfbd 3a83 913e 44ef 523e
00000350: a5ba aa3d bfdb cabd 95ed 893d a797 bb3c
00000360: 79ed 563d 3121 dc3d b2cb 00bd 4184 14bd
00000370: fc29 7dbd f663 223b f693 ae3d 68bd f53d
00000380: 02bd 86bd be88 0bbe d456 fcbc fe1c 313d
00000390: 5a2c 96bd 7135 d93c 8fad 453d ec7b 563d
000003a0: 006e 12bd 35b1 18bd 170e bb3d 5cf1 703e
000003b0: ed94 aebb 64e2 d03d 705a 37be 606d b6bd
000003c0: d3c6 c63d a83c 2abd 525c 413c 8e43 913e
000003d0: 7e6c 7e3c 0623 963e 9d40 2c3e b99b 343e
000003e0: 6be8 2b3e d267 d03d a337 1dbe 6114 7c3d
000003f0: de58 e53c ba02 b53d 783a f5bc 9ef5 6a3d
-0.08394343 0.025250008 -0.13200942 0.018026864 -0.07892706 -0.008509251 -0.13751265 -0.025595253
0.10674501 0.1178035 -0.15729205 -0.05406673 -0.11155015 0.04974395 0.05054129 0.2450005
0.056394745 0.3372705 0.011080445 0.17672572 -0.114302896 0.105399795 -0.15761822 -0.12781978
-0.008894749 -0.12043618 -0.24061476 0.07694613 0.08756401 -0.03397033 0.078354865 -0.032627862
-0.052939307 -0.26409993 0.22707304 0.0072632274 0.120479085 -0.048561778 0.10858883 0.038228575
-0.18792911 0.073167786 -0.09184385 0.12656732 -0.05922938 -0.094375014 -0.0017762699 0.024210911
0.066048615 0.1460322 0.13571496 -0.07527189 0.19905612 0.16552038 0.105032936 0.12120788
-0.17814668 -0.0064784028 -0.055783395 0.11516725 0.019574387 -0.16726747 -0.01603678 -0.1068579
0.16060506 -0.12087729 -0.18520813 -0.24359024 0.15837169 -0.09780085 0.17972125 -0.03656031
0.16505091 0.06179856 0.16015437 0.24365649 -0.042536244 0.069886364 0.16950156 -0.059718702
0.13057639 -0.0479098 -0.11604357 0.24040574 0.040494066 0.07266274 0.0045180838 -0.19005619
0.1312027 -0.09770276 0.042790063 0.06390067 -0.073704556 -0.27813628 -0.09691542 -0.102799304
0.05314465 -0.028178344 0.268755 0.3442394 0.09655182 0.1177492 -0.112438746 0.056539003
-0.11608219 0.12799066 -0.14263213 0.33450252 -0.079902016 -0.17287211 -0.19940427 -0.16798063
-0.034691915 0.37079674 -0.020163616 -0.18549104 -0.10911444 -0.04199928 -0.16064405 -0.109649375
-0.14727221 0.27655765 0.06726465 -0.20182928 0.005855466 -0.013615387 -0.04514128 -0.25892478
-0.097176895 -0.07779822 0.08694649 -0.034824736 0.058792327 -0.10923782 0.07376253 0.0161326
0.055083547 0.28690687 -0.050130382 -0.10547653 -0.059683222 0.13940279 0.12666981 0.057102807
0.07371888 -0.086878866 -0.04186717 -0.31488696 0.10786305 0.0757566 0.26750734 -0.5207589
0.014887074 0.023820523 0.051998258 -0.043318566 0.025818467 0.019832784 -0.038311463 -0.05351506
0.050569236 -0.10163928 -0.16768153 -0.07048829 0.18944629 0.057756197 0.016118199 -0.19936587
0.13042179 0.04808949 -0.0705386 -0.16076098 0.003549198 -0.035646766 -0.21501192 0.09403628
0.042284638 0.20719652 0.0028745327 -0.10720602 -0.13317807 -0.07437635 -0.18243778 0.05329291
-0.04594129 0.13627623 -0.04595253 -0.24490622 0.066686586 -0.107236594 -0.15726663 0.058769472
0.1582528 0.30199015 0.21113348 0.2095392 -0.0809335 -0.038073197 -0.027443979 -0.13364694
0.015736299 0.049420614 0.1707802 -0.024199111 0.024600966 -0.2124115 -0.09237213 -0.016372692
0.16469666 -0.101458535 0.2842043 0.20599085 0.08336381 -0.099051945 0.06734768 0.022899462
0.052472565 0.10748518 -0.03144426 -0.03625894 -0.061807618 0.002477882 0.08524315 0.11999017
-0.06579019 -0.13626382 -0.030803122 0.04324054 -0.07332678 0.02651474 0.04826122 0.052364275
-0.035749435 -0.037278373 0.09133547 0.23529571 -0.005327812 0.101994306 -0.17905593 -0.089075804
0.097058915 -0.041561753 0.011801796 0.28371853 0.015528796 0.29323596 0.16821523 0.17637528
0.16787879 0.10176052 -0.15353255 0.061542872 0.027996477 0.08838411 -0.029935107 0.057363145

fc3.bias f4 [10]
00000000: 2fe8 a5bd f3f8 b3be e837 803d 9d39 9a3e
00000010: 714d d23e 13c4 7fbe 6b89 3a3e 9ad5 b4be
00000020: 5532 d23e 1d3e 59be
-0.08100926 -0.3515087 0.06260663 0.3012208 0.41074708 -0.2497714 0.18216483 -0.35319215
0.41054025 -0.212151
