HW5/sigmoid/cifar_net.pth (torch, 250887 bytes, 10 tensors)

conv1.weight f4 [6, 3, 5, 5]
000000 0a c4 20 3e d9 ef 91 3c 09 d2 38 3c 32 4c 42 3d
       0.15699783 0.017814564 0.011280545 0.047435947
000010 ae 0b 1f be 73 36 34 3e 6a 88 b2 3e 61 2d b6 3e
       -0.15531799 0.17598896 0.348697 0.35581496
000020 69 b8 f6 3e eb 66 83 3e 6e a8 97 3e 1d 63 c8 3e
       0.4818757 0.25664458 0.2962069 0.39138117
000030 39 b1 24 3f 42 06 22 3f 63 79 c9 3e 3a dd 3a be
       0.6433292 0.632908 0.39350423 -0.18248454
000040 8e 4b 82 be ea 17 48 be 17 db 9e be 7a 7c 45 be
       -0.2544827 -0.19540372 -0.31026527 -0.19285765
000050 7f 20 5a be 03 98 c9 be 44 56 f4 be 60 b7 ec be
       -0.21301459 -0.39373788 -0.47722065 -0.46233654
000060 52 d1 89 be 20 2c 08 be 8b 73 4d be 75 0e b4 be
       -0.2691751 -0.13298082 -0.20063607 -0.3516728
000070 6d 23 bf be 98 3f 86 be 6c 45 94 3d d9 50 de 3d
       -0.37331715 -0.26220393 0.07239804 0.10855264
000080 a7 6c c4 3d af 93 0a 3e 78 b2 84 bd 10 9c ea 3b
       0.09591036 0.135329 -0.06479353 0.0071597174
000090 c5 55 cb 3d a7 0a d0 3e 0e 41 ae 3e 39 6f 06 3e
       0.099284686 0.40633127 0.34034008 0.13128366
0000a0 64 c2 52 be ab 54 61 be dd ae a3 be ef 07 a9 be
       -0.20581967 -0.22004955 -0.31969348 -0.33013865
0000b0 c5 90 d3 be bf a2 a3 3d e2 59 ae bd c8 13 a1 be
       -0.41321388 0.07990026 -0.085132375 -0.31460404
0000c0 a5 13 9a be bd 8d 8d bd 44 d6 7f 3c 90 48 04 be
       -0.30093113 -0.069118 0.01561505 -0.12918305
0000d0 74 b2 81 be 5f da 69 be 0e aa 00 be 0c bd c5 3d
       -0.2533146 -0.22837208 -0.1256487 0.096551985
0000e0 a7 50 0b bd be f1 2f bd 50 96 b7 bc 45 4c f7 3d
       -0.034012463 -0.042955153 -0.022410542 0.12075094
0000f0 6e ab 0b 3e a7 66 75 3e fa 25 7b 3e 33 e2 dd 3e
       0.13639614 0.2396494 0.24526206 0.4333664
000100 3f 63 48 3e fc 0a 8f bd 77 4f cb 3c 99 6e 0a be
       0.1956911 -0.06984517 0.024818165 -0.13518752
000110 32 40 25 3c 52 6a b4 bd 4f 6e 41 3e 74 ac 2a 3e
       0.010086106 -0.088093415 0.18889736 0.16667348
000120 24 6a 0c 3e 7c 92 0b 3d b1 f6 ec 3d 58 ee d6 bc
       0.13712364 0.034075245 0.1157049 -0.026236698
000130 00 9d 99 bc 7d 69 2e bd e7 43 31 be 9e f5 25 be
       -0.018751621 -0.04258107 -0.17311059 -0.16206977
000140 bf 1d 10 be 9e f9 d2 bd 6b 9c de bd 2a 06 eb bd
       -0.14073847 -0.10301517 -0.10869678 -0.11475785
000150 a7 03 44 bd 35 54 79 be 38 fd 87 be 71 77 9c be
       -0.047855046 -0.24348529 -0.26560378 -0.30559877
000160 6f 88 d0 be 16 2f 52 be 67 65 82 be 15 5e d7 bd
       -0.4072909 -0.20525774 -0.2546799 -0.105159916
000170 8c ee ed bd 02 45 8d be a1 d6 73 be 0d e0 0e be
       -0.11617765 -0.2759171 -0.23812343 -0.13952656
000180 ef 9e 3d be b8 b3 1a be ea d9 84 be 57 fb c9 bd
       -0.1851766 -0.1510762 -0.25947505 -0.098623924
000190 54 58 1b 3c 97 2d af 3b 27 54 4f bd cc 76 4c 3d
       0.009481508 0.005346011 -0.050617363 0.04991798
0001a0 c6 9b b1 3c 71 9a 20 bd 33 5a 08 3e 87 70 39 3d
       0.021680724 -0.039209787 0.13315658 0.04527333
0001b0 bd 56 99 3d dc b2 e0 bb 09 78 79 3c cd 2a 10 bc
       0.07487247 -0.006857259 0.0152263725 -0.008799267
0001c0 2f d0 d1 bc 44 cd 9d 3d 8c 42 e8 3d 7d d8 b5 3d
       -0.025611965 0.07705167 0.11340818 0.088791825
0001d0 90 8d f9 3c c1 1b 63 3d ed f5 1c 3e e7 0d 97 bc
       0.03046301 0.05544639 0.15328188 -0.018439246
0001e0 36 f5 1b bc ae 5f e0 3d 52 24 76 3b b9 40 00 3e
       -0.009518912 0.109557495 0.003755827 0.1252469
0001f0 20 f3 0f be 96 09 d7 3a ab 8a 2e 3e d3 5d 27 3e
       -0.14057589 0.0016406055 0.17045085 0.16344385
000200 80 58 6c 3e ba bb 8e 3d b8 52 97 3d c2 5f 5c 3e
       0.23080635 0.069694 0.07388824 0.21520904
000210 01 59 a8 3e 8b 3c 75 3e f8 ba 3e 3e 9b 5c 47 3e
       0.32880405 0.23948877 0.1862601 0.1946892
000220 43 aa 32 3e 21 9b 8e 3e b0 fa 80 3e 7c 13 18 3d
       0.17447762 0.2785273 0.2519126 0.037127957
000230 2f c2 34 3e 50 76 c3 3e a3 32 6d 3e 21 1c 93 3e
       0.176522 0.38176203 0.23163848 0.28732398
000240 10 3f 17 3e cd 96 5d bd b1 a4 1e 3e 5c c3 2d 3e
       0.1477015 -0.054098893 0.15492512 0.16969055
000250 c9 1f 1a 3e be 4e b5 3c 44 2d af 3d f1 6c 00 be
       0.15051188 0.022132274 0.085535556 -0.12541558
000260 5f 06 11 3e d3 7a a7 3e 9c 11 9b 3d 33 53 40 3e
       0.14162587 0.32710895 0.07571718 0.18781738
000270 3a 4f de be 2a 36 44 3d 8f 2e d7 3e 82 98 0f be
       -0.4341982 0.047903217 0.4202771 -0.14023021
000280 8b 23 22 3e b0 f4 20 bf 13 2e 0b bd 18 b1 eb 3e
       0.15833871 -0.62873363 -0.033979487 0.4603355
000290 e0 e6 7a be 79 a4 70 3e 31 da ed be d8 f9 a1 bc
       -0.24502134 0.23500241 -0.4645553 -0.019772455
0002a0 d7 d3 1a 3f 65 51 bc bd 95 5c 9c bb 12 ac ce be
       0.6047949 -0.09195212 -0.004771779 -0.40365654
0002b0 f4 82 8a bd 0f 4c fb 3d e9 23 14 be c6 56 b5 3d
       -0.067632586 0.122703664 -0.14466824 0.08854441
0002c0 4d c2 0a be ef 4d b2 bd 8a 24 dd 3d dd 55 1f be
       -0.13550682 -0.08706271 0.10797985 -0.15560098
0002d0 d0 f2 b2 3d ec 85 b5 be 07 01 a6 3d ea 4a bc 3e
       0.08737719 -0.35453737 0.08105665 0.36775905
0002e0 98 d6 6f be 2a cb 9f 3e d5 b6 0e bf a1 e9 f7 3c
       -0.23421705 0.3120969 -0.5574773 0.03026277
0002f0 93 bd fe 3e 6e ac f1 be 8b c7 e6 3e f4 2a fe be
       0.4975401 -0.47201866 0.45074114 -0.49642146
000300 2f 09 94 3d 3f 86 0d 3f 39 c4 ca be b8 c7 56 3e
       0.07228314 0.5528297 -0.3960283 0.20974624
000310 13 31 a0 be 3c ec b6 bc 51 64 ab 3e 20 b0 36 be
       -0.3128744 -0.022329442 0.33474973 -0.17840624
000320 17 17 63 bb 3d 7a 15 be 2c e4 46 3d e9 1a f3 3c
       -0.0034651214 -0.14597411 0.048557445 0.029675918
000330 cf 47 12 bc cb 23 4b 3e a5 a3 95 be 20 78 9c 3d
       -0.008928253 0.19837873 -0.29226413 0.076400995
000340 4c a0 06 3e 58 41 8f be 75 25 ae 3e 93 30 ef be
       0.13147086 -0.2797954 0.34012952 -0.46716747
000350 95 e4 51 bc 57 e4 fa 3e 89 e2 9c be 8a fc b0 3e
       -0.012810846 0.49002334 -0.30641583 0.34567672
000360 01 6a c0 be 4b f4 8b bb 63 cd eb 3e 58 4a 37 be
       -0.37580875 -0.0042710654 0.46055135 -0.17899454
000370 15 fe 10 3e e7 84 0d be e5 51 ac bd be aa 35 3e
       0.14159425 -0.1382023 -0.08414058 0.17740914
000380 0e e5 44 be cb e3 2f 3e 37 54 fc 3b b0 8a 4d 3d
       -0.19228002 0.1717674 0.007700469 0.05018109
000390 de 78 10 3e 30 bc 0c 3f ec b5 93 3e 24 1d 6a 3e
       0.14108607 0.5497465 0.28849733 0.22862679
0003a0 68 b4 76 bd 13 0f 35 be 98 38 ce 3d b3 84 66 3e
       -0.060230643 -0.17681532 0.10069388 0.22511558
0003b0 3a 59 8a 3e 99 ed ac bd c9 54 df be 5f 55 31 bb
       0.270212 -0.08443756 -0.43619373 -0.0027058942
0003c0 7d 9a 25 3e 33 6b 65 3d c4 f6 3a be 1a b8 00 be
       0.16172214 0.056010436 -0.18258196 -0.12570229
0003d0 98 e1 21 be be 4e 13 3d f2 21 36 be 80 6c ef bd
       -0.15808713 0.035963766 -0.17786387 -0.116906166
0003e0 4b 59 21 3c ae 3a 3f 3c 42 9d ce bd 94 10 8f be
       0.009847949 0.011671705 -0.10088588 -0.27942336
0003f0 98 1f a3 be c1 a1 58 be b0 f6 35 be 94 91 a8 3e
       -0.31860042 -0.21155454 -0.17769885 0.32923567

conv1.bias f4 [6]
000000 7e 02 0d bf 2c 38 ef 3e 44 82 6b be bf e2 82 be
       -0.5508193 0.46722543 -0.22998911 -0.2556362
000010 96 13 e5 3d c4 c8 22 3e
       0.11185376 0.15896899

conv2.weight f4 [16, 6, 5, 5]
000000 72 81 c7 3d 55 b4 9d 3b 64 90 71 bd a0 d6 ce bc
       0.097414866 0.004812757 -0.058975592 -0.025248826
000010 7a 26 ab 3d 69 67 fc bb 28 cb 69 3d 04 65 9e bd
       0.08356948 -0.007702757 0.05707851 -0.07734111
000020 c7 e8 33 3d b9 33 d2 3d b4 98 3f bd 97 60 a8 3c
       0.043923166 0.102637716 -0.04677649 0.02055387
000030 0c 9d 44 bc c8 02 11 3d 0e 60 a1 3c db 8b 0a 3e
       -0.0120003335 0.035403043 0.019699123 0.13529913
000040 93 d8 ef 3d ca 08 09 3e 08 87 bc 3d c8 80 25 bd
       0.1171123 0.13382259 0.09205443 -0.04040602
000050 aa 41 9a bb cc ef bc 3d 87 5e 1a 3d 33 db ae bc
       -0.004707535 0.09225425 0.037687805 -0.021344757
000060 32 15 28 bd a1 aa 6f 3e 95 a3 3a 3e 74 1d 38 3e
       -0.04103584 0.23404934 0.18226464 0.17979985
000070 02 fe 4d 3e 49 f6 1c 3e 19 72 72 3c 50 ab ad ba
       0.20116428 0.15328325 0.014797711 -0.0013249908
000080 6b 2c 8b 3d 4e 4c 43 3b 48 f3 b9 3b 87 85 18 bd
       0.067955814 0.002980012 0.0056747533 -0.037236717
000090 d9 fd c0 bd 8a d2 20 3b ac a6 70 bd 27 0f e7 bc
       -0.094234176 0.0024539554 -0.0587527 -0.028205467
0000a0 2a 04 40 bd 46 67 e3 bc d1 3a 96 3c a1 bb e7 bd
       -0.04687897 -0.027759206 0.018338593 -0.11315084
0000b0 46 53 19 be 23 42 cf bd 15 ae 37 be 04 d7 5b bd
       -0.14973173 -0.101200365 -0.17937501 -0.05367185
0000c0 2d cb 37 be 03 7a 7b be 94 38 04 be 44 87 82 bd
       -0.17948599 -0.24558263 -0.12912208 -0.06373456
0000d0 1f 24 35 be 1e 1e 46 3c 50 66 d6 bc c9 f5 c6 3d
       -0.1768956 0.012092141 -0.026171833 0.097148485
0000e0 c2 ce 15 bd 8f f4 b9 bc 60 88 bb 3c b3 a9 51 3d
       -0.036574133 -0.022699622 0.022892177 0.05118723
0000f0 22 7a a8 3e 30 bd 9b 3d 5c 11 30 3d f9 34 ba 3d
       0.3290568 0.07604444 0.042985305 0.09092135
000100 6e 0a f8 3d 12 1d b6 3e bd 78 a5 3c f6 04 b2 3d
       0.12111364 0.35569054 0.020199174 0.086923525
000110 b3 23 38 3a 95 28 38 3e 0e a3 17 3e 7f 9a 92 bc
       0.00070243626 0.17984231 0.14808294 -0.017895935
000120 45 e8 ec bb 09 d0 23 be 83 de 53 bd fe 3c e3 bc
       -0.007229837 -0.15997328 -0.051725876 -0.027739044
000130 1b 17 91 bd 0e 83 ae bd ae d9 93 bd b1 51 75 bd
       -0.07084485 -0.085210904 -0.072192535 -0.05989236
000140 5d cc d7 bd d8 5c c6 bc 47 5d 68 bd e0 d6 b4 3c
       -0.10537026 -0.024214193 -0.05672958 0.022075117
000150 8d f6 7a 3d a2 ad be bd 0a b3 36 bd 0a 6f 5b bd
       0.061270285 -0.093104616 -0.04460434 -0.053572692
000160 b2 ae 64 3d 87 72 9b 3c 7f 55 86 3d 40 97 b8 bd
       0.055830665 0.01897551 0.06559276 -0.09013224
000170 99 72 dd bd b0 66 42 3d 72 7e 91 bd 2b 18 8f 3e
       -0.108128734 0.04746121 -0.07104196 0.27948126
000180 56 c7 17 bd 77 fd d6 bd b3 63 1c 3d 7f 33 32 be
       -0.037055336 -0.10497563 0.038181018 -0.17402457
000190 5c 52 5c bd 91 f3 16 be 9a 93 1a bd 55 60 9f bd
       -0.05378948 -0.1474135 -0.03773842 -0.07782046
0001a0 73 ed e0 bc f3 aa af 3d 1a 0b db bd ee 32 ac bb
       -0.027456975 0.08577528 -0.10695477 -0.0052550947
0001b0 3e ea c7 bd 26 8a bf 3d e8 4d e8 3c ba 86 67 bd
       -0.09761475 0.093525216 0.028357461 -0.05652497
0001c0 aa 1a f7 bd f1 bf 48 bd 14 6c 96 3d 49 b6 15 3e
       -0.12065633 -0.049011175 0.07344833 0.14620318
0001d0 9f b0 a6 3c b7 2d 2a bd 7e 56 8b 3d 54 47 af 3d
       0.020347891 -0.041547503 0.068036065 0.08558527
0001e0 bb 9b 83 bc 48 74 c9 bd b3 63 0e be a8 af b8 3d
       -0.016065469 -0.09836632 -0.1390522 0.09017879
0001f0 7c e7 84 bc fc b4 9d 3d 80 85 3c 3e 0d 14 30 3e
       -0.016223662 0.07700536 0.18410301 0.17195149
000200 1c 27 cf 3d 66 88 ec 3d fe 1e 1e be 07 d5 09 3e
       0.101148814 0.115494534 -0.1544151 0.1346017
000210 fd a7 ec 3d 6c 86 86 3d da 32 38 3e 33 a5 23 be
       0.11555479 0.06568608 0.17988148 -0.15980987
000220 a9 51 19 3d 4e 6c 1e 3d 0e 84 00 3d 52 7d 9b 3d
       0.037431393 0.038677506 0.031375937 0.07592262
000230 55 f3 32 be ef 76 32 be cc da d7 bd b7 a6 15 be
       -0.17475636 -0.17428182 -0.10539779 -0.14614378
000240 64 a8 30 bd 19 27 65 be 37 4e c3 bd 96 f0 10 be
       -0.04312934 -0.22378196 -0.09536403 -0.14154276
000250 50 06 af bd 59 eb b2 bd 16 cb c7 bd ee a6 5a bd
       -0.08546126 -0.08736295 -0.097555324 -0.053381853
000260 e5 b3 0e bc 8c 77 5a 3d b6 dd e3 3d 76 ed 7c be
       -0.008709882 0.053336665 0.111262724 -0.24699959
000270 43 c6 54 be 44 2d 48 3d e2 19 43 3e c4 d7 b7 3d
       -0.20778756 0.048871294 0.19052842 0.08976701
000280 60 f1 ac be 8c 27 55 bd bb 3f 06 3e 03 65 1f 3e
       -0.33777905 -0.052039668 0.13110249 0.15565877
000290 f6 62 7f 3c c5 af 59 3c b1 8b c6 3c 53 0f 8c bd
       0.015587559 0.013286536 0.024236532 -0.0683886
0002a0 8c c4 da bb 99 f9 80 bc cf 9b a8 bd 4f b3 1f be
       -0.0066762622 -0.015744017 -0.08232843 -0.15595745
0002b0 25 34 34 be 4a f7 f1 bd 75 85 06 bd ee 41 85 be
       -0.17598017 -0.11814745 -0.03284212 -0.26026863
0002c0 21 88 40 be 33 72 1f 3d 58 b8 1d 3d b2 13 0e 3e
       -0.18801929 0.03892727 0.038505882 0.138747
0002d0 99 61 57 be c5 65 fa bd d4 c5 38 bd 01 7f c0 bc
       -0.21033324 -0.12226442 -0.04511054 -0.02349806
0002e0 c2 55 e9 3c 0c ca c2 bd 0d 7f 56 bd 88 d8 05 be
       0.028483275 -0.09511194 -0.05236726 -0.13070881
0002f0 91 05 27 3d f4 86 82 3b 8d 89 1e be 08 32 20 be
       0.040776793 0.003983373 -0.15482159 -0.15644085
000300 3f dd d0 bd 63 37 b0 bc 82 66 85 3d 77 f0 e0 bd
       -0.10198449 -0.021510785 0.065136924 -0.10983365
000310 04 e7 cf bd 1e 12 da bd 2b 26 f7 3c 2e 9a 20 3d
       -0.101514846 -0.10647987 0.030169567 0.039209537
000320 76 a4 1f 3e 7e ee c2 3d d4 51 ac 3d 13 35 7c bd
       0.1559008 0.09518145 0.08414045 -0.061574053
000330 29 c3 e6 3c 50 ea d2 3d 56 9d eb 3d fc f2 cc 3d
       0.028169231 0.10298598 0.11504619 0.10007283
000340 ba b0 ab 3c bb 7e a2 3c ee 73 60 bc ad 31 c7 bc
       0.020958293 0.01983582 -0.013699515 -0.02431568
000350 5b 70 13 3d dd bf 60 bd cf b1 93 ba f1 90 68 3c
       0.035995822 -0.054870475 -0.0011268201 0.014194713
000360 0d ee 30 be 08 66 f9 bd 41 13 0f bd 56 24 25 bd
       -0.17278309 -0.12177664 -0.03493047 -0.040317856
000370 32 e8 63 be 1b 9d 64 be bd e4 18 be 9b 9c 60 be
       -0.22256544 -0.22325556 -0.14931007 -0.2193474
000380 34 27 bc bd 57 ed 98 3e 20 a7 dc 3c 95 9f c7 bc
       -0.09187165 0.29868576 0.02693516 -0.024368087
000390 c1 0f d6 3d 5f 92 87 3d 04 7f 33 3e 4f 65 9d bd
       0.104522236 0.06619715 0.17528921 -0.07685339
0003a0 6f 3a 06 3e 92 bd 20 3e 4b 4f 87 b9 f5 fa ac 3d
       0.13108228 0.15697315 -0.00025808284 0.08446304
0003b0 34 83 6a bd 29 26 90 3e e7 83 ba 3d b2 e6 df bc
       -0.05725403 0.28154114 0.091071896 -0.027331684
0003c0 28 ce 1b 3d cb 6d 28 3e e9 3d 48 3e 18 2f 92 bd
       0.038038403 0.16448133 0.19554867 -0.07137889
0003d0 f8 b0 27 bd ce 33 4c 3e c5 4b 22 3e f8 a0 08 be
       -0.040940255 0.19941637 0.15849216 -0.13342655
0003e0 8a 52 e4 bd bf 84 c6 bc dd 09 26 bd ce fa 02 3c
       -0.111485556 -0.02423322 -0.04053675 0.007994367
0003f0 16 6a be 3c 91 43 07 be 53 b5 c7 bd e9 76 55 3d
       0.023243945 -0.13209368 -0.09751382 0.052115355

conv2.bias f4 [16]
000000 45 10 11 bf df fd 06 3e 5b 45 37 bd 29 e6 0b 3d
       -0.5666545 0.13182782 -0.044743877 0.034155045
000010 fa ba 2c 3f d4 18 f5 be 3c 2e 08 bf 48 95 f7 bc
       0.67472804 -0.47870505 -0.5319555 -0.03022255
000020 b3 a0 b6 3e d4 4b ef be 9c 7f 72 3e 9a 97 be bd
       0.3566948 -0.4673754 0.23681492 -0.093062595
000030 4f fc 9f 3e 4a 37 6c 3e 5a 65 ce bc 04 53 e3 3e
       0.31247184 0.23067966 -0.025194813 0.44399273

fc1.weight f4 [120, 400]
000000 e3 9e 3e 3d 18 79 50 3d e9 80 a4 3d 74 4f 1c 3d
       0.046538245 0.050896734 0.080324 0.03816171
000010 1f 77 80 3d 47 b4 b3 bc 18 04 38 3d 6e 45 d5 bc
       0.062727205 -0.021936549 0.04492578 -0.026034083
000020 22 aa 37 3d ad 71 73 3d 66 4f 1a bd 0c 25 d6 bb
       0.044839986 0.05943458 -0.037673377 -0.006535178
000030 c3 64 b7 3c 49 ad c9 3c 90 b3 a1 3a a2 7c 06 bd
       0.022386914 0.024618762 0.0012336839 -0.032833703
000040 f0 e0 c4 bc f9 bc 8b bd 4d e7 56 bd 78 90 c1 3c
       -0.02403304 -0.06823153 -0.05246668 0.023628458
000050 1a 74 da 3c 62 6a 01 3c 88 d4 63 bc b3 03 92 3b
       0.02666669 0.007898899 -0.013905652 0.0044560074
000060 8d 00 7d bd 84 bd d2 bc 73 32 99 bd 1d 79 f4 bc
       -0.061768103 -0.025725134 -0.074803255 -0.029842908
000070 7a 22 3a bc ba 5b 85 bc b4 6c 14 bd 84 90 50 bd
       -0.011360759 -0.01627909 -0.03623648 -0.05091907
000080 71 58 b9 bd 87 68 73 bd 8a 03 5c bd de 8f 09 bc
       -0.09050072 -0.059425857 -0.053714313 -0.008396117
000090 dd 3f 1b bd eb a1 ed bb 68 4b 6b bd cf e9 83 bd
       -0.0379027 -0.007251968 -0.05744496 -0.0644108
0000a0 8d 12 9a 3c ac d1 81 bd 83 f3 ca bc d0 38 3d 3a
       0.018807674 -0.0633882 -0.024774319 0.00072182436
0000b0 9f 66 f1 3c 62 b0 8e bc 6b 39 66 bd 99 34 08 bd
       0.029467879 -0.01741809 -0.0562071 -0.033253286
0000c0 b3 e2 1b bb 7a 85 b3 bb b6 33 f3 3c 32 f7 4b bc
       -0.0023786246 -0.005478558 0.029687744 -0.012449073
0000d0 8d 78 2b 3a 22 38 1f bd 3c 46 e5 bc 3a a8 5b 3d
       0.0006541096 -0.03887189 -0.027987592 0.05362723
0000e0 39 e5 ef bc fd 5f 26 bd e4 41 0d bd 64 5c 1f bd
       -0.029284107 -0.040618885 -0.034486666 -0.03890647
0000f0 53 7e bb 3d 7c c0 98 3d bd d4 5b 3b 08 4b d0 bb
       0.09154954 0.074585885 0.003354355 -0.0063566007
000100 3b ed 2e bd 83 2d 4a 3d 3e 70 e7 3c bb 41 1b 3d
       -0.04270671 0.04935981 0.028251763 0.037904482
000110 ff 3f 81 bd 78 11 0f 3c 59 82 ae 3d 36 06 12 3d
       -0.063110344 0.008732192 0.085209556 0.035650454
000120 eb 1a 91 bc 1d d0 aa 3a b8 e9 7a bc f5 b6 06 bd
       -0.01771303 0.0013031993 -0.015314512 -0.032889325
000130 5f 66 81 3d ae eb 80 3c 3e 5d 06 bd e4 7a 7a 3c
       0.06318354 0.01573738 -0.032803766 0.0152880885
000140 f8 f4 7d bd 7d 27 18 3d 67 f8 07 3d ed 36 4a bb
       -0.0620012 0.037147034 0.03319588 -0.0030855492
000150 1a eb 6b 3d c4 db 0f bd f4 dd 23 3d 1e bf fd bb
       0.057597257 -0.035121694 0.040006593 -0.00774373
000160 11 1e 58 3d e1 0f fb 3c 45 6f 58 3d cf ef ea bc
       0.05276305 0.03064722 0.05284049 -0.028678803
000170 63 72 87 bc c5 d6 2c 3d 49 5b 68 3c 19 f4 11 3d
       -0.016534036 0.042197008 0.01418192 0.03563318
000180 76 78 44 bd cb 21 31 3c 14 c0 8b bd af ab 42 bd
       -0.047966443 0.0108112795 -0.06823745 -0.04752701
000190 91 3a b8 bc 41 71 50 3b 83 ce 0d bd ab bb 2b 3d
       -0.022488864 0.0031805786 -0.034620773 0.04192702
0001a0 32 09 16 3d 16 5a 2f 3d 94 19 3f 3d 71 3e 9a 3c
       0.036629863 0.042810522 0.046655253 0.018828603
0001b0 7e f1 8b 3d 28 e4 a3 3c 26 88 4b bc f8 21 69 3c
       0.0683317 0.020006254 -0.012422597 0.01422929
0001c0 d6 50 23 3c 31 cb 89 3d 01 f9 9f 3c 6a 2a 59 bd
       0.009968003 0.06728209 0.019527914 -0.053018965
0001d0 2e 4a 65 bc 18 25 42 bb c8 57 ad 3c 84 13 c9 bb
       -0.013994737 -0.002962416 0.021160021 -0.0061363596
0001e0 37 29 bc bd 35 9c 32 bd 1b 08 34 bd 1d 7e 87 bb
       -0.091875486 -0.043606002 -0.043953042 -0.004134907
0001f0 92 1c 85 bd b3 b1 97 3d 2e ee a2 3d ab c7 20 3d
       -0.0649959 0.0740694 0.079555854 0.03925292
000200 b0 a0 3a 3d b1 01 38 3d b7 01 71 3d 90 de af 3c
       0.0455634 0.044923488 0.058839526 0.02146843
000210 e7 47 2a 3c ae 38 4d 3d 72 a4 1c 3d 7e 8a c3 bc
       0.010393119 0.050102882 0.038242765 -0.02386975
000220 13 24 d6 b9 3f 0e 3f bd 4d d4 65 bc dd 2f 2b bd
       -0.00040844138 -0.046644446 -0.014027667 -0.041793693
000230 1d fb 66 bd be 1f 89 bd a9 52 6c bc e4 fe e2 bc
       -0.056391824 -0.066955075 -0.014424005 -0.027709432
000240 99 0f 23 bd 24 68 70 bd 71 e1 2d bc 88 cf 13 bd
       -0.039809797 -0.058693066 -0.010612831 -0.03608659
000250 c0 de 8f 3c 34 99 af bb 59 2a 93 bc 8d 32 f4 3c
       0.01756227 -0.0053588394 -0.017964529 0.02980926
000260 92 e9 2b 3d 54 ea 3c bd 09 08 6c bc 78 53 32 3c
       0.041970797 -0.04612191 -0.014406213 0.010884158
000270 1b b6 dc bb 42 2d d7 bb ec 95 8d bd a1 f2 87 bd
       -0.006735576 -0.0065666744 -0.06913361 -0.06638075
000280 cf f0 b0 bc ce 3d cf bc ff 5d 0a 3c e4 11 8f bc
       -0.021599201 -0.025298025 0.008445262 -0.017464586
000290 a8 a5 9a 3b 54 98 84 3c ea 7d f9 bc 28 30 15 3c
       0.004719455 0.016185917 -0.030455548 0.00910572
0002a0 ea 01 87 3b 3c 4e 9b 3b d2 ba 6d 3d c2 0c 5f bc
       0.004120101 0.004739551 0.058039494 -0.013613882
0002b0 6d f2 22 bb 23 bb 79 bc 19 50 80 3d 83 08 b9 bb
       -0.0024863735 -0.015242371 0.062652774 -0.0056467666
0002c0 0b 42 c6 bc e4 10 7e bc 3d df 8c bd a5 87 0e 3d
       -0.024201414 -0.015506957 -0.06878517 0.03479733
0002d0 2d c6 36 3d 8c 45 c6 3c 49 0c 92 bd f4 68 50 bc
       0.04462259 0.024203084 -0.071312495 -0.012720335
0002e0 31 07 1a 3d 3e 59 6d 3d 63 ef ff bb 68 4f a7 bb
       0.037604515 0.057946436 -0.0078105195 -0.0051059015
0002f0 38 76 03 3b b9 4a ee 3c 73 b8 68 bd 7b 8a 2b bd
       0.0020059478 0.029088365 -0.05681653 -0.041880112
000300 2f 2a 05 bd 73 7b d8 bc 05 90 3c 3b aa f0 a2 bc
       -0.032510933 -0.026426053 0.0028772366 -0.019890148
000310 2d 78 78 bc 63 0d 33 3d 00 9f f7 3c cc 40 3e 3d
       -0.015165371 0.04371394 0.030227184 0.046448514
000320 78 5e 70 bd 68 27 65 3c 1c 84 a2 bb 49 56 11 bd
       -0.058683842 0.013986446 -0.0049595963 -0.03548268
000330 1c c9 e4 bc 3b 63 01 3a 00 95 87 bd 5c 79 9f bc
       -0.027927928 0.0004935746 -0.06620216 -0.019467048
000340 3c 0a 66 3d 50 2e 27 3d 86 89 77 bd 48 35 2a bd
       0.056162104 0.04081565 -0.060433887 -0.04155472
000350 79 01 05 bd b3 d0 5d 3c f7 58 1c 3d 02 13 8d bd
       -0.032472108 0.013538527 0.03817078 -0.06888391
000360 81 04 a0 3c b6 46 b9 bc a3 57 36 3d 7c 33 0d 3c
       0.019533398 -0.022616725 0.04451717 0.008618232
000370 b7 45 99 3b 4d 04 22 bd 5f cb ae bc 0c 0f c3 3c
       0.0046775 -0.039554883 -0.02133721 0.023810886
000380 4a 2c 8d ba 7a 55 10 bd 96 a4 35 3c 4c 98 ea bc
       -0.0010770645 -0.035237767 0.011086604 -0.028637074
000390 35 e5 bc bc 34 92 0f 3d 81 a9 bf bc 28 8a 80 bd
       -0.023058513 0.03505154 -0.023396255 -0.06276351
0003a0 d7 19 f1 bb 93 5d 7e 3b 22 da 33 bd 66 55 7e bd
       -0.0073578167 0.0038813099 -0.0439092 -0.06209316
0003b0 5e 03 9e bc 00 a1 3e bb f5 3a fb 3c 2e 68 18 bd
       -0.019288715 -0.0029087663 0.030667761 -0.03720873
0003c0 7e 26 a3 3b ee 4c 3d bd 21 1b 72 bc 7e 84 22 bd
       0.004978954 -0.046215944 -0.014776976 -0.039677136
0003d0 ac 6b 3c 3c d0 fe a9 bc 54 84 15 bd 32 b2 1b bd
       0.01150028 -0.020751387 -0.03650315 -0.038011737
0003e0 d3 10 18 bd b0 09 14 3c 37 20 bf 3c cd 02 7d 3d
       -0.03712542 0.009035513 0.02333079 0.06177025
0003f0 45 c6 8a 3d ac ef d1 3d f5 5c 6b 3d ae 82 19 3c
       0.06776098 0.10250792 0.057461698 0.009369535

fc1.bias f4 [120]
000000 15 7b b5 bc dc e5 3b 3d c3 c7 dc 3d e6 6d 10 3a
       -0.022153417 0.045873508 0.10780289 0.000550954
000010 0b 47 5f 3e 7f e6 f3 bc a3 25 28 be ef 68 fc bd
       0.21804444 -0.029772995 -0.16420607 -0.12324702
000020 7b b1 53 3e 1e 0a 4e bd eb f0 d7 3d c6 67 b3 bd
       0.20673172 -0.050302617 0.10543998 -0.087600276
000030 f6 0a 83 bc 7f 1c a2 3b 70 53 32 3e 7d b4 0e 3e
       -0.015996438 0.0049472447 0.17414641 0.13936038
000040 99 41 a5 bd fc ea 25 bd f0 35 55 3c 90 b7 ba 3c
       -0.080691524 -0.0405073 0.013013348 0.022792608
000050 46 14 90 3d bd 91 d3 3d d6 db 47 3e 81 b2 b4 3d
       0.07035117 0.10330532 0.19517455 0.088231094
000060 4c d4 6a 3d 66 bf 5f 3c 3a 21 5f bd b8 30 94 3d
       0.05733137 0.013656473 -0.054475047 0.07235855
000070 53 ec 1d bd ae 58 8f 3d dc ed 5b 3b 68 dd 20 3e
       -0.038555454 0.06999336 0.0033558523 0.1570946
000080 fc f7 b2 bd be 4c 32 3d 46 02 97 3b 9a a5 c2 bb
       -0.087387055 0.04353022 0.0046084253 -0.0059401514
000090 38 b4 cd bc 63 a4 c5 bc 9b 26 47 bd 2f ae a5 bc
       -0.025110349 -0.024126237 -0.0486208 -0.020224659
0000a0 c6 68 50 3d 9a 24 cc bd 30 bb 8e 3d 85 11 0e be
       0.05088117 -0.09967919 0.06969297 -0.1387387
0000b0 22 8c 78 bd b6 82 5f 3d 64 48 0f 3d 4c 47 b2 bd
       -0.060680516 0.054568015 0.034981146 -0.08705005
0000c0 3c 61 3c bc c6 6d 3e bd 45 a9 d9 bd fc a5 44 bc
       -0.011497792 -0.046491407 -0.10627989 -0.012002464
0000d0 5b 33 65 3c 5e 71 7f 3d 15 7b b8 bd fd 48 be 3c
       0.013989295 0.062363975 -0.09007851 0.023228163
0000e0 13 0a b5 3d 8c 8e c4 3d 11 c5 6b 3d fb 9b a9 39
       0.08839812 0.09597501 0.057560984 0.00032350406
0000f0 66 4b 38 3c 7e 62 4f 3c 72 a0 1b 3e 48 71 d7 bc
       0.011248445 0.01265776 0.15197924 -0.026299134
000100 7c 71 96 39 98 20 be bc a8 e9 90 3d 7d c2 d3 bd
       0.00028694782 -0.023208901 0.070758164 -0.1033983
000110 4a b4 a6 3b e0 97 e9 3c 88 8e 4f 3e c7 89 1f 3d
       0.00508741 0.028514802 0.20269215 0.038949754
000120 3d 21 00 3e 97 35 92 bd fc 27 50 3d 5f b5 87 bd
       0.1251268 -0.07139128 0.050819382 -0.06626391
000130 ea c0 db ba 70 c6 e9 bc 98 63 22 be d4 18 34 bd
       -0.0016765867 -0.028537005 -0.15858305 -0.04396899
000140 ff 52 94 bc ff b8 86 3c 4b a1 97 3c 67 06 03 3d
       -0.018105982 0.016445635 0.018509528 0.031988528
000150 f1 cd 79 3c 42 db d2 bc 77 3d 81 3d ad e3 cf bc
       0.015246854 -0.025739316 0.063105516 -0.025377119
000160 cb 4e a7 b8 08 27 83 3d 90 56 79 3d 19 1a ea 3d
       -7.977857e-05 0.06403929 0.060873568 0.11430759
000170 4f 0a 8b 3d 4b bb 91 3d d0 6b 90 bc b1 b1 0c 3c
       0.067890756 0.071158014 -0.017629534 0.008587287
000180 f1 eb 24 3e ab 76 1e 3d 5d 64 43 3d a0 60 30 3d
       0.1610563 0.03868739 0.047703136 0.0430609
000190 e1 d0 78 bc b7 52 b7 3c 30 1c ef 3c ed 95 34 bd
       -0.015186519 0.022378309 0.029188246 -0.044088293
0001a0 e4 1c 52 3d 9e f6 bb 39 c1 d0 38 3d 9a 57 55 bc
       0.051297083 0.00035851164 0.04512096 -0.013021374
0001b0 c2 53 e0 3d f9 9f f7 3d e4 51 1a 3e 84 a7 ad 3d
       0.109534755 0.12091059 0.15070301 0.08479217
0001c0 23 37 9a bc 0a f7 33 bd b5 80 0f 3e 76 5c 09 3d
       -0.01882512 -0.043936767 0.14013942 0.033535443
0001d0 ba f5 98 3d 4b e8 0e bc 27 a3 b6 bd e0 49 25 bd
       0.074687436 -0.008722375 -0.089178376 -0.040353656

fc2.weight f4 [84, 120]
000000 37 bf 02 bc 75 a9 a9 bc 47 7e 6b bd db 60 ba bd
       -0.0079801595 -0.020710686 -0.057493474 -0.09100505
000010 4e b1 26 bc 8f 43 9c 3d c2 68 72 bd 89 1b 8a bc
       -0.010174109 0.07630073 -0.059181936 -0.016858833
000020 d3 6b 81 bd 87 21 98 bd 73 6a 6e 3c ce 79 4e 3d
       -0.06319394 -0.0742827 0.014551747 0.05040913
000030 b6 b2 92 3d 44 44 07 3d 60 60 dd 3d 56 99 a6 3c
       0.07162993 0.033024088 0.10809398 0.020336788
000040 7c 2e b5 3d b3 4a e5 bc 52 27 28 3c e0 f9 0c be
       0.08846757 -0.02798972 0.010263281 -0.13767195
000050 2b 52 19 bd 0c f7 ce bd e9 06 f1 bd d5 95 17 3d
       -0.037431877 -0.10105714 -0.11768896 0.037008125
000060 38 ae 7c 3c 72 40 87 3d 4b 9c 65 bd bf bb 4d bd
       0.015422396 0.06604089 -0.056057256 -0.050227877
000070 03 6f be bd dc 81 3f bd c4 30 98 bd db a6 4a 3d
       -0.092985176 -0.046754703 -0.07431176 0.049475532
000080 34 97 de 3b 92 12 be 3c 21 0d 43 3d 5e b5 98 bd
       0.006792927 0.023202214 0.047619943 -0.07456468
000090 01 de 0b be 65 ee dd ba f6 f3 99 bd 74 d6 37 3d
       -0.13658907 -0.0016932009 -0.07517235 0.044882253
0000a0 5a f5 0e 3e 06 9f 2e 39 75 88 10 bd e2 2a 02 bd
       0.13960782 0.00016653174 -0.035286386 -0.031779177
0000b0 ff 89 1b 3d 7d 05 9a 3d bb a9 9f bd 94 60 93 3c
       0.0379734 0.07520578 -0.077960454 0.017990388
0000c0 ab d8 99 bd b5 34 04 bd da a1 7d bd 40 e6 e6 bc
       -0.07512029 -0.032276828 -0.06192193 -0.028185964
0000d0 40 9c bc 3d 71 ba d3 3d 49 c5 14 3e 50 df 1b bd
       0.0920949 0.10338295 0.14528383 -0.038054764
0000e0 d5 cc c5 3d bf 32 8d 3d 9d fe 89 3d 9f 7b d6 3d
       0.09658209 0.06894445 0.06738017 0.104727976
0000f0 41 a1 c1 bc c6 d9 5d 3b 7e 5d 78 bd 8c aa 84 3d
       -0.023636462 0.0033851727 -0.060636036 0.06477842
000100 03 82 c2 3c f7 16 fb 3c ea 3a 43 3d 72 c3 b2 bc
       0.023743635 0.030650599 0.047663607 -0.021821711
000110 e8 46 47 bd 26 bf 91 3c 31 7f 7e bd 09 a4 8b 3c
       -0.048651606 0.017791342 -0.062133018 0.017045991
000120 cf f3 39 3d 4c 4f 9e bc 7a 75 45 3d d9 71 b7 bc
       0.04539853 -0.019324921 0.048207738 -0.022393154
000130 a0 ba 0e be 30 f7 0e 3c 5d 96 72 bd 2a fa 3d bd
       -0.1393838 0.008725926 -0.05922543 -0.046381153
000140 e8 eb 7e 3d 5a 8a 6d 3d 1b 64 d1 bc bd 0e df bd
       0.062236696 0.05799327 -0.02556043 -0.10891483
000150 78 54 a5 3d 01 16 d2 bd 5f 7b 5f bd 35 eb d6 bd
       0.08072752 -0.10258103 -0.054561015 -0.10494081
000160 ae 02 e0 bb 2b 7b bb 3d bb b7 07 3e 67 8d af bd
       -0.006836257 0.09154352 0.13253681 -0.08571892
000170 db 0d d9 bd 95 47 bd 3d 2a 0a c2 bc 83 30 e1 bd
       -0.10598346 0.09242169 -0.023686487 -0.10995581
000180 3c 13 58 bc 55 00 a1 3d 27 f9 94 3d 36 89 a9 3d
       -0.01318818 0.078613915 0.072740845 0.08278124
000190 84 36 47 bd 3e 1c f8 3c 33 a4 07 3d e2 f8 de 3d
       -0.048635975 0.030286904 0.033115577 0.108873144
0001a0 4d 8f 51 3d 67 98 0a be 84 0f ac 3d d3 59 2c 3d
       0.051162053 -0.135347 0.08401397 0.04207785
0001b0 1c 8e 06 3c d7 cd 8a bd b5 2b b3 3d 1c 04 9a 3d
       0.008212592 -0.06777542 0.08748571 0.07520315
0001c0 bb 65 28 3d b3 74 4f 3d d3 1a 37 3e af 39 c6 3d
       0.041112643 0.050648402 0.17881326 0.09678971
0001d0 03 e3 72 bb 0b f6 a9 bc 1c fc 67 bd f5 b6 2f be
       -0.003706158 -0.020747205 -0.056636915 -0.17159636
0001e0 5e dc 28 3d 13 bb 85 3d ea aa 2e 3d 6f a4 ce bd
       0.041225784 0.06529822 0.042643465 -0.10089957
0001f0 49 75 07 3e d3 7b e0 3d c9 fe bb bd fc 6c 0a be
       0.13228334 0.109611176 -0.09179456 -0.13518137
000200 39 a5 c0 3c fe 93 1b 3d 90 12 b9 bc e3 0e 43 bc
       0.023516284 0.037982933 -0.02259186 -0.011905405
000210 28 69 9e 3d 43 af e9 bc f5 f0 a8 3d 26 34 71 3c
       0.07734901 -0.028525954 0.08249084 0.014721906
000220 be 92 a5 bd 73 a5 80 bd c5 43 e5 3d b3 4e 0a be
       -0.080846295 -0.06281557 0.11194567 -0.13506584
000230 0c 5e a9 ba 8d 40 cd 3c ab f1 a8 3d 65 5a 58 3d
       -0.0012921705 0.025055194 0.082492195 0.052820582
000240 77 41 94 bd 17 41 b4 bd d2 84 c3 bd bb 3e b8 3d
       -0.07239049 -0.088014774 -0.09546818 0.0899634
000250 87 7f a5 bd bd 59 4c 3d 8b fd 62 3d e6 98 43 bd
       -0.080809645 0.04989027 0.05541758 -0.047753237
000260 37 4c 85 3d 5f ee 6b 3d 76 31 1d 3e e3 b1 97 3d
       0.065086775 0.057600375 0.15350899 0.07406976
000270 ed d4 df 3c 2f 0d 50 3d 6e de f7 3c 7b d8 25 3d
       0.02732321 0.050793823 0.03025743 0.040489655
000280 91 99 04 be 94 50 b9 bd ac 54 69 bb a0 be a4 bd
       -0.12949206 -0.09048572 -0.0035603447 -0.08044171
000290 c7 72 bc bd 61 de d9 3c b8 e3 8d bd 9b 5c 15 bd
       -0.092015795 0.026595296 -0.069281995 -0.03646527
0002a0 b6 99 f0 39 58 e0 90 3d 7c 40 d5 bd 3d ae bd bd
       0.0004589089 0.0707404 -0.1041269 -0.09261749
0002b0 f9 e9 da bd bc 28 07 3d e9 b0 bd bd 2e 7d 28 3c
       -0.10689158 0.03299783 -0.092622586 0.010283751
0002c0 5b 81 a9 bd aa fe bc bc 31 88 b3 bd 16 7c bd bd
       -0.08276626 -0.023070652 -0.08766211 -0.09252183
0002d0 ae ad 89 bd d3 74 d5 bc 35 61 06 3e 24 66 12 bc
       -0.0672258 -0.026056683 0.13123019 -0.008935485
0002e0 9b 3e 4d bd c1 a1 ac ba f8 6a 2e bc 8e 9e 4e bd
       -0.050108533 -0.0013170765 -0.0106456205 -0.05044418
0002f0 b0 78 83 3c eb 7a 86 3c fc 69 a4 bd 5b a2 ee bb
       0.01604876 0.016416034 -0.080280274 -0.007282538
000300 b0 14 4c bd 04 c2 df bd 73 60 1d 3d be bc 89 bd
       -0.049824417 -0.109256774 0.03842206 -0.06725453
000310 6e 45 0d 3d df 9b 05 bd ee 3d 3a bd 2f eb 5e bd
       0.03449004 -0.032619353 -0.045469217 -0.054423507
000320 d2 41 26 3d 5c 5a f4 3b ee c4 44 3d 87 e2 58 bd
       0.040590115 0.0074570607 0.04803937 -0.05295041
000330 ed 49 94 bd b9 30 1e bd 6a ad 0e 3d 0b 84 9d 3d
       -0.07240663 -0.038620684 0.03483335 0.07691201
000340 3e 5f 95 3d 75 9a ec bc 94 fd f6 ba 93 80 01 be
       0.07293557 -0.028882245 -0.0018843883 -0.12646703
000350 19 85 bb 3d 7c 6d 1e 3b 9f 12 a1 bc 3d d1 b5 bd
       0.09156246 0.0024174144 -0.0196622 -0.088778
000360 e7 8e 08 3d c4 03 1b bd b7 a4 9c 3d fa a4 c5 3d
       0.033339407 -0.037845388 0.07648604 0.096506074
000370 14 8b 03 3d f9 31 1b bd 15 3f 32 3d ae 3a 1e 3e
       0.032115057 -0.037889455 0.04351719 0.15452072
000380 d6 af be 3c 7a 87 88 bc c4 76 3c 3d 73 e5 81 3d
       0.023277204 -0.016666163 0.0460117 0.06342592
000390 4f 1c 22 3e ee db 5c 3b e4 1b a7 3d 5e 3a 9e bd
       0.15831111 0.0033700424 0.081596166 -0.077259764
0003a0 73 22 07 3c 64 bd af 3d a6 7d 06 3e 3f 94 8e bc
       0.008247959 0.08581045 0.13133869 -0.017404674
0003b0 5e e0 62 3d b4 f6 87 bd 60 6b c8 bc b0 5b 1d 3d
       0.055389754 -0.06638852 -0.024465263 0.03841752
0003c0 87 38 88 3d 32 94 bf 3d 77 42 8b bd 6b c7 af bc
       0.06651407 0.09354438 -0.067997865 -0.021457395
0003d0 77 1d fa bb 4a 3f 9a bd 5e 60 9d bb 73 18 d8 bd
       -0.007632907 -0.07531603 -0.0048027476 -0.10551538
0003e0 d4 04 46 3d 52 fd 3c 3c 2a e8 92 3d 3c b8 7e 3d
       0.04834445 0.011535006 0.07173188 0.06218742
0003f0 c4 dd af 3c 79 2a c7 3c cd d9 c1 bd 83 de b9 bc
       0.02146805 0.024312245 -0.0946537 -0.02268911

fc2.bias f4 [84]
000000 b4 ad 5e 3e e2 f7 bf 3e c4 cb 2c 3d b5 af 20 be
       0.2174595 0.37493807 0.042186514 -0.15692027
000010 f4 36 27 be 41 69 ea bd 87 e9 83 3e 3a 51 1f bd
       -0.16329557 -0.11445857 0.25764105 -0.038895823
000020 84 6f 31 bc 7c 09 bd 3d 15 1b 36 3e 78 11 bb 3d
       -0.01082981 0.092303246 0.17783768 0.09134191
000030 40 7f 8a 3e a2 3a 8a 3e 12 cb 60 3d 55 bc 2f 3e
       0.2705021 0.26997858 0.054881163 0.17161687
000040 3f 79 90 3d 9e ca 3c bd c4 c0 bf bc 88 10 eb bd
       0.07054376 -0.04609167 -0.023407348 -0.114777625
000050 53 eb c4 3d fc ba c1 3d 9d f8 16 3e 5a d5 0a bd
       0.09615197 0.094594926 0.14743276 -0.033894874
000060 b7 e9 90 bd 6d 62 e5 bd c5 28 93 3d 9d 6c 9e 3d
       -0.070758276 -0.11200414 0.071855105 0.0773556
000070 a0 83 8d 3e 9d 85 68 3e a2 56 01 be d2 81 f3 3d
       0.27639484 0.2270722 -0.12630704 0.11889996
000080 ab c7 33 3c 98 78 d7 3c ed 8c 4b 3d 26 ed 19 3d
       0.0109728975 0.02630262 0.049694944 0.037579678
000090 12 5f 39 bd f3 e8 1b 3e a9 e3 65 3d 57 ad 8e 3e
       -0.04525668 0.15225582 0.056125317 0.27866623
0000a0 16 62 2d 3e 0e 28 98 3c c9 5a 89 bd b9 9c 01 bc
       0.16931948 0.018573787 -0.06706769 -0.007910901
0000b0 2c 15 af bd 4b fa 5b 3e 51 4d bd 3e c1 28 29 3e
       -0.0854896 0.21482198 0.3697305 0.16519453
0000c0 3b ca 22 bd 98 05 82 bd 8d 3b 7e 3e dd ec d4 bd
       -0.039743643 -0.06348723 0.24827404 -0.103967406
0000d0 df 51 3f 3d 0a d6 e7 37 b9 48 81 3e 86 88 c1 3d
       0.046708938 2.7637016e-05 0.25250795 0.09449868
0000e0 67 2b 15 3d 45 1b 7f 3e 96 09 18 bd 19 1b 9b bd
       0.036418345 0.24912746 -0.037118517 -0.07573528
0000f0 14 fd 71 3d 50 9a 87 3e a7 0d 39 bd b6 ef 7a 3c
       0.059079245 0.2648492 -0.045179036 0.015315941
000100 30 e2 13 bd 08 f1 7d 3e 95 14 70 3d ac c1 f3 3d
       -0.03610438 0.24798977 0.05861338 0.11902174
000110 20 f5 91 b9 41 45 4f bc cf c5 2f 3e fc f7 3d bd
       -0.00027839188 -0.012650789 0.17165302 -0.046379074
000120 63 7e 1d bd 75 eb d8 bd 2c d9 71 bd bc ec 6b bd
       -0.03845061 -0.10591785 -0.059045002 -0.057598814
000130 bf b5 af 3d a6 dc 45 bd 22 aa 85 3e aa c9 71 3e
       0.08579587 -0.04830613 0.26106364 0.23612085
000140 6a 3f a3 3c 70 c1 84 bd 5c 49 02 3e f0 83 af 3d
       0.0199277 -0.06482208 0.12723297 0.08570087

fc3.weight f4 [10, 84]
000000 af 8d 84 3d 3b e4 89 be 1b 30 de 3b bf b0 0e 3e
       0.064723365 -0.2693194 0.006780637 0.13934611
000010 a2 ea 95 bd f1 f8 06 3e c2 f6 87 3e 7a 71 d6 3d
       -0.07320143 0.13180901 0.2655545 0.10470863
000020 7f d3 4f 3c 16 d9 21 ba 48 2f d4 bd 23 c2 b2 bd
       0.012684702 -0.0006174011 -0.10360581 -0.08728435
000030 ce 27 86 3e 50 94 2b be 96 07 89 3e 3c 00 1e be
       0.26202244 -0.16755795 0.267636 -0.15429777
000040 b9 2e 12 be df bf e5 3d e6 b7 6b 3d 7b b0 b7 bd
       -0.14275636 0.11218237 0.057548426 -0.08969208
000050 7d ca 6a 3d 1e 7b d8 3d 3d bf b0 bd 4d 60 ff 3d
       0.057322014 0.10570358 -0.08630226 0.1246954
000060 88 78 cc 3c 6a 0e 5e bb ee 0f 35 3e b8 da e2 3d
       0.024959818 -0.0033883103 0.17681858 0.110768735
000070 bf 77 be 3d b6 f3 82 3d e5 96 66 3e dd 3f 02 3e
       0.093001835 0.063941404 0.22518499 0.12719674
000080 96 7c ea bd 69 39 f4 3c 2f 29 34 3e 83 9d b4 bd
       -0.11449544 0.029812532 0.17593835 -0.088191055
000090 1b ea bb bc 8f 28 00 3e b9 d1 f4 3d c4 9d f3 bc
       -0.022938779 0.12515472 0.11954064 -0.029738314
0000a0 9e 42 f1 ba 8e 81 2c bc 46 1f 40 3d 97 fc bb 3c
       -0.0018406694 -0.010528935 0.046904825 0.022947593
0000b0 01 94 35 3e 66 6b a2 be cb 98 9a bd 66 cd 31 be
       0.1773224 -0.31722564 -0.07548674 -0.1736351
0000c0 6f f6 b0 bd 96 0a ff 3c 33 76 81 3e 75 2e 11 bc
       -0.086407535 0.031132977 0.2528549 -0.008861174
0000d0 84 d5 f7 bd 87 85 db 3c d3 a3 4c be 12 d1 9a bd
       -0.12101272 0.02679707 -0.19984369 -0.07559408
0000e0 9a d4 c0 3c 4b 51 49 bd 0d 23 52 3e 8b bf b0 3d
       0.023538876 -0.049149793 0.20521183 0.08630284
0000f0 a3 6f 53 3e 7a 93 cb 3d 2a ac b0 bd ce bb 1c 3e
       0.20648055 0.09940238 -0.08626588 0.15306017
000100 0c 66 8f 3d a5 a5 57 be 1f 94 7c 3d b4 e9 db 3d
       0.07001886 -0.21059282 0.061664697 0.10737935
000110 f5 a6 16 3d 15 c4 a1 3d 0b 87 4c 3e 0a 3b 25 3d
       0.036780316 0.07898728 0.1997339 0.040339507
000120 35 c3 14 3c ab 1a 3b bd dd 14 28 3d bd b1 29 bc
       0.009079744 -0.04567973 0.04103552 -0.0103573175
000130 d3 56 84 3d 60 ca 62 3d a8 a6 ac 3d 09 e4 1c be
       0.06461873 0.05536878 0.08430225 -0.15321364
000140 5b 41 0c be 40 89 e8 bd 44 33 f6 bd fb 29 bf bd
       -0.13696806 -0.11354303 -0.12021497 -0.09334179
000150 e0 49 83 bd 8a ee 56 be b4 a4 83 3c 55 14 81 3c
       -0.06410575 -0.20989433 0.016069748 0.015756765
000160 00 3c 40 3c cf 33 61 3e c1 93 69 bd cd c6 73 3d
       0.011733055 0.2199242 -0.057025675 0.059515763
000170 1b 48 47 3e c8 e4 80 bd 99 d5 c2 bd 17 75 98 3e
       0.194611 -0.062936366 -0.09513397 0.29776832
000180 3f 26 b1 3c f7 b2 3a be 3c b5 13 be e2 70 27 be
       0.021624682 -0.18232332 -0.14424604 -0.16351655
000190 f5 d6 3f bd a2 47 6d 3c 52 c6 5f bd b5 73 cb 3d
       -0.04683586 0.014482411 -0.054632492 0.09934179
0001a0 7c 8d 23 be 78 7d a8 bd 5c 76 bf bd b1 3f ae bd
       -0.15971941 -0.08227056 -0.09348747 -0.08508242
0001b0 4e c4 a1 3d ec 02 d1 3d 56 70 61 be 19 62 60 bd
       0.0789877 0.102056354 -0.22015509 -0.054781053
0001c0 5a ff 27 be 83 b9 21 3c 43 bd 56 3e f3 c1 3e bd
       -0.16406003 0.00987089 0.20970635 -0.046571683
0001d0 c4 c3 fa 3d 87 3f 5d 3d d9 72 fb 3d 6a 6d f3 3c
       0.122443706 0.054015663 0.12277765 0.029715259
0001e0 04 f5 a1 3e 13 50 97 3d 70 b8 4d 3d 5c 8a 1c be
       0.31632245 0.0738832 0.05022472 -0.15287155
0001f0 41 99 31 be 73 fa 91 3e 17 9c cb bc e8 fb 50 bd
       -0.17343618 0.2851139 -0.024854703 -0.051021487
000200 69 2b 08 be ef c7 09 be b9 75 1b be a8 67 86 3d
       -0.1329781 -0.13455175 -0.15181626 0.065627396
000210 55 43 a0 3c e9 3a 03 3d 05 4b 62 be 16 fd 9f 3b
       0.019563356 0.032038603 -0.2209893 0.004882465
000220 47 da 17 be fb 9b 21 bc 35 58 d1 be 37 84 a0 3d
       -0.1482936 -0.009863849 -0.4088761 0.07837718
000230 4b 92 6e be 14 cf 64 3d b3 d7 6d 3e 0f c0 66 bc
       -0.23297994 0.055861548 0.23226814 -0.014083876
000240 fa c2 df 3d 77 09 06 be 09 62 e9 bd f3 c7 99 3e
       0.10925861 -0.13089548 -0.11395652 0.30035362
000250 02 23 8d bc 23 0f a5 bd 21 b6 88 3d 93 aa 9c bd
       -0.017228607 -0.08059528 0.06675363 -0.07649722
000260 b2 ab 03 be 19 df f3 3c b5 f8 17 3e 31 89 a9 3d
       -0.12858465 0.029769467 0.14840968 0.0827812
000270 24 ae d7 3d 83 92 0e 3e 4b 1f 93 3e 7e 67 31 bd
       0.105312616 0.13923077 0.28734812 -0.04331159
000280 52 55 9f bd d7 57 9d bd 05 73 de 3d 9a 31 d2 bd
       -0.077799454 -0.0768277 0.10861782 -0.10263367
000290 09 dc 6f 3e d0 d5 b0 bd ba 86 b2 3d 8e b4 40 be
       0.2342378 -0.086345315 0.08717103 -0.18818876
0002a0 b9 67 02 be cd bb 0c be f1 32 d4 bc c9 f7 f6 bd
       -0.1273488 -0.13743515 -0.025903197 -0.1205898
0002b0 c7 9d f8 bd 87 e8 dd 3c df 4e 60 3e 4b 54 20 be
       -0.12139469 0.027088417 0.21905087 -0.15657155
0002c0 43 68 8f bd d2 19 f8 3d 08 24 b3 bd 47 4c 75 3b
       -0.07002308 0.121143 -0.08747107 0.0037429498
0002d0 58 1a 06 bd db 23 00 3e 8e ba 08 3e 4c be 1c be
       -0.032739967 0.12513678 0.13352415 -0.15306967
0002e0 f5 f5 c4 bd ff 1a b3 bd 46 f6 07 bd 26 72 f7 bd
       -0.09617225 -0.087453835 -0.03319385 -0.12082319
0002f0 76 ed 87 3e f0 47 5a 3d 23 7f 82 3d 60 a3 aa bd
       0.26548356 0.05329126 0.06371906 -0.083319426
000300 c3 d3 99 3d 2c 8b 1c 3d 84 0b 30 3e 90 7e 28 3d
       0.075110935 0.038218662 0.17191893 0.041136324
000310 de 03 07 3e 13 d0 ef 3d 4b 81 8c 3e 76 ca 15 be
       0.13185069 0.11709609 0.27442393 -0.14628014
000320 ba d1 5c bc 80 ca 23 3e bd ac 1e bc 21 78 e3 3d
       -0.013477737 0.15995216 -0.009684739 0.11106897
000330 64 58 0e be b8 09 e2 3d 15 c3 38 bd dc 51 51 3e
       -0.13900906 0.1103701 -0.04510792 0.20441383
000340 41 cf 0a 3e dd 11 d2 bd d7 16 74 3d 9d e1 3b 3e
       0.13555624 -0.102573134 0.059592094 0.18347783
000350 08 7e db bd d4 d4 35 3e 11 0b cb 3d d4 71 ec bc
       -0.10717398 0.17756969 0.0991422 -0.028862871
000360 a4 e8 d0 bd da 0f 2c bd 39 f5 7a 3e 4f d3 86 bc
       -0.10200623 -0.042007305 0.24507608 -0.016458182
000370 d6 2e f9 bb 3d 73 db 3d da 53 39 3c 95 c4 06 3e
       -0.00760446 0.10715339 0.011311496 0.13160928
000380 61 94 aa bb dc 55 62 3c d0 91 23 be 50 f3 72 3d
       -0.0052056764 0.013814416 -0.15973592 0.059314072
000390 a4 02 19 be 96 4d 8e 3e 3b 17 88 bd 65 f3 13 3d
       -0.14942414 0.27793568 -0.06645056 0.03612079
0003a0 cd 6d a3 3d 4a 86 c9 3d ae d7 3c bd ee b5 57 bc
       0.07979927 0.09840067 -0.046104126 -0.013165934
0003b0 68 81 ea bc 87 52 aa bc 07 46 d8 bd d1 5b 8a bd
       -0.028626159 -0.020791305 -0.10560232 -0.06755794
0003c0 bd 23 20 bc 0d 46 74 3e 98 a9 58 be f2 d5 7c bd
       -0.009774146 0.23854847 -0.21158445 -0.06172747
0003d0 6f 75 44 3e ca 0e af bd b2 2f de bd f1 ef 24 3e
       0.19185422 -0.08547743 -0.10848941 0.16107155
0003e0 2e 5e 0c bd 26 50 99 3d cf 92 15 bd c9 08 f0 3d
       -0.034269504 0.0748599 -0.03651696 0.11720426
0003f0 a9 c2 bb bc 07 ba 0d 3e 8c f0 c1 bd 76 a2 b8 bd
       -0.02291997 0.13840495 -0.09469709 -0.09015362

fc3.bias f4 [10]
000000 04 50 34 be 10 1a c2 be 0c db 15 3e b7 a7 b5 3e
       -0.17608649 -0.3791051 0.14634341 0.3547952
000010 cd d3 f7 3e 95 73 11 be 3e c4 0a 3e b0 15 6c be
       0.4840378 -0.14204247 0.13551423 -0.23055148
000020 b7 1e a6 3e 8b 70 a3 be
       0.3244531 -0.319218
