HW5/dropout/cifar_net.pth (torch, 250887 bytes, 10 tensors)

conv1.weight f4 [6, 3, 5, 5]
0	0xbeb5f65b	-0.35539517
1	0xbec32cda	-0.38120157
2	0xbef2df3f	-0.47435948
3	0xbed3b065	-0.41345516
4	0xbee9f689	-0.45695904
5	0xbd3ab78c	-0.0455852
6	0xbe34378e	-0.17599317
7	0xbe7424b7	-0.2384213
8	0xbe274cf4	-0.16337949
9	0xbd5c5d67	-0.053800013
10	0x3e92d9cd	0.28681794
11	0x3eab846b	0.33499464
12	0x3f1a5f9a	0.60302126
13	0x3ec6c1b7	0.38819668
14	0x3e9e1d90	0.3088193
15	0x3e3e6aaa	0.18595377
16	0x3edba414	0.4289862
17	0x3eef42ae	0.4673056
18	0x3ebc66bc	0.3679713
19	0x3e6f27a2	0.23354962
20	0xbcd69052	-0.026191864
21	0x3be23429	0.0069031906
22	0x3d0247f1	0.03180689
23	0x3dbcb983	0.09215071
24	0x3cfe4aae	0.03104147
25	0xbd4fa5c9	-0.050695214
26	0xbdf1b698	-0.11802405
27	0xbdd464ef	-0.10370814
28	0x3df172e5	0.117894925
29	0x3dbe9e26	0.09307508
30	0xbdfad425	-0.122474946
31	0xbd3b5bb5	-0.045741756
32	0xbe747d2a	-0.23875871
33	0xbdd154f5	-0.102212824
34	0xbc122af0	-0.00892137
35	0x3e5f1289	0.21784414
36	0x3e85927e	0.26088327
37	0x3e58ddee	0.2117841
38	0x3e8aa243	0.2707692
39	0x3def2018	0.11676043
40	0x3db3aaa0	0.087727785
41	0x3ceeff83	0.029174572
42	0xbd82166f	-0.06351935
43	0x3caef730	0.021358103
44	0xbe1f9c8c	-0.15587062
45	0xbe86fdfd	-0.26365653
46	0xbee52b1f	-0.4475946
47	0xbeef15ae	-0.46696228
48	0xbe809be0	-0.25118923
49	0xbe7659ba	-0.24057665
50	0x3e490006	0.19628915
51	0x3e3e3c75	0.1857775
52	0x3e790e5a	0.24321881
53	0x3e42a4f1	0.19008233
54	0x3ed51a7f	0.41621777
55	0xbb288779	-0.0025715514
56	0xbdb2e6b7	-0.087354116
57	0x3d24a8a7	0.040199902
58	0xbe0b7955	-0.13620503
59	0x3b959cd4	0.0045658145
60	0x3dca25d6	0.09870498
61	0x3d8f3ad1	0.0699364
62	0x3d980219	0.07422275
63	0x3dc16c84	0.09444526
64	0x3df686e3	0.12037446
65	0x3dd069e1	0.10176445
66	0x3cfe6c52	0.03105751
67	0xbe4ae2d3	-0.19813089
68	0xbe0dac4c	-0.13835257
69	0xbdc0d54e	-0.09415685
70	0xbe29dd0f	-0.16588233
71	0xbe24ffda	-0.16113225
72	0xbe5ec256	-0.21753821
73	0xbe3b375d	-0.18282838
74	0x3d4d2a4f	0.050089177
75	0xbd77e93d	-0.060525168
76	0xbd9f4c1f	-0.07778191
77	0x3db71440	0.08939409
78	0x3c82e637	0.015978916
79	0xbd3b0ee9	-0.045668516
80	0x3ca05281	0.01957059
81	0x3e42e685	0.19033249
82	0xbe1a9589	-0.15096106
83	0xbe604717	-0.21902119
84	0x3bd215cd	0.0064112903
85	0x3e938d86	0.2881891
86	0x3e1cda55	0.15317662
87	0xbf1f049c	-0.6211641
88	0xbe4fc7de	-0.20291087
89	0x3ecd8c01	0.40145877
90	0x3ef33252	0.4749933
91	0x3cb265bc	0.021777026
92	0xbef3ecf6	-0.47641724
93	0xbd8c0cbe	-0.06838368
94	0x3e240981	0.1601925
95	0x3de701b5	0.112796225
96	0xbdabc59d	-0.08387301
97	0xbe7effe1	-0.24902298
98	0xbd84436b	-0.064581715
99	0xbd3cc137	-0.0460827
100	0xbbe7d7a6	-0.007075268
101	0x3ae80d32	0.0017704128
102	0x3d78934a	0.06068734
103	0x3c4258aa	0.0118619595
104	0xbda6f2da	-0.08151789
105	0x3e0fadcd	0.14031143
106	0x3dfa4b6d	0.122214176
107	0xbe65d1ba	-0.22443286
108	0xbde0fbdc	-0.10985538
109	0x3e39c790	0.18142533
110	0x3ef9c309	0.48781613
111	0x3e2af1be	0.1669378
112	0xbf1abf22	-0.60447896
113	0xbdbdee91	-0.092740186
114	0x3f022613	0.50839347
115	0x3eeb7710	0.45989275
116	0x3c78992d	0.015173239
117	0xbef57e10	-0.4794774
118	0xbd9cfba0	-0.07665181
119	0x3ec9b3a8	0.3939488
120	0x3df83141	0.121187694
121	0xbd82ef24	-0.06393269
122	0xbe51c6a8	-0.20485938
123	0x3de10f77	0.10989278
124	0x3e9d26c4	0.30693638
125	0xbd7a7813	-0.061149668
126	0xbe265293	-0.16242437
127	0x3b297287	0.0025855617
128	0xbd8f7294	-0.07004276
129	0xbe10b503	-0.1413155
130	0x3dc876c4	0.09788278
131	0x3dae95c3	0.085246585
132	0xbe6e414d	-0.23267098
133	0xbdecaf9d	-0.11556933
134	0x3e6c70f3	0.23089962
135	0x3e9fa43b	0.31179985
136	0x3e57f810	0.21090722
137	0xbf246db8	-0.6422992
138	0xbe020bdf	-0.12699841
139	0x3eda2b07	0.42610952
140	0x3e9ca75c	0.30596435
141	0xbdaa4083	-0.08313086
142	0xbeed8f30	-0.46398306
143	0xbdd64487	-0.10462289
144	0x3e9b9e4e	0.30394214
145	0xbd443e6f	-0.047911104
146	0xbdff2099	-0.124573894
147	0xbe583ec3	-0.21117692
148	0xbe13bceb	-0.14427535
149	0xbd978f96	-0.07400434
150	0x3e5ba28e	0.21448728
151	0x3e16194e	0.1465809
152	0x3d999f1f	0.07501053
153	0x3da861c4	0.08221772
154	0x3e703c98	0.23460615
155	0xbd37ffb3	-0.04492159
156	0xbddd0f75	-0.10793964
157	0x3d07b8bb	0.033135157
158	0x3da8cb82	0.08241941
159	0x3e819f1a	0.25316697
160	0xbe2e48b1	-0.17019917
161	0xbddb31ea	-0.1070288
162	0x3dc72e7d	0.09725664
163	0x3e1ec3d2	0.15504387
164	0x3d81c1fb	0.06335827
165	0xbbae13ce	-0.0053124195
166	0xbe11b742	-0.14230064
167	0x3e0d57c3	0.1380301
168	0x3c9a752d	0.018854702
169	0x3de7543f	0.112953655
170	0x3d2a2ed5	0.04154857
171	0xbc1bcf06	-0.009509807
172	0xbc468ae9	-0.01211808
173	0x3d223034	0.03959675
174	0x3d177625	0.036977906
175	0xbe6b41dd	-0.22974344
176	0xbe96cd44	-0.2945348
177	0xbe5595e3	-0.20857958
178	0x3ce1ec01	0.027578356
179	0x3df2bfab	0.11852964
180	0xbe945237	-0.28968975
181	0xbe61c6c9	-0.22048487
182	0xbc81f4f5	-0.015863875
183	0x3d940329	0.07227165
184	0x3e509fc0	0.2037344
185	0xbe8adbfe	-0.27120966
186	0xbe48c968	-0.1960808
187	0xbdd93c10	-0.10607159
188	0x3d893eed	0.06701455
189	0x3e1e8da2	0.15483716
190	0xbe663c12	-0.22483853
191	0xbe1ffaa3	-0.15622954
192	0x3cf18c40	0.029485822
193	0x3d4f5d90	0.050626338
194	0x3ddc66b0	0.107617736
195	0xbdbe777a	-0.09300132
196	0xbd15b512	-0.036549635
197	0xbd51c6a2	-0.05121482
198	0xbda61118	-0.08108729
199	0x3bf9cbf5	0.0076231905
200	0xbe75f36c	-0.2401864
201	0xbe5f6bce	-0.21818468
202	0xbe095cba	-0.13414279
203	0x3e3cabfb	0.1842498
204	0x3e4db9f0	0.20090461
205	0xbe6138dd	-0.21994348
206	0xbe8853ff	-0.26626584
207	0xbc73630b	-0.014855157
208	0x3e4d1ce1	0.20030548
209	0x3e887a1e	0.26655668
210	0xbe326e1d	-0.17424817
211	0xbe3b5e53	-0.182977
212	0x3dcdee3c	0.10055205
213	0x3ea0edab	0.31431326
214	0x3eb5b6ff	0.35491177
215	0xbdcd8cd5	-0.10036627
216	0xbdcf9d20	-0.10137391
217	0x3d40ae7f	0.047041412
218	0x3e454f6f	0.19268583
219	0x3e0ac485	0.13551529
220	0xb9aae135	-0.0003259272
221	0x3dbc429a	0.09192391
222	0x3e4a45ea	0.19753233
223	0x3e745a59	0.2386259
224	0x3e42d23c	0.1902551
225	0xbde56f3a	-0.112028554
226	0xbe28dac1	-0.16489698
227	0xbd17c043	-0.03704859
228	0xbc05e4f0	-0.008172259
229	0xbbce7c05	-0.0063014054
230	0xbe93e89c	-0.28888404
231	0xbda8a2be	-0.082341656
232	0x3c50ce36	0.012744477
233	0x3bc51f50	0.0060156956
234	0xbc90feef	-0.017699687
235	0xbe4df813	-0.20114164
236	0xbe30abd8	-0.17253053
237	0xbd4fa6b3	-0.050696086
238	0xbdfac341	-0.12244273
239	0xbe05be66	-0.13060912
240	0xbead362e	-0.33830398
241	0xbe47b392	-0.19502094
242	0xbdf7b76f	-0.12095534
243	0xbe19a36b	-0.15003745
244	0xbe75b8ba	-0.23996249
245	0xbe717ac6	-0.2358199
246	0xbe49dba9	-0.197127
247	0xbdcbffb7	-0.09960883
248	0xbdc65ee1	-0.096860655
249	0xbe5d7abc	-0.2162885
250	0xbd047025	-0.03233351
251	0x3d1f5ac8	0.038904935
252	0xbcbefb75	-0.023313263
253	0x3d11905f	0.035538074
254	0xbdb687b5	-0.08912603
255	0x3d09d327	0.033648636

conv1.bias f4 [6]
0	0xbf1da2af	-0.6157636
1	0xbe4e775d	-0.20162721
2	0xbe816cbc	-0.2527827
3	0x3ea49987	0.32148382
4	0xbe54c9f1	-0.2078016
5	0xbea764d0	-0.326941

conv2.weight f4 [16, 6, 5, 5]
0	0x3e5be3e4	0.21473652
1	0x3e5fa4ad	0.21840163
2	0x3dea5241	0.1144147
3	0x3decddfc	0.11565778
4	0x3e092e26	0.1339651
5	0x3df62f3b	0.12020727
6	0x3e0a7ab3	0.13523369
7	0x3d28ad59	0.041180942
8	0x3e43a13a	0.19104472
9	0x3e56f12a	0.20990434
10	0x3be2ad2c	0.0069176164
11	0x3d6a8e1f	0.057264443
12	0xbc807a0f	-0.015683202
13	0x3cae245b	0.02125757
14	0x3da68514	0.081308514
15	0xbd63f876	-0.055656873
16	0xbd8faff2	-0.07015981
17	0x3d07f2ec	0.033190653
18	0xbcce18fe	-0.025158402
19	0xbd5ef6cd	-0.054434586
20	0xbd01e9be	-0.031717055
21	0x3d941239	0.07230038
22	0xbca17b14	-0.019712009
23	0x3c3b7ad3	0.011442858
24	0xbc437583	-0.011929872
25	0x3daf2988	0.08552843
26	0xbcf4139f	-0.029794512
27	0xbc69fd3f	-0.01428157
28	0x3d28c449	0.041202817
29	0xbbfa791d	-0.0076438324
30	0x3e471441	0.1944132
31	0x3d1939d7	0.037408676
32	0xbc838fa4	-0.016059704
33	0xbd27206b	-0.0408024
34	0xb9e248f6	-0.0004316044
35	0x3d0b24cd	0.033970643
36	0xbd907583	-0.070536636
37	0x3d09c69c	0.033636674
38	0xbcfeb111	-0.031090291
39	0xbda3b9b8	-0.079944074
40	0xbd08d095	-0.033402044
41	0xbdce4961	-0.1007259
42	0xbda420ad	-0.08014045
43	0xbd91ccbc	-0.07119128
44	0xbd9aec94	-0.07564655
45	0xbe165011	-0.1467898
46	0xbe323d76	-0.17406258
47	0xbe65d36f	-0.22443937
48	0xbe2ec10d	-0.1706583
49	0xbe962ae4	-0.29329598
50	0x3c35859d	0.011079219
51	0xbcb47423	-0.022028035
52	0xbdc9a64b	-0.09846171
53	0xbd71467f	-0.05890512
54	0xbd37db9b	-0.044887166
55	0xbd381d24	-0.044949666
56	0xbe0c1c59	-0.13682689
57	0xbd8bac35	-0.06819955
58	0xbcf61711	-0.030040296
59	0x3b1d4d16	0.0024002246
60	0x3d016097	0.031586256
61	0xbde521ae	-0.111880645
62	0xbc63dc25	-0.013907467
63	0xbd918998	-0.07106322
64	0x3da4986c	0.08036885
65	0xbd85c25a	-0.0653121
66	0xbd60b129	-0.054856453
67	0xbdd7f605	-0.105449714
68	0xbd90a440	-0.07062578
69	0xbd036471	-0.03207821
70	0xbe120690	-0.14260316
71	0x3ce3b524	0.027796336
72	0xbdf0a294	-0.11749759
73	0xbe0c7027	-0.13714658
74	0xbe209999	-0.15683593
75	0xbd2354ab	-0.039875668
76	0x3dbf1ad4	0.09331289
77	0xbd2c66a7	-0.042090084
78	0x3c9a7dc8	0.018858805
79	0x3c575832	0.013143586
80	0xbe1aa803	-0.15103154
81	0xbc9dda09	-0.019269006
82	0x3d934e49	0.07192666
83	0x3db7885e	0.08961557
84	0x3e0e4fdb	0.1389765
85	0xbe01fa77	-0.12693201
86	0xbe37f512	-0.1796458
87	0xbe4dc3e0	-0.20094252
88	0xbdaf86a7	-0.08570605
89	0xbd7a5c33	-0.061123084
90	0xbd90946e	-0.07059561
91	0x3db55941	0.088549145
92	0x3ce25d55	0.027632395
93	0x3d40956b	0.047017496
94	0x3dad1cb2	0.08452739
95	0x3d362f53	0.044478726
96	0x3db9fd7c	0.090815514
97	0x3b140539	0.002258612
98	0x3d77d7d0	0.06050855
99	0x3da0c1c8	0.07849461
100	0x3e0e618c	0.13904399
101	0x3e18660e	0.14882681
102	0x3d8bf64d	0.068340875
103	0x3d21058c	0.03931193
104	0x3d1878e0	0.03722465
105	0x3d3b6969	0.045754824
106	0x3e39ad2b	0.18132465
107	0x3dc6289d	0.09675715
108	0x3e2094bc	0.15681738
109	0x3d3ea120	0.04654038
110	0x3e46994a	0.19394413
111	0x3e04eb11	0.12980296
112	0xbc3a9a3a	-0.01138931
113	0xbc9f3825	-0.019435951
114	0x3df7b072	0.12094201
115	0xbbfb7e27	-0.0076749506
116	0xbd1aac80	-0.037762165
117	0x3dac409e	0.08410762
118	0x3df8a9e7	0.12141781
119	0x3d6c55dd	0.057699073
120	0x3df67a0c	0.12034997
121	0xbc8db6a6	-0.017299008
122	0x3def4830	0.116836905
123	0x3daf8260	0.08569789
124	0x3cb60f63	0.022224134
125	0xbcad25f1	-0.021136256
126	0xbd314f59	-0.043288562
127	0x3ba6237c	0.005070148
128	0xbdeaebd0	-0.11470759
129	0x3d86649a	0.06562157
130	0x3dfef311	0.12448705
131	0x3e104f55	0.14092763
132	0x3dd54736	0.10413973
133	0x3c62da6f	0.013846024
134	0xbd077d30	-0.033078372
135	0x3dba25b4	0.090892226
136	0x3dc3953f	0.09549951
137	0x3d8e72d5	0.06955496
138	0x3e00f1ab	0.12592189
139	0x3da70e01	0.08156968
140	0xbcee3ec4	-0.029082663
141	0xbc5c80cf	-0.013458445
142	0x3d6235dd	0.05522715
143	0xbcdbf9b6	-0.02685247
144	0x3d90c6ba	0.07069154
145	0xbe1fc210	-0.15601373
146	0xbdc8f7ee	-0.09812914
147	0xbdbfbd08	-0.09362227
148	0xbd72422a	-0.05914513
149	0xbd876e24	-0.066128045
150	0x3d2921ab	0.041291874
151	0xbd829fc1	-0.06378127
152	0xbc9f9898	-0.019481942
153	0xba1f4aa3	-0.00060764904
154	0xbd8ef845	-0.069809474
155	0xbe128750	-0.1430943
156	0xbd5e0d76	-0.054212056
157	0xbdf5cae1	-0.12001587
158	0xbd8e1a93	-0.069386624
159	0xbe033837	-0.12814413
160	0xbcde12c4	-0.027108558
161	0xbdbc409f	-0.09192013
162	0xbd25030e	-0.040286116
163	0xbe23b230	-0.15985942
164	0xbe58f103	-0.21185689
165	0xbce4b269	-0.027917104
166	0xbd5bada5	-0.053632397
167	0xbdeaf7e1	-0.114730604
168	0xbb0aee5d	-0.0021199204
169	0xbd929650	-0.07157576
170	0x39b72fee	0.0003494019
171	0xbd2e0e97	-0.042494383
172	0xbdfc28b3	-0.1231245
173	0xbe193ba1	-0.14964153
174	0xbdd5edd9	-0.104457565
175	0xbdd50d06	-0.10402875
176	0x3ea05f42	0.31322676
177	0x3d60f996	0.054925524
178	0x3d9b6788	0.075881064
179	0x3cad8340	0.021180749
180	0x3df0e96d	0.117632724
181	0x3c8f2c8a	0.017477293
182	0x3e06fec0	0.13183117
183	0xbe1805ad	-0.14845915
184	0xbbfc3cb1	-0.0076976647
185	0x3e829d8c	0.25510824
186	0xbe1fdc66	-0.15611419
187	0x3dd11271	0.102085955
188	0x3c44fbd6	0.012022933
189	0x3d667f36	0.05627366
190	0x3d806432	0.06269111
191	0xbd81230d	-0.063055135
192	0x3d3a6fbe	0.045516722
193	0xbd5e857e	-0.054326527
194	0xbbe560d1	-0.007000067
195	0xbe4a60c7	-0.1976348
196	0xbdabca48	-0.083881915
197	0xbdd1530a	-0.102209166
198	0x3b35f9e1	0.0027767348
199	0xbde5ec1a	-0.112266734
200	0xbd16214b	-0.036652844
201	0xbe34e339	-0.17664804
202	0x3b871ec7	0.004123542
203	0xbde0afdb	-0.10971042
204	0xbd267d2e	-0.040646724
205	0x3cd17a04	0.025570877
206	0xbde12aa9	-0.10994465
207	0xbb13ca6e	-0.0022551077
208	0x3c419518	0.011815332
209	0x3d35fcc3	0.044430505
210	0xbd7cb3e7	-0.061695006
211	0x3e2c09aa	0.16800562
212	0x3d027b55	0.0318559
213	0xbd6421b3	-0.0556962
214	0x3a6666f2	0.0008789144
215	0x3d649fe5	0.05581655
216	0x3e100175	0.14063056
217	0x3b8b00c5	0.004242035
218	0xbd153e00	-0.03643608
219	0x3d817032	0.06320228
220	0xbd1d53e6	-0.03841009
221	0x3caf78da	0.021419931
222	0x3d9a9822	0.07548548
223	0x3d1ce6ad	0.038305927
224	0x3cdadf61	0.026717843
225	0xbdc78af7	-0.09743302
226	0xbd637fc0	-0.055541754
227	0xbdd9ef50	-0.10641348
228	0xbe0fe640	-0.14052677
229	0xbe6bd90a	-0.23032013
230	0xbd801a1c	-0.0625498
231	0xbe1b65ff	-0.15175627
232	0xbe128da8	-0.1431185
233	0xbdec6321	-0.11542345
234	0xbdeb392a	-0.114855126
235	0xbd7cc613	-0.061712336
236	0xbde92d6c	-0.11385617
237	0xbe1a7399	-0.1508316
238	0xbe493b76	-0.19651589
239	0xbe4c78fd	-0.19968028
240	0xba361e4f	-0.00069472654
241	0xbc53cadc	-0.012926783
242	0xbd8572ef	-0.065160625
243	0xbe60470b	-0.219021
244	0xbe4725a4	-0.19447953
245	0xbdf97b25	-0.12181691
246	0xbda7b198	-0.0818817
247	0xbe5aa397	-0.21351467
248	0xbe58af38	-0.2116059
249	0xbe7d55fa	-0.24739829
250	0x3dbc96a1	0.09208418
251	0xbc142678	-0.009042375
252	0xbcce42ad	-0.025178278
253	0xbc33035e	-0.010926096
254	0xbdac9154	-0.08426157
255	0x3e388616	0.180199

conv2.bias f4 [16]
0	0xbe2478fb	-0.16061775
1	0x3e667488	0.2250539
2	0xbcc87526	-0.024469923
3	0xbf3abad2	-0.72941315
4	0x3d96807b	0.073487245
5	0x3ebed9f7	0.3727567
6	0xbef8d866	-0.486026
7	0xbda326a2	-0.07966353
8	0x3ecdb736	0.4017884
9	0xbe920fa4	-0.28527558
10	0x3eeabd70	0.45847654
11	0x3e84cc2d	0.25937024
12	0xbdf49894	-0.119431645
13	0xbe6a15f1	-0.22859932
14	0x3de81da8	0.113337815
15	0x3ef28554	0.47367346

fc1.weight f4 [120, 400]
0	0xbd98e2b7	-0.074651174
1	0x3d293492	0.0413099
2	0x3ca16f53	0.019706404
3	0x3c26340d	0.010144246
4	0xbd140219	-0.036134813
5	0xbd2a791c	-0.041619405
6	0xbd33a9bc	-0.043863043
7	0xbd490a5f	-0.049082156
8	0xb9e97578	-0.00044528744
9	0x3caac042	0.020843629
10	0xbe249c01	-0.16075136
11	0xbd28aae2	-0.04117859
12	0xbdc67683	-0.09690573
13	0xbc51b923	-0.012800488
14	0xbd87a683	-0.066235565
15	0xbe07bf82	-0.13256648
16	0xbd981dad	-0.07427535
17	0xbd2fd1b9	-0.042924616
18	0xbcc9b8cc	-0.02462425
19	0xbd788c35	-0.060680587
20	0xbdc999eb	-0.09843811
21	0x3c28832e	0.010285182
22	0x3ad2c74d	0.0016081125
23	0xbcc0db17	-0.02354197
24	0xbda2eccd	-0.079553224
25	0x3c39240b	0.011300097
26	0x3d1a3612	0.03764922
27	0xbcf85bab	-0.030317148
28	0x3c2a8b02	0.010409119
29	0x3dd1b50c	0.1023961
30	0x3db23877	0.08702176
31	0xbcb4c3b4	-0.022065975
32	0xbcb17c3f	-0.02166569
33	0x3d9d6e71	0.07687081
34	0x3d58396c	0.052789137
35	0x3caaada4	0.020834751
36	0x3d3ced03	0.04612447
37	0x3be37c73	0.0069423257
38	0xbbb2cb80	-0.005456388
39	0x3d68d0ce	0.056839757
40	0xbca022d8	-0.019547865
41	0x3cdf9db5	0.02729688
42	0xbc92ef30	-0.01793632
43	0xbc6f03bd	-0.014588294
44	0x3d3a2c14	0.045452192
45	0x3ce601a4	0.028076954
46	0x3c313fdc	0.010818448
47	0xbc8b0275	-0.016968945
48	0x3d06915e	0.032853477
49	0xbbed2c5d	-0.0072379545
50	0x3d59a63b	0.053137045
51	0x3d8e70dd	0.06955121
52	0x3c8c5c9e	0.017134007
53	0x3c95742a	0.018243868
54	0xbd9b1236	-0.07571833
55	0xbce29f38	-0.027663812
56	0x3cbb965b	0.022898844
57	0x3d839b3b	0.06426092
58	0xbd1b8d29	-0.037976418
59	0xbd7a0814	-0.06104286
60	0xbdb31403	-0.08744051
61	0x3c1271f1	0.008938299
62	0x3c9f0976	0.019413691
63	0xbc064034	-0.008194018
64	0xbd157ef0	-0.03649801
65	0xbbb3a5d3	-0.0054824143
66	0xbde51839	-0.11186261
67	0xbcc86c6f	-0.024465768
68	0xbcbb0c61	-0.022833051
69	0xbdb46e6a	-0.08810122
70	0xbcc723ea	-0.024309117
71	0xbcc28fd5	-0.023750225
72	0xbcd6e0f1	-0.026230307
73	0xbda6c1a2	-0.08142401
74	0xbd66d443	-0.056354772
75	0x3dcac2bc	0.09900424
76	0x3e0bd396	0.13654932
77	0x3d5ab3da	0.053394176
78	0x3d97fdc9	0.074214526
79	0x3d431168	0.04762402
80	0x3dccafa6	0.0999444
81	0x3d118a15	0.035532076
82	0x3d54f3c0	0.05199027
83	0x3c48c6f1	0.012254463
84	0xbd6fa257	-0.05850443
85	0xbd31f98b	-0.043450873
86	0xbd9d26ee	-0.07673441
87	0x3c10b3d2	0.008831935
88	0x3d3f4214	0.046693876
89	0xbdc10c8b	-0.094262205
90	0x3c5f32b1	0.013622926
91	0xbd0833e5	-0.033252615
92	0x3d384488	0.04498723
93	0xbc8cb896	-0.017177861
94	0xbd8a1a5d	-0.0674331
95	0xbce8437f	-0.028352497
96	0x3c91dcc7	0.01780547
97	0xbcb14493	-0.021639144
98	0xbccf3e08	-0.025298133
99	0xbdceffe6	-0.101074025
100	0x3bae5c45	0.005321058
101	0x3df2c5b3	0.118541144
102	0x3d1135e4	0.035451785
103	0x3d2a5c49	0.041591916
104	0xbd47d165	-0.04878368
105	0x3da9487e	0.0826578
106	0x3d858c79	0.06520934
107	0x3bd67477	0.0065446454
108	0x3d8b646f	0.068062656
109	0x3d6a1e3f	0.05715775
110	0x3cc51681	0.024058582
111	0xbb2d8f60	-0.0026483163
112	0x3c1023af	0.00879757
113	0x3b9d01fb	0.004791496
114	0x3cd6393c	0.026150338
115	0x3bc8f189	0.006132309
116	0x3aa261b0	0.0012388732
117	0x3a6550fd	0.0008747725
118	0x3cbaeafa	0.022817124
119	0x3d7e154e	0.062032036
120	0x3d9281a1	0.07153631
121	0x3d8ec0a8	0.0697034
122	0x3d296277	0.04135367
123	0x3d3ed8a1	0.046593312
124	0x3da2c1ec	0.07947144
125	0xbd39723c	-0.045274958
126	0xbd1875fe	-0.0372219
127	0xbd2e2701	-0.042517666
128	0xbc5bd511	-0.013417498
129	0xbd2ce0f2	-0.042206712
130	0x3da42884	0.0801554
131	0xbd4e1734	-0.050315097
132	0xbccff192	-0.025383744
133	0x3d5fac9c	0.054607973
134	0xbd3f7e70	-0.04675144
135	0x3d3176f4	0.043326333
136	0x3ab88507	0.0014077731
137	0x3cd806dd	0.02637046
138	0xbcdd4cd8	-0.027014181
139	0x3d032e21	0.032026414
140	0xbbd8823a	-0.006607321
141	0xba15f81d	-0.00057208707
142	0x3d19179d	0.037376035
143	0x3c8e0037	0.017334087
144	0x3d4229dd	0.047403205
145	0x3dbe0902	0.09279062
146	0x3d3e15d9	0.046407554
147	0xbc9c67c9	-0.019092457
148	0x3cc49350	0.023996025
149	0x3d3f3935	0.046685416
150	0xbbf0f4e0	-0.00735341
151	0x3d2a5a61	0.0415901
152	0x3cbfed03	0.023428446
153	0x3cdec6cd	0.027194405
154	0x3d2fab54	0.042888
155	0xbd3f3f0c	-0.046690986
156	0xbd104ca8	-0.035229355
157	0x3ca97d34	0.020689584
158	0xbc7019cf	-0.014654591
159	0xbd19eb70	-0.037578046
160	0xbd94b426	-0.07260923
161	0xbdc012d2	-0.0937859
162	0x3d15c41f	0.03656399
163	0xbd7d4cc4	-0.061840788
164	0xbd928686	-0.071545646
165	0xbd663542	-0.056203134
166	0x3c93499f	0.017979441
167	0x3d1eeff0	0.03880304
168	0xbda05919	-0.07829494
169	0xbdc2d377	-0.0951299
170	0xbdf91273	-0.12161722
171	0xbde06652	-0.10957016
172	0x3c344182	0.011001946
173	0x3c6b4235	0.014359047
174	0xbc8809e7	-0.016606284
175	0x3c848a92	0.016179357
176	0xbd7fe721	-0.06247628
177	0x3c44cf52	0.01201232
178	0xbc9ed6ca	-0.019389529
179	0x3d6869ba	0.056741454
180	0xbd9c5863	-0.07634046
181	0xbd8f1ffb	-0.06988522
182	0x3d741eec	0.059599802
183	0xbc961e3c	-0.018324964
184	0x3a661008	0.00087761926
185	0xbce4cfb1	-0.027931066
186	0xbda4d2de	-0.08048032
187	0xbb6d3bac	-0.0036198897
188	0xbd8172fc	-0.0632076
189	0xbdb42820	-0.08796716
190	0xbb9105aa	-0.004425724
191	0xbd67bcc0	-0.05657649
192	0xbd327c91	-0.043575827
193	0x398ad7a0	0.00026482064
194	0xbd66c679	-0.056341622
195	0xbd41ea4d	-0.047342587
196	0xbd5a0fed	-0.053237844
197	0xbc8c0555	-0.017092386
198	0xbd5222cd	-0.05130272
199	0xbc61f0d5	-0.013790329
200	0x3c4cfcc6	0.012511438
201	0xbc4d6ae0	-0.012537688
202	0x3ca03d18	0.019560382
203	0x3cb1e3e9	0.021715121
204	0x3d5312a8	0.051531464
205	0x3df1e1a6	0.11810617
206	0x3d131eec	0.03591816
207	0x3c90fedf	0.017699657
208	0xbbea8146	-0.007156524
209	0x3c8e0ee9	0.017341094
210	0x3dadede8	0.08492643
211	0x3bcfcb8e	0.0063414043
212	0xbda3989d	-0.07988093
213	0xbd15a11e	-0.036530606
214	0x3da90712	0.08253302
215	0x3df0230e	0.11725436
216	0xbd17eaa4	-0.037089005
217	0xbd3c1451	-0.045917813
218	0x3bb1a7ff	0.005421638
219	0x3d8c2309	0.0684262
220	0x3d13c691	0.03607804
221	0xbcbc83c5	-0.023012051
222	0xbc69751d	-0.014249113
223	0xbce864a5	-0.028368304
224	0x3d53b8f5	0.05169006
225	0x3d062c76	0.032757245
226	0xbd2a9530	-0.041646183
227	0x3d1322d0	0.03592187
228	0x3ca076d8	0.01958792
229	0xbd0c7e5f	-0.034300204
230	0x3cb91ad0	0.022595793
231	0x3d6964f8	0.056981057
232	0x3d8f3ba3	0.06993797
233	0x3c867cf1	0.016416999
234	0xbd61896a	-0.05506269
235	0x3d284947	0.041085508
236	0xbd19db02	-0.037562378
237	0x3c6b7630	0.01437144
238	0xbc99ec68	-0.018789485
239	0xbc8a2e22	-0.016867701
240	0x3cd78ecb	0.026313206
241	0x3c267cb2	0.010161566
242	0xbc1f626b	-0.0097280545
243	0xbd175460	-0.0369457
244	0x3d5abd36	0.0534031
245	0x3cda736d	0.026666367
246	0x3d2208c2	0.039559133
247	0xbc0d15c0	-0.008611143
248	0xbc7c0eb5	-0.015384366
249	0x3d896a39	0.067097135
250	0xbcbf8c01	-0.023382189
251	0xbd7c85de	-0.061651103
252	0xbcedad76	-0.029013377
253	0xbd6dff01	-0.05810452
254	0x3d0e03fd	0.034671772
255	0x3d5d54b7	0.05403587

fc1.bias f4 [120]
0	0x3dad597e	0.08464335
1	0xbd1bb953	-0.038018536
2	0x3d9abc3f	0.07555436
3	0x3da5ecbc	0.08101794
4	0x3e31d524	0.17366463
5	0x3cbe89b5	0.023259023
6	0x3e348e62	0.1763244
7	0x3d397878	0.045280904
8	0x3bbca3e2	0.005756841
9	0xbd28f4da	-0.041249134
10	0x3e3fee83	0.18743329
11	0x3ce65064	0.028114505
12	0x3e4366ef	0.19082235
13	0xbdc147f4	-0.09437552
14	0x3e346bae	0.17619202
15	0xbb0d0546	-0.0021518036
16	0x3d6c336c	0.057666227
17	0x3e1a6933	0.15079193
18	0xbd502472	-0.050816007
19	0xbc7cd36f	-0.015431269
20	0x3cc6b02b	0.024253925
21	0xbd338d4c	-0.043835923
22	0x3e14ffc3	0.1455069
23	0x3cf8a147	0.03035034
24	0x3df4f1f1	0.11960209
25	0xbe31c009	-0.17358412
26	0xbe01b000	-0.12664795
27	0xbcae7076	-0.02129386
28	0xbb8afef1	-0.004241817
29	0xbdeac1f4	-0.11462775
30	0xbc028b6b	-0.00796781
31	0xbd46c861	-0.04853094
32	0x3e9b6c6c	0.30356157
33	0xbdbdd139	-0.09268422
34	0x3e1eadbc	0.15495962
35	0xbd0c3ef8	-0.03423974
36	0xbce597ec	-0.028026544
37	0x3bbf2867	0.0058336738
38	0x3ddd0e49	0.1079374
39	0x3cb4881f	0.022037564
40	0xbde2393b	-0.11046072
41	0x3d191d55	0.03738149
42	0xbc98e249	-0.018662589
43	0x3d1421d4	0.036165074
44	0xbbb39f4b	-0.0054816357
45	0x3bc025da	0.0058638873
46	0x3c761003	0.015018466
47	0x3d7cf80e	0.06176
48	0xbaead41a	-0.0017915994
49	0xbdc20b88	-0.09474856
50	0x3e7eb4d6	0.24873671
51	0x3c0d745d	0.0086337
52	0xbd1ee0b3	-0.03878851
53	0x3df6c949	0.12050111
54	0x3e34a224	0.17639977
55	0xbd667444	-0.056263223
56	0xbd75c114	-0.059998587
57	0x3b8ddf2b	0.004329582
58	0x3d6fbaab	0.05852763
59	0x3c5aa4f1	0.013344989
60	0x3e19dc4f	0.15025447
61	0x3cb4ed1f	0.022085724
62	0x3bf4d182	0.0074712643
63	0xbd59219e	-0.053010575
64	0x3ccb6cfb	0.02483224
65	0x3d7ee7fd	0.06223296
66	0xbd4856f1	-0.04891104
67	0x3c661057	0.014041982
68	0x3da25a38	0.07927364
69	0xbd876a71	-0.06612099
70	0x3e39f72d	0.18160696
71	0xbd99c1bb	-0.07507654
72	0x3c9c0dd9	0.019049572
73	0xbb16fe9d	-0.0023039945
74	0x3cedde77	0.029036744
75	0xbb8024bd	-0.0039106295
76	0x3e047f78	0.1293925
77	0x3d9f0f89	0.07766635
78	0x3e23ce0f	0.15996574
79	0x3df7ee2a	0.12105973
80	0xbcc50bd8	-0.0240535
81	0x3d8db925	0.06920079
82	0x3cd051a7	0.02542956
83	0x3c1830f3	0.009289014
84	0x3cf2c242	0.029633645
85	0x3d4b8be4	0.049693957
86	0xb98f6b5a	-0.0002735507
87	0x3cec1517	0.02881865
88	0x3e9086ac	0.28227746
89	0x3e15ac04	0.146164
90	0xbdde511c	-0.10855314
91	0x3e4350f5	0.19073851
92	0x3d7fa735	0.06241532
93	0x3cfe6467	0.031053735
94	0xbca8dbc2	-0.020612601
95	0x3d88b95e	0.06675981
96	0xbd4d25e5	-0.050084967
97	0xbc3a2a27	-0.011362589
98	0xbbe9bde8	-0.0071332343
99	0xbdabbe4d	-0.08385906
100	0xbcf45228	-0.029824331
101	0xbdc103e7	-0.094245724
102	0xbd09795c	-0.033563003
103	0x3db76d4e	0.08956395
104	0x3da4c161	0.080446966
105	0x3d3cfc0d	0.04613881
106	0x3cad7f19	0.021178769
107	0x3e25cebc	0.16192144
108	0xbcd2b6dd	-0.025721962
109	0xbdbcd01d	-0.09219382
110	0x3d20680f	0.039161738
111	0x3e15e078	0.1463641
112	0xbc4b4768	-0.012407161
113	0x3e085d7e	0.13316914
114	0xbd56b005	-0.05241396
115	0x3d14d7aa	0.036338486
116	0x3d910ac3	0.07082131
117	0xbcdd29b6	-0.026997428
118	0xbc61afcc	-0.013774823
119	0xbcccbe62	-0.024993125

fc2.weight f4 [84, 120]
0	0x3d42551b	0.047444444
1	0x3cc48f7f	0.023994206
2	0xbca52471	-0.020158978
3	0x3df896ba	0.12138124
4	0x3d271947	0.04079559
5	0xbc7f2ade	-0.015574185
6	0xbd12ca9b	-0.03583775
7	0xbd54b0e4	-0.05192651
8	0xbd8b15ef	-0.06791293
9	0x3c4229bf	0.011850773
10	0xbc8f3546	-0.017481457
11	0x3da05e2a	0.0783046
12	0xbb047889	-0.0020213446
13	0x3d090162	0.033448584
14	0xbda0d9ca	-0.0785404
15	0xbdba6bc9	-0.0910259
16	0x3da8bf95	0.082396664
17	0x3d916bfd	0.07100675
18	0xbdad0196	-0.08447568
19	0xbbf7cea1	-0.007562474
20	0x3da49d66	0.08037834
21	0x3d5ff0cd	0.054673005
22	0x3d6a7839	0.05724356
23	0x3c8882f8	0.016664013
24	0xbda034bc	-0.07822558
25	0x3d95fc1d	0.073234774
26	0x3d5cc4ea	0.05389873
27	0x3c935e1a	0.017989207
28	0xbc4a94f4	-0.012364615
29	0xbdb34af1	-0.08754528
30	0xbd2b97d5	-0.041892845
31	0xbcda6633	-0.02666006
32	0x3dbb91f5	0.091586985
33	0xbe064259	-0.13111247
34	0xbd0e6f10	-0.034773886
35	0x3d4665dd	0.04843699
36	0xbdcab5c8	-0.09897953
37	0xbcf76c3e	-0.030202981
38	0x3d8cc0ec	0.068727344
39	0x3d852d33	0.06502762
40	0xbdc1330d	-0.09433565
41	0xbd2e1532	-0.042500682
42	0x3d30f1b1	0.043199245
43	0xbd26d785	-0.04073288
44	0xbd9f18b2	-0.07768382
45	0xbc9e75c8	-0.019343272
46	0xbb803b11	-0.0039132913
47	0xbde227de	-0.1104276
48	0x3d858eb4	0.06521359
49	0x3c9ba90b	0.019001504
50	0x3dfdc9fa	0.123920396
51	0xbb23f33c	-0.0025016805
52	0xbda12867	-0.07869034
53	0xbd0699c7	-0.032861497
54	0xbd1d42d7	-0.03839382
55	0xb86e4973	-5.6812027e-05
56	0xbd4b2359	-0.049594257
57	0xbd112740	-0.035437822
58	0xbcb2c529	-0.021822529
59	0xbd4102a9	-0.047121678
60	0xbd1338db	-0.035942893
61	0xbda083c2	-0.07837631
62	0x3c7d0208	0.015442379
63	0xbd4b8025	-0.049682755
64	0xbceda556	-0.029009502
65	0x3bef8e70	0.007310681
66	0x3d78c320	0.06073296
67	0x3dba28f4	0.090898424
68	0x3d55e2f0	0.052218378
69	0xbd7b238b	-0.061313193
70	0x3d18b3ba	0.037280776
71	0x3b9a66f3	0.0047119795
72	0xbd937239	-0.071995206
73	0xbcf920fd	-0.030411238
74	0xbc94d0f4	-0.018166043
75	0xbc8ee1e3	-0.017441696
76	0xbd9c3efe	-0.07629202
77	0x3d9076c5	0.070539035
78	0x3dc5896a	0.0964535
79	0x3dd0cedf	0.101957075
80	0xbd712d27	-0.05888095
81	0x3d874200	0.066043854
82	0x3d77a91e	0.060464017
83	0xbd44f27a	-0.048082806
84	0x3c5b84db	0.013398374
85	0x3d54c12f	0.051942047
86	0x3cc69da1	0.024245085
87	0xbd6d37d7	-0.05791458
88	0xbccc3580	-0.024927855
89	0x3d583ca3	0.052792203
90	0xbd6c7111	-0.057725016
91	0x3da9ee9b	0.082974635
92	0xbc62b49c	-0.013837006
93	0x3d5c4bfa	0.053783394
94	0x3c623319	0.013806128
95	0x3c3c27ad	0.011484069
96	0xbdbf5bdf	-0.09343695
97	0x3da15dc8	0.078792155
98	0x3d7d8bfc	0.061901078
99	0x3c96c4a3	0.01840431
100	0xbd0a9918	-0.033837408
101	0xbcd22673	-0.0256531
102	0x3c5231d2	0.012829261
103	0xbd39ecc5	-0.045391817
104	0xbd2267ed	-0.039649893
105	0x3d93e854	0.072220474
106	0xbd3baef7	-0.045821156
107	0x3d84cccc	0.064843744
108	0xba0775dd	-0.00051674043
109	0x3b7d02b9	0.003860636
110	0x3c8e5ba3	0.01737768
111	0x3db14f34	0.08657685
112	0xbdbf3e95	-0.093381085
113	0xbdd211e1	-0.102573164
114	0xbde0db97	-0.109793834
115	0xbd43bda3	-0.047788274
116	0x3d8c997a	0.06865211
117	0xbce8adae	-0.02840313
118	0xbd2ad3fb	-0.041706067
119	0xbda9200a	-0.08258064
120	0x3d85d1be	0.06534146
121	0xbc4de8ec	-0.01256774
122	0x3d8946b2	0.06702937
123	0xbd2453f2	-0.04011912
124	0xbd9cc0ad	-0.076539375
125	0x3d138cda	0.036023
126	0xbd154c80	-0.03644991
127	0xbdb0886e	-0.08619772
128	0x3daf5b2d	0.08562312
129	0x39ee272c	0.00045424083
130	0xbcc1b160	-0.02364415
131	0xbd4cd78b	-0.050010245
132	0x3d7902df	0.060793754
133	0xbcabf66f	-0.020991532
134	0x3d8460dc	0.06463787
135	0xbcc14da5	-0.023596594
136	0x3d16da93	0.036829542
137	0x3c1bbd92	0.009505646
138	0x3db44baa	0.08803494
139	0xbdc0362b	-0.09385332
140	0xbd0a2059	-0.033722255
141	0x3db4eafe	0.08833884
142	0x3d15158c	0.0363975
143	0xbd94fd8e	-0.07274924
144	0xbd2630c4	-0.04057385
145	0x3b6aac48	0.0035808254
146	0x3d35fbf6	0.04442974
147	0xbcce80b2	-0.025207851
148	0x3d7271c8	0.05919054
149	0xbdc50837	-0.096207075
150	0x3d281dd4	0.04104407
151	0x3cdb04a7	0.026735617
152	0xbd783f8b	-0.060607474
153	0x3d95cf5d	0.07314942
154	0x3d48b6a8	0.04900232
155	0x3c619f9c	0.013770964
156	0x3d026bbc	0.031841025
157	0x3d83583c	0.06413314
158	0xbd2f554a	-0.042805947
159	0xbd5f4876	-0.054512464
160	0x3db299f5	0.08720771
161	0xbd9346de	-0.07191251
162	0x3c6f63ce	0.014611198
163	0x3d6742c7	0.05646017
164	0x3bbcd2cf	0.005762435
165	0x3daa27c9	0.0830837
166	0xbcca3eef	-0.024688212
167	0xbd164896	-0.036690317
168	0x3dc03d89	0.09386737
169	0x3cf52b3b	0.02992784
170	0x3d72935d	0.059222568
171	0xbd57d526	-0.05269351
172	0xbcd2ead9	-0.02574675
173	0x3c870edd	0.01648658
174	0xbd1151d4	-0.035478428
175	0xbdb2322a	-0.08700974
176	0x3dbd74e0	0.09250808
177	0x3d1f5cef	0.038906988
178	0xbbb87f6a	-0.0056304233
179	0xbd3244cc	-0.04352264
180	0xbd03787e	-0.032097332
181	0xbdc018bc	-0.09379718
182	0x3cefaf54	0.029258408
183	0x3d84f9dd	0.0649297
184	0x3d9d88f3	0.076921366
185	0xbda38d81	-0.07985974
186	0xbcad1236	-0.021126848
187	0x3cadb1aa	0.02120288
188	0x3d37ec4d	0.04490309
189	0xbd356d58	-0.04429373
190	0x3db234e8	0.08701497
191	0xbda7453a	-0.08167501
192	0xbaef0490	-0.0018235613
193	0x3dcde22f	0.10052907
194	0xbd20eae7	-0.03928652
195	0x3b9c24be	0.004765122
196	0xbc568672	-0.013093578
197	0xbc43c15b	-0.011947955
198	0xbd6368b7	-0.055519786
199	0xbd76b15b	-0.060227733
200	0xbd7da18f	-0.061921652
201	0xbcd05bce	-0.0254344
202	0xbd776ad5	-0.060404617
203	0x3dd44039	0.10363812
204	0xbc3a8d82	-0.011386277
205	0x3c5c5d2f	0.013449951
206	0x3db69059	0.08914251
207	0xbd3af342	-0.045642145
208	0xbd9ad0fa	-0.0755939
209	0xbd4a35e8	-0.049367815
210	0x3d08b466	0.033375166
211	0xbc46b17d	-0.012127277
212	0xbd15cdfc	-0.036573395
213	0x3da581d1	0.08081401
214	0x3d63d81b	0.055626016
215	0x3d72a828	0.059242398
216	0xbdb2b91d	-0.08726714
217	0x3c88870d	0.01666596
218	0xbc0eb3ef	-0.008709892
219	0xbda41eff	-0.080137245
220	0xbddd4486	-0.108040854
221	0xbd248395	-0.04016455
222	0xbda359c9	-0.079761095
223	0xbd16d17d	-0.036820877
224	0x3d6bc191	0.057557646
225	0x3cea29bd	0.028584355
226	0x3d4d8c41	0.050182585
227	0x3dc1b02d	0.09457431
228	0xbd68a668	-0.056799322
229	0xbd31a1be	-0.04336714
230	0xbdbc5ce3	-0.09197404
231	0xbd0c94c2	-0.034321554
232	0xbc409e31	-0.011756466
233	0xbddba0a1	-0.10723997
234	0x3cee602a	0.029098589
235	0x3d311e12	0.043241568
236	0xbd8cf123	-0.06881931
237	0xbd7ead81	-0.062177185
238	0x3da171d2	0.078830376
239	0xbcc4fc4c	-0.024046086
240	0xbca432c8	-0.020043746
241	0xbda3c5e5	-0.0799673
242	0x3da25502	0.0792637
243	0x3d40f9c1	0.047113184
244	0xbd727936	-0.059197627
245	0xbd80848f	-0.062752835
246	0x3d90c490	0.07068741
247	0x3da66386	0.08124451
248	0x3dad5d59	0.0846507
249	0x3d8a26d7	0.06745689
250	0x3c92225c	0.01783865
251	0xbdac2de3	-0.0840719
252	0xbcf9d208	-0.030495659
253	0x3c3a743b	0.011380251
254	0xbdac06e8	-0.08399755
255	0x3d7bb8f8	0.061455697

fc2.bias f4 [84]
0	0x3e0b029e	0.13575217
1	0xbd9f91b9	-0.07791466
2	0xbba51374	-0.0050377194
3	0x3e4d7d4d	0.2006733
4	0x3dce7d56	0.100825
5	0x3e0219b0	0.12705112
6	0x3e0169a5	0.12637956
7	0x3d29c573	0.041448068
8	0x3b53ee24	0.0032337988
9	0xbdcb5981	-0.09929181
10	0x3e00334d	0.1251957
11	0x3de8af6b	0.11361583
12	0x3e7a5f39	0.24450387
13	0x3e1eb889	0.15500082
14	0x3e4df283	0.20112042
15	0x3e0e2670	0.1388185
16	0x3df55f84	0.11981109
17	0x3d02afb3	0.03190584
18	0x3da3592d	0.07975993
19	0x3da9121b	0.082554065
20	0x3d16d8ac	0.03682773
21	0xbd876111	-0.06610311
22	0xbd6f436d	-0.05841391
23	0x3e30b760	0.17257452
24	0xbd939f8c	-0.072081655
25	0xbd4665b5	-0.04843684
26	0x3de002f8	0.10938066
27	0xbd9f8e53	-0.07790818
28	0x3d124e6d	0.035719324
29	0xbd9b4321	-0.07581163
30	0xbda95350	-0.08267844
31	0x3e808788	0.25103402
32	0x3d17b887	0.037041213
33	0x3df48265	0.11938933
34	0x3eeb8729	0.46001557
35	0x3eacd070	0.33752775
36	0x3e3ec0bf	0.18628214
37	0x3c32e824	0.010919604
38	0x3e81c988	0.2534907
39	0x3e31c6cc	0.17360991
40	0xbd595e54	-0.053068474
41	0x3e256a7f	0.16153906
42	0x3e3623e2	0.17787126
43	0xbd8df484	-0.06931403
44	0xbd8b4731	-0.06800688
45	0x3e85d280	0.2613716
46	0xbcd7b7a1	-0.026332678
47	0x3ebea4db	0.3723515
48	0x3e95ef69	0.29284218
49	0x3c352b8d	0.011057747
50	0x3da22d43	0.07918789
51	0xbdf914c3	-0.12162163
52	0x3e91faea	0.28511745
53	0xbc2bfc97	-0.010497234
54	0xbd6d4beb	-0.05793373
55	0xbe061cd2	-0.13096932
56	0x3e526a01	0.2054825
57	0x3eb0afe5	0.34509197
58	0x3d8a3014	0.067474514
59	0x3d032312	0.032015868
60	0xbbdaafa2	-0.006673769
61	0x3e036cef	0.12834524
62	0xbdc72143	-0.09723141
63	0xbcc438b2	-0.023952816
64	0x3e908677	0.2822759
65	0xbda156d2	-0.07877888
66	0xbdef8fec	-0.11697373
67	0xba410f7f	-0.0007364675
68	0x3d67c09d	0.056580175
69	0x3da6a3b7	0.08136695
70	0xbd2de811	-0.042457644
71	0x3e29f15c	0.16595978
72	0xbce7c161	-0.028290452
73	0x3e5696a0	0.20955896
74	0x3d07c8cd	0.033150483
75	0x3d61ab9a	0.055095293
76	0x3dd4d60d	0.103923894
77	0x3d749c28	0.059719235
78	0x3e29897b	0.16556351
79	0x3dedf363	0.11618688
80	0x3e6a6eee	0.22893879
81	0x3d09f2f7	0.033678975
82	0x3e511bbc	0.20420736
83	0x3ddaf29a	0.10690804

fc3.weight f4 [10, 84]
0	0xbd9fea91	-0.07808412
1	0x3db56ce3	0.08858659
2	0xbdde8273	-0.10864725
3	0xbdb256b0	-0.087079406
4	0x3bbcd97c	0.005763231
5	0xbd90b73f	-0.070662014
6	0xbebbd6f7	-0.36687443
7	0x3e8c44fa	0.27396375
8	0x3d2277ad	0.039664913
9	0x3dc01877	0.09379666
10	0xbe005376	-0.12531838
11	0x3debd7dd	0.11515782
12	0x3e8cb578	0.274822
13	0x3cbe4795	0.023227492
14	0x3e6eb793	0.23312216
15	0x3a66c09c	0.0008802505
16	0x3de29b71	0.11064804
17	0x3db2a5e6	0.08723049
18	0xbd98babf	-0.07457494
19	0x3e554732	0.2082794
20	0x3e35b316	0.17744097
21	0xbe205816	-0.15658602
22	0xbd1b276f	-0.037879404
23	0x3e36c483	0.17848401
24	0xbc4225d1	-0.011849836
25	0xbd332456	-0.043735825
26	0xbdef9cd9	-0.11699838
27	0x3e1a9458	0.15095651
28	0xbcfef7bf	-0.031123994
29	0xbbc1310a	-0.0058957385
30	0x3dd1b4f6	0.10239594
31	0xbd8d4e1c	-0.06899664
32	0xbb9e77cd	-0.0048360587
33	0xbe17dddb	-0.14830725
34	0xbed46e32	-0.41490322
35	0xbdb8603e	-0.09002732
36	0x3e5d156a	0.215902
37	0xbe413b1a	-0.18870202
38	0xbc8e8d22	-0.017401282
39	0x3dfe8cf2	0.12429227
40	0xbd4cec29	-0.050029907
41	0xbe3a4d43	-0.18193536
42	0x3e66a261	0.2252288
43	0x3c9ade9e	0.01890498
44	0xbda37685	-0.0798159
45	0xbe2ac3db	-0.16676275
46	0xbd2107b7	-0.039313998
47	0xbc09751c	-0.008389737
48	0x3e914f10	0.28380632
49	0x3e3f4514	0.18678695
50	0x3e18f983	0.14938931
51	0xbce1caaa	-0.027562458
52	0xbe6530e4	-0.22381932
53	0x3d496a34	0.04917355
54	0x3dd1ced4	0.102445275
55	0x3975f6d1	0.00023456967
56	0x3d53603f	0.05160546
57	0xbd9847e9	-0.07435591
58	0x3e1b7537	0.15181433
59	0xbc4d9e0b	-0.012549887
60	0x3d125cc6	0.035733007
61	0x3e1c24c1	0.15248396
62	0x3e25f0cb	0.16205136
63	0xbd5459d7	-0.05184349
64	0xbd8f552f	-0.06998669
65	0xbccc50e5	-0.024940917
66	0x3d8f850a	0.07007797
67	0xbe5516a1	-0.20809413
68	0xbdbbf9e8	-0.09178525
69	0x3d978fa9	0.07400448
70	0x3d1ea02a	0.038726963
71	0xbe0c8323	-0.137219
72	0xbd3748af	-0.04474705
73	0xbd931331	-0.07181395
74	0xbc1d72d9	-0.009609901
75	0x3e0e8a83	0.13920026
76	0xbe212229	-0.15735687
77	0x3d59c2e8	0.053164393
78	0x3daf5e26	0.08562879
79	0x3da2b4a2	0.07944609
80	0xbe01bf38	-0.126706
81	0x3d109f4a	0.03530816
82	0xbd8e5c07	-0.069511466
83	0x3e5acd69	0.2136742
84	0xbdbc1af2	-0.09184827
85	0x3dc8a799	0.09797592
86	0x3e03b18e	0.128607
87	0xbbfc95c2	-0.007708282
88	0x3e250566	0.1611534
89	0xbda4e513	-0.08051505
90	0xbe527be9	-0.2055508
91	0x3e14697e	0.14493367
92	0x3ebc62af	0.3679404
93	0x3df033e1	0.11728645
94	0xbc9c8ca9	-0.01911004
95	0x3e24d056	0.16095099
96	0x3e046588	0.12929356
97	0xbc983ef9	-0.018584715
98	0xbe5e2858	-0.21695077
99	0x3e00b3b9	0.12568559
100	0x3c4738a0	0.012159497
101	0xbb1c135b	-0.0023815248
102	0xbcd9c241	-0.026581885
103	0xbde5194a	-0.11186464
104	0xbe27d95f	-0.16391514
105	0x3e0f38c3	0.13986497
106	0x3e7c57b3	0.2464283
107	0x3c068dce	0.00821252
108	0x3d71ea93	0.059061598
109	0x3da0c72c	0.07850489
110	0xbe4ea319	-0.20179404
111	0xbd741171	-0.059586946
112	0xbd2493b4	-0.040179923
113	0x3ab6a793	0.0013935439
114	0x3d56169e	0.052267663
115	0x3d3b9711	0.045798365
116	0x3d69593f	0.056969877
117	0x3de79a58	0.113087356
118	0xbd6d5044	-0.057937875
119	0xbe6ceb50	-0.2313664
120	0x3e2a0c4c	0.16606253
121	0x3db99e77	0.09063428
122	0xbea078c9	-0.31342152
123	0xbdc4e706	-0.09614377
124	0x3e591adb	0.21201651
125	0x3c70d81c	0.014699962
126	0xbc2aa108	-0.010414369
127	0x3c9cbc82	0.019132856
128	0x3cf11990	0.029431134
129	0x3c9543fa	0.01822089
130	0x3ea429bf	0.320631
131	0xbe7bd50b	-0.24592988
132	0xbe0c6666	-0.13710937
133	0x3e00116e	0.12506649
134	0x3d5970a4	0.053085938
135	0x3cd8d374	0.026468016
136	0xbe825160	-0.2545271
137	0x3d3cbe78	0.046080083
138	0xbdc2445f	-0.09485697
139	0xbc60fed0	-0.013732627
140	0xbe42441e	-0.18971297
141	0xbe225cd5	-0.15855725
142	0x3e802697	0.25029442
143	0x3e065bff	0.13121031
144	0xbe31e263	-0.17371516
145	0x3de968bd	0.1139693
146	0x3d8172aa	0.063206986
147	0xbd95382c	-0.072861046
148	0xbcdf707b	-0.027275315
149	0x3eafe595	0.34354845
150	0x3e0b2b10	0.13590646
151	0x3d7182b5	0.058962543
152	0xbd395713	-0.045249056
153	0x3e8b072e	0.27153915
154	0xbc759ace	-0.014990522
155	0xbd240c27	-0.040050652
156	0x3e1c0a34	0.15238267
157	0xbd432e42	-0.047651537
158	0x3d00027a	0.03125236
159	0xbdec0e2b	-0.1152614
160	0x3d2e19df	0.04250514
161	0xbd96f275	-0.07370464
162	0xbe496c21	-0.19670154
163	0xbd889094	-0.06668201
164	0xbe526639	-0.20546807
165	0xbcaf5583	-0.02140308
166	0xbe36c064	-0.17846829
167	0x3e8ffbfd	0.2812194
168	0xbd2997e2	-0.041404612
169	0xbdf7c410	-0.12097943
170	0xbd15d5a9	-0.036580715
171	0xbd3fda54	-0.046839073
172	0xbe0b8e19	-0.13628425
173	0x3e219bf8	0.15782154
174	0x3d64c89f	0.05585539
175	0xbbab1cb3	-0.005221927
176	0xbe59ce18	-0.21270025
177	0xbdcf15b0	-0.101115584
178	0x3d5a60b5	0.053314883
179	0xbe73eb69	-0.2382027
180	0x3e11ccd1	0.14238288
181	0xbdf2d0b2	-0.11856212
182	0xbc530acd	-0.012880993
183	0x3dabec45	0.08394674
184	0xbe1df5f1	-0.1542585
185	0x3c5037c5	0.012708609
186	0x3e155072	0.14581469
187	0x3e6f42b2	0.23365286
188	0xbd2f577f	-0.042808052
189	0xbe0a48a0	-0.13504267
190	0xbcd6ccbb	-0.02622067
191	0xbbc5ea41	-0.006039888
192	0x3d3d78e2	0.04625786
193	0x3d82a10f	0.06378376
194	0xbc7d4159	-0.015457475
195	0x3cedb2cf	0.029015927
196	0xbd800de3	-0.06252649
197	0xbd4f3d57	-0.050595608
198	0x3ce2680f	0.02763751
199	0x3dd48079	0.10376067
200	0x3d6aacc8	0.057293683
201	0x3e0d6738	0.13808906
202	0x3ea98cbe	0.3311519
203	0x3e40c710	0.18825936
204	0xbd78f7ae	-0.06078308
205	0x3e37e24a	0.17957416
206	0x3e65cb74	0.22440892
207	0x3dbf4ecc	0.09341201
208	0x3de71734	0.112837225
209	0xbe13bddc	-0.14427894
210	0x3e51f94d	0.20505257
211	0xbd12ec89	-0.03587011
212	0xbdbd3f60	-0.092406034
213	0xbc6ac5e1	-0.014329405
214	0xbd2ddfd2	-0.04244978
215	0xbca861c1	-0.020554425
216	0x3e95c174	0.29249156
217	0x3b813948	0.003943596
218	0xbe111230	-0.14167094
219	0x3d74971b	0.059714418
220	0x3d0e6343	0.034762632
221	0x3e18fd30	0.14940333
222	0xbcc9e927	-0.024647309
223	0xbe1d876f	-0.15383695
224	0x3e6ce232	0.23133162
225	0x3d990058	0.07470769
226	0xbdadcaa1	-0.08485914
227	0xbe0eb1fd	-0.13935085
228	0x3e49554c	0.19661444
229	0xbd38021a	-0.04492388
230	0xbd1de759	-0.03855071
231	0x3dbe2db4	0.09286061
232	0x3e606acb	0.21915738
233	0xbe1a4316	-0.15064654
234	0xbd902d80	-0.070399284
235	0xbdd79dcf	-0.105281465
236	0xbe2507ca	-0.16116253
237	0xbdf4c88b	-0.11952313
238	0x3b2a9d4a	0.0026033693
239	0x3d79a9bc	0.060952887
240	0xbd95ee53	-0.07320847
241	0x3dd69ed1	0.104795106
242	0xbdd03702	-0.10166742
243	0x3e2a8239	0.16651239
244	0xbd63bc70	-0.05559963
245	0xbd1f4940	-0.038888216
246	0x3dcc831e	0.09985946
247	0x3dfd7874	0.1237649
248	0xbdf2cceb	-0.11855491
249	0x3d326f30	0.043563068
250	0x3cbb02b6	0.022828441
251	0xbe5a8f07	-0.21343623
252	0xbdb6a430	-0.08918035
253	0x3d3c2243	0.045931112
254	0x3d9d4b63	0.076803945
255	0x3e1d1fa8	0.15344107

fc3.bias f4 [10]
0	0xbda82701	-0.082105644
1	0xbf1121f7	-0.5669245
2	0x3e8936d0	0.2679963
3	0x3e1002f9	0.14063634
4	0x3ec3a989	0.38215283
5	0xbe6eb9a4	-0.23313004
6	0x3e95d66c	0.29265153
7	0xbe94c2f6	-0.29054993
8	0x3ea47d4b	0.3212684
9	0xbeb16f5a	-0.34655267
